models/coarse_model_42.pt (torch, 10559 bytes, 8 tensors)

grud_cell.weight_z f4 [17, 34]
000000 83 82 64 3f 21 b1 e4 bd 1e a0 e9 3e b6 38 88 3e
       0.89261645 -0.11166597 0.45629972 0.26605767
000010 39 ed 97 3e 4c cc 8d bd f8 b2 0e be bc c8 91 3e
       0.29673174 -0.06923732 -0.13935459 0.2847346
000020 bc e6 ad 3e 74 c9 97 be e2 a1 96 3e a0 30 b9 be
       0.339651 -0.29645884 0.29420382 -0.3616991
000030 b4 da 0e 3e 49 1e a8 3d 69 db 49 3e 76 2e 06 bd
       0.13950616 0.082089014 0.19712605 -0.032759152
000040 13 05 f9 3d f0 0f c1 3e f9 96 4d be c7 59 ce 3e
       0.12159171 0.37707472 -0.20077123 0.4030287
000050 53 d5 57 3d 6a d1 c2 bd 36 2d c7 be 75 cf a5 be
       0.052693676 -0.09512599 -0.3890168 -0.3238484
000060 02 76 de be b4 ac dc be a2 f6 13 3d 04 df 90 be
       -0.43449408 -0.43100512 0.03612388 -0.28295147
000070 9f 64 a5 be 5e fe 98 be e8 e6 11 bf b8 3a 19 bf
       -0.3230333 -0.29881567 -0.5699296 -0.5985522
000080 d8 d1 cc bd 83 b0 23 bd 47 bc 9e bf 5a bb cc 3d
       -0.10000962 -0.039963257 -1.2401208 0.09996672
000090 af 1b 6b 3c a8 6b f1 bd 22 4a 5b 3d 19 1f 36 be
       0.014349862 -0.11788112 0.053537495 -0.177853
0000a0 9d 05 e0 be cb ce 07 be fa e0 65 3d d1 3d d3 3c
       -0.43754283 -0.13262479 0.056122757 0.025786312
0000b0 ad e5 85 3d 30 8f 2e be d1 77 48 3e f1 b8 ed 3d
       0.06537948 -0.17046809 0.19576956 0.116075404
0000c0 a6 c6 b3 3e 58 7c d5 be 6e c8 c9 bd 0a 24 4e 3a
       0.35112494 -0.4169643 -0.09852682 0.00078636466
0000d0 75 e6 1d bf 18 87 7d 3e 5f 3e 54 bd c6 11 82 bd
       -0.61679775 0.24758565 -0.051817294 -0.06351046
0000e0 a1 77 34 be 87 72 0e 3e 0c 85 fc bc 6c 6b a1 be
       -0.1762376 0.13910876 -0.03082516 -0.3152727
0000f0 b8 23 c2 3d ba 11 21 be 98 bc 33 3e 91 4f bf be
       0.09479469 -0.15729418 0.17552412 -0.37365392
000100 51 9a ef 3d e8 c6 67 ba 2a 75 cc 3e 8e 4c 4f be
       0.116993554 -0.000884159 0.3993314 -0.20244047
000110 bc ac 2c be 86 15 05 be e6 87 70 bd 0c 93 ab 3c
       -0.16862768 -0.12996492 -0.058723353 0.02094414
000120 d8 f2 0e 3f 16 3a c1 be 5e 05 80 be 69 5c e7 be
       0.558393 -0.3773963 -0.25004095 -0.4518769
000130 dd 4d 77 be 90 f2 9f 3e 95 65 c7 3d 77 7c a1 3e
       -0.24150796 0.31239748 0.09736172 0.31540272
000140 67 78 17 be 18 a6 fd bd 8c 9f f4 3e 0a f8 30 3e
       -0.14792024 -0.123851955 0.47777975 0.1728212
000150 77 8a 03 3f ba 1e 16 bd 3a cd d8 3e 6f bb 90 be
       0.51383156 -0.036650397 0.42344075 -0.28268
000160 a7 89 e0 be 24 2c 90 be c9 dd d0 3e 14 f3 2f 3f
       -0.4385502 -0.28158677 0.4079421 0.6873028
000170 0d 02 c6 be 30 0c 1b 3f 63 c3 fc be 27 a3 b6 be
       -0.3867344 0.6056547 -0.49367818 -0.3567135
000180 8b af 0d bd 41 f1 f5 be 2e 2d 99 3c 17 21 b6 be
       -0.03459124 -0.48035625 0.018698301 -0.3557212
000190 a5 82 5d bd 4f 69 1a 3f dd ae d3 be 22 9d 63 be
       -0.05407967 0.6031694 -0.41344348 -0.2222791
0001a0 99 91 9f be 21 43 65 be 49 46 cd bd af 2b 8a 3d
       -0.3116577 -0.22388889 -0.100231715 0.06746613
0001b0 65 ad 09 bf dc 58 57 3c d7 3a 12 3e dd ef 8d 3d
       -0.53780204 0.013143744 0.14280258 0.06930516
0001c0 42 02 98 3d 98 f3 26 bf 06 01 2b be a4 84 9b be
       0.07422306 -0.65215445 -0.16699609 -0.30374634
0001d0 02 93 96 be d7 c0 0d be 4e c7 f5 bd 68 7f e9 bd
       -0.29409033 -0.13843094 -0.12000905 -0.11401254
0001e0 bf 05 88 3d 4f e7 3c 3e bc e4 01 bf 26 2e 73 be
       0.06641721 0.18447612 -0.50739646 -0.23748073
0001f0 4a 01 42 be 97 e6 89 be 89 fc 05 3e ab 9e 4f 3e
       -0.18945804 -0.2693374 0.13084616 0.20275371
000200 01 9f b9 3e 17 32 bb bd 96 a7 b2 3d ad d2 95 3e
       0.36254123 -0.09140413 0.08723371 0.29262295
000210 8f 3a ce be ae f8 8c be 04 f6 55 3c 2e 71 e9 bd
       -0.40279052 -0.27533478 0.013059143 -0.113985404
000220 3f ed 84 bf e3 23 be bd 6b 27 16 3c 8f 13 2b bf
       -1.0384902 -0.092841886 0.009164671 -0.6682672
000230 1f 9c 33 be cd 13 cb bc 55 78 c7 bc 9a bc 6a bd
       -0.17540024 -0.024789715 -0.024349371 -0.05730877
000240 22 b8 87 3d 03 e7 ed be 6c 38 2d 3e fd 06 44 3e
       0.066269174 -0.4646531 0.16916054 0.19143291
000250 31 de 13 3f 84 b9 db be 02 08 31 bd 8a bd 8f bd
       0.5776091 -0.42914975 -0.043220527 -0.070185736
000260 aa 3d 84 3e 64 4b ed be 36 04 69 3e f8 c4 5b bd
       0.25828296 -0.4634658 0.22755513 -0.05365464
000270 c7 73 ce 3d db ea 2c 3e 52 52 59 be fe a1 de be
       0.100806765 0.16886465 -0.21222809 -0.43482965
000280 3a a5 b7 3c 7f 08 47 3f 0e 49 ec 3e 96 10 db bd
       0.022417653 0.7774734 0.46149486 -0.10696523
000290 b6 3c 3f 3e 95 57 7b bd 3f be a5 3e 08 0d 3c 3d
       0.18675503 -0.06136282 0.3237171 0.045910865
0002a0 6b 74 29 3f 7c e0 f4 3d ac 98 6f 3e c3 8b 6a 3d
       0.66193265 0.119568795 0.23398083 0.057262193
0002b0 06 d0 92 3e 4a 31 39 3b 57 75 93 3e ec 61 c6 3e
       0.28674334 0.0028258138 0.2880046 0.38746583
0002c0 3f 03 20 be f4 db ba 3c 38 2c de 3e 6e 00 ca bd
       -0.15626238 0.02280996 0.4339311 -0.09863363
0002d0 76 71 26 bd 27 c7 d0 be cd 21 9b be 7a 56 41 bc
       -0.04063555 -0.4077694 -0.30299225 -0.011800403
0002e0 63 1d 14 3f ec 10 fc 3e 2e d4 86 3d 26 fc fb bd
       0.5785734 0.4923166 0.06583439 -0.12303953
0002f0 9e 0a 84 be 58 4f d8 3e 3c 9e 4c 3e 40 55 8d be
       -0.2578935 0.42248034 0.19982237 -0.27604103
000300 a7 b5 49 be 7b 58 1f be 87 2b 46 be 91 bb b8 bd
       -0.19698201 -0.15561096 -0.19352542 -0.090201505
000310 ae 9e 26 3f c1 d6 45 bd 56 8e 31 be 00 7b a6 bc
       0.65085876 -0.04830051 -0.17339453 -0.020322323
000320 2f 3d 72 bf 46 33 ff be bc 1c b1 3e 35 ac 9c be
       -0.9462461 -0.49843806 0.34592235 -0.30600134
000330 c8 34 26 be 60 b8 0c bf a2 0d eb be de df 9d be
       -0.16231072 -0.54968834 -0.4590884 -0.3083486
000340 f9 c5 04 ba 23 b7 d1 3d 0c a1 21 3c d5 18 f1 bd
       -0.00050649006 0.10240009 0.009865057 -0.117723145
000350 14 08 f5 be e2 db 83 be fa 54 8c be f5 46 2d 3f
       -0.47857726 -0.25753695 -0.27408582 0.67686397
000360 0a f7 16 3e 01 0a 3f be 74 29 a0 bd 24 a5 84 3d
       0.14742675 -0.1865616 -0.078204066 0.064768106
000370 2e 80 2a 3e 65 30 1c 3f 0e fd 94 be 58 00 b7 bc
       0.16650459 0.61011344 -0.29099315 -0.022339031
000380 12 c3 e7 be c4 c8 9b 3c bc ad 27 3f 67 e1 ac 3d
       -0.45266014 0.019016631 0.6549947 0.084414296
000390 ee e3 85 be 41 70 a5 be 07 a4 f3 bd 69 25 b3 3d
       -0.2615046 -0.32312205 -0.1189652 0.0874737
0003a0 de fa a4 bc 5d fd 12 bd 78 e7 8e 3e 15 b1 f0 3d
       -0.020139154 -0.035886157 0.27910972 0.11752526
0003b0 a2 c5 22 3c 4e 32 6a bf cd 62 29 bf a5 07 e6 be
       0.009934815 -0.9148301 -0.66166383 -0.44927707
0003c0 36 10 06 3e 65 0f b3 be b3 ca 9b 3e f6 89 db be
       0.13092121 -0.34972683 0.30428085 -0.42878693
0003d0 f2 cb 5c be ea 74 2c be af 4c 66 be 6d 49 27 be
       -0.21562174 -0.16841474 -0.2249019 -0.16336603
0003e0 c2 d6 cd 3d a9 e3 a3 3e 1e 58 41 3e d2 05 db be
       0.100507274 0.32009628 0.1888127 -0.42777878
0003f0 e1 a1 95 3e 5f 73 98 3c 5c 83 b3 bd 1e 5f 22 bf
       0.29225066 0.0186097 -0.08765289 -0.6342639

grud_cell.weight_r f4 [17, 34]
000000 8e bf a1 be 16 36 65 be e7 21 fd 3e 17 3d aa be
       -0.31591457 -0.22383913 0.49439928 -0.33249733
000010 a4 51 4a be cc 33 b8 3e 89 e0 4d 3c d4 ad 0e 3e
       -0.19757706 0.35977018 0.01256574 0.13933498
000020 aa fb de bd 14 a3 fc 3d 7d ff 12 bf 88 72 8e be
       -0.10887845 0.12335792 -0.57421094 -0.27821755
000030 eb 3d 2f 3f 5c eb 11 be 8b ce 13 be 6d c3 a3 bd
       0.68453854 -0.14249939 -0.14434259 -0.07996259
000040 66 af 84 be 00 bd 5b be c4 5e 26 3e e9 b0 38 be
       -0.25915068 -0.21458817 0.16247088 -0.18036236
000050 94 d4 08 3f 60 ea a4 3d 16 d4 06 be 42 78 6a be
       0.5344937 0.08052516 -0.13166842 -0.22897437
000060 95 34 0e bf 22 bb 19 bd fb ae e9 be 18 b5 e8 be
       -0.55548984 -0.03753198 -0.45641312 -0.45450664
000070 1d de a7 be 4f 66 90 be 0b 4e 45 3d e0 3e b9 3e
       -0.32786646 -0.28203055 0.04817013 0.36180782
000080 cf f9 19 3f cc e9 91 3d 83 f3 c0 be 38 28 f6 3e
       0.601468 0.07124671 -0.37685785 0.4807756
000090 4f 38 9d be 90 69 10 be a1 48 e2 3e f1 3c 09 bf
       -0.30707023 -0.14102769 0.44196036 -0.53608614
0000a0 cc 5c 1a 3d 2f fc a4 bd aa 63 ee bd 80 55 41 be
       0.037686154 -0.08055913 -0.11640103 -0.18880272
0000b0 64 ef 81 be ff a7 07 3e e6 f1 33 3d 8e 30 81 bc
       -0.25377953 0.13247679 0.043931864 -0.015770223
0000c0 68 ab e9 3d bc cb b6 3e 44 dd 04 bf ce 5a 4c 3e
       0.11409646 0.35702312 -0.51900125 0.19956514
0000d0 7a 66 30 be f1 2e f6 3b 7f 4b d0 bd fb 80 1e 3c
       -0.17226592 0.00751292 -0.1017065 0.009674306
0000e0 5c 1e ca bd 40 65 db 3e ce a9 e5 be a6 bb 11 bd
       -0.09869072 0.42850685 -0.44856113 -0.035579346
0000f0 78 3c 87 be 8a 9d c9 bd c2 bc f8 3c ad c8 ab be
       -0.26413321 -0.09844501 0.030363444 -0.3355154
000100 ab 6b 13 3f 2e df 0e be c3 8e d6 be ae ab a4 bd
       0.57586163 -0.13952324 -0.41905794 -0.08040558
000110 f6 9c c5 3d 78 f4 bd bd d7 fd ba be 47 b4 cc bd
       0.096490785 -0.09275144 -0.3652179 -0.09995323
000120 60 19 f3 3e a7 d1 d0 bd 5b 05 ea 3c df e1 44 be
       0.47480297 -0.10196238 0.028567007 -0.19226788
000130 b4 64 9b 3c 40 32 53 3e 8d 01 67 ba 8b 52 37 3e
       0.018968917 0.20624638 -0.0008812182 0.17902581
000140 a5 c5 67 3d 4c ec 99 3e 4f 39 6f be ed 1c 52 3d
       0.056584973 0.30063093 -0.23361705 0.051297117
000150 3f 95 e6 be bf bc 19 3f 3c e0 0c 3f 4d 6a 84 3e
       -0.4503574 0.6005363 0.55029655 0.2586235
000160 e5 90 58 be 56 c8 aa be c5 70 ae 3e 58 f3 c6 3e
       -0.21149023 -0.3335597 0.3407041 0.38857532
000170 9b 79 21 be 0b 3c 03 3f 46 2e f9 3e 3a 53 e4 bd
       -0.15769045 0.51263493 0.48668116 -0.11148687
000180 59 cf a9 be 67 88 97 3e a2 49 f9 bd de 91 27 bf
       -0.33166006 0.29596254 -0.121722475 -0.6545695
000190 12 c0 13 bf 3f 83 80 3e e7 40 1a 3f 88 ff 73 3e
       -0.5771495 0.25100133 0.60255283 0.23827946
0001a0 f5 32 35 bf 26 ec a6 3d 3f 50 e8 be 1c e2 02 3f
       -0.7078088 0.081505105 -0.45373723 0.51126266
0001b0 45 92 79 bc 20 aa 8f bc d7 eb 0a be 6b 46 9b 3e
       -0.015232627 -0.017537177 -0.13566528 0.30327162
0001c0 8a 4b b7 3e dd 57 f7 3e ad 73 fc 3d 42 48 08 3e
       0.3579982 0.48309222 0.12326751 0.13308814
0001d0 0a f8 19 be e2 54 a4 bd 1e a4 27 bd 2a 5e 2f 3f
       -0.15036026 -0.080240026 -0.040928 0.6850306
0001e0 26 1b bd bc 3c 42 6f 3e 0e 86 e0 3d 4c 8c e3 be
       -0.023084234 0.2336511 0.10963069 -0.44442976
0001f0 db 5d 15 be 54 4e fd be 7e 9b 06 be ee a2 8c bc
       -0.14586584 -0.49473822 -0.13145253 -0.017167535
000200 24 57 c9 3e c4 7d ac bd db 70 d1 be 83 5c b6 bd
       0.39324296 -0.084224254 -0.40906414 -0.08904364
000210 6a 02 07 3e 0b 2b a1 3e cf 93 1a be e3 84 95 be
       0.13184515 0.31478152 -0.15095447 -0.29202947
000220 e5 23 25 3f 6e 33 0d 3e ed a8 a0 bd 47 d6 5a 3d
       0.64507896 0.1378915 -0.0784472 0.053427007
000230 0f 17 7d 3d e0 83 05 3b ab 8f 14 3d 49 75 97 3e
       0.06178957 0.0020372793 0.036269825 0.2958167
000240 4d b5 d4 3e cb e4 99 3e 36 66 f1 be 62 b5 00 3f
       0.41544572 0.30057368 -0.47148293 0.5027677
000250 d7 a1 36 3d c2 01 a1 be ec a2 5b be 0d d2 ae be
       0.044587936 -0.31446654 -0.21448869 -0.3414463
000260 00 43 d1 3e 27 47 9f be 68 7e b7 be cf 01 28 3d
       0.4087143 -0.31108972 -0.35838628 0.04101735
000270 48 ca 1b be f7 3d 84 3e f0 10 dc be 2f 4e 84 be
       -0.15213883 0.25828525 -0.42981672 -0.258409
000280 36 11 fb 3d 15 69 36 3f a6 8e 0b 3f 23 05 91 bc
       0.12259142 0.7125409 0.5451454 -0.017702645
000290 8e df 91 3d 36 d5 44 3e 8b 15 18 3e ec 80 97 be
       0.07122718 0.19221959 0.14851968 -0.29590547
0002a0 b9 2b ed bd a4 05 82 be 65 d8 03 bf da 32 80 be
       -0.11580605 -0.25394928 -0.51502067 -0.25038797
0002b0 d1 24 be 3b 1c 25 57 be 59 d3 a8 bd 47 30 14 3e
       0.0058027287 -0.2101025 -0.08243436 0.14471541
0002c0 db f6 e4 3e 50 cc 02 3e 53 84 05 bf 6a 23 84 3e
       0.44719586 0.12773252 -0.52155036 0.2580827
0002d0 92 31 b8 be 91 30 4a 3e 9a c4 a2 3c 77 cc b1 be
       -0.3597532 0.19745089 0.019869138 -0.34726307
0002e0 30 15 4e 3e 25 78 f2 3d 06 8f 27 be 06 5e a5 3d
       0.2012527 0.11839322 -0.16363153 0.08074574
0002f0 0a 91 37 ba 80 71 b6 be 2a da c9 be 78 cb 94 3e
       -0.00070025085 -0.3563347 -0.39424258 0.29061484
000300 25 cc 51 3e 2c 38 12 be f3 79 04 bf 94 6b 26 be
       0.20488031 -0.1427924 -0.5174858 -0.16251975
000310 92 56 4f 3e 37 8e 01 3d 91 af de be 54 c9 73 bd
       0.20247868 0.031629767 -0.43493322 -0.059518173
000320 51 b9 9b 3d 8d a8 34 3e 2f 8e 4c be f9 b2 0d be
       0.07603706 0.17642422 -0.19976114 -0.13837804
000330 88 84 fa bd 39 fa ff be ee b6 22 3e f9 1f 02 be
       -0.122323096 -0.49995592 0.15890095 -0.12707509
000340 fc 23 63 be 92 d5 44 3e 81 8b ab be ce d2 40 3e
       -0.22181696 0.19222096 -0.3350487 0.18830416
000350 d1 d5 22 bf 30 fc 94 be 78 f1 60 3e 5c 64 0c be
       -0.6360751 -0.29098654 0.21967113 -0.13710159
000360 69 30 45 be 69 50 33 3c a1 aa 3a be 2b 17 e8 be
       -0.19256748 0.010944464 -0.18229152 -0.45330176
000370 64 e1 7f bd 5a 13 c8 3c 51 e3 2c 3e ea a9 bd 3e
       -0.06247081 0.02442329 0.1688359 0.37043697
000380 0a 14 24 bf 73 c5 01 3e df 42 68 be fe 76 36 be
       -0.6409308 0.12672977 -0.2268176 -0.1781883
000390 f1 f6 b5 be a5 06 05 3e 8f 04 a7 be bd 18 6e be
       -0.35539964 0.12990816 -0.32620665 -0.23251624
0003a0 2f 5c 1f bf 5f 12 c2 3e 1a 67 0c 3e 29 db 2d bd
       -0.62250036 0.3790464 0.13711205 -0.042445336
0003b0 07 d7 2c 3e 8e b8 b2 bd 3a b5 cc 3e 9b 9e fc 3e
       0.16878901 -0.08726607 0.39982015 0.49339756
0003c0 f3 e8 99 bd c0 c5 82 3e 44 30 9a 3e 1e 64 3d 3e
       -0.07515135 0.25541496 0.3011495 0.18495223
0003d0 4d b3 a7 bd 40 18 5a be db c3 b3 3d 9d a4 35 3d
       -0.08188496 -0.21298313 0.08777591 0.04434644
0003e0 2a b4 ca 3e 5c 48 dd be a5 33 50 be 1d fe 00 3e
       0.3959058 -0.43219268 -0.20332201 0.12596937
0003f0 20 19 ae 3e 1b dc 2e be 40 df a2 be 16 d0 ca bd
       0.34003544 -0.17076151 -0.3181095 -0.099029705

grud_cell.weight_h_tilde f4 [17, 34]
000000 51 d0 4d 3e 2c 25 af 3e 0d 8a ea be dd 0d 26 3d
       0.20098998 0.34208047 -0.4580845 0.040540565
000010 e3 18 a9 3d 4f 48 ee bc 36 e6 9d 3c 4a 62 d2 3c
       0.082567 -0.029087214 0.019274812 0.025681634
000020 37 3a 6d bd ea d6 99 3e 87 5c c2 bd bb de 13 3e
       -0.057916846 0.3004678 -0.094903044 0.14440434
000030 30 fb 8c bd c2 88 81 be 36 9e 19 3e 55 f7 20 3d
       -0.06883848 -0.2529965 0.15001759 0.039298374
000040 3c a3 5d be f9 23 d6 3e f7 a3 da 3e 6c 36 89 3e
       -0.216443 0.4182432 0.4270322 0.26799333
000050 90 e3 ea 3e b7 be af 3e 30 1d 20 3f dc 8b 69 3e
       0.4587674 0.3432519 0.62544537 0.22807258
000060 b7 74 3d 3e f9 f7 b3 bd 32 ea b9 be 79 f3 0a be
       0.18501554 -0.087875314 -0.3631149 -0.1356944
000070 a5 8e a9 3e d6 ad 81 be 1c 2c f7 bd c8 3f 63 be
       0.33116642 -0.2532794 -0.1206896 -0.221923
000080 ca 7b 87 3e 09 ff 32 3f 05 5e 88 be f7 cd 95 3e
       0.2646163 0.699204 -0.2663423 0.292587
000090 cb ff d1 3c a8 90 0f 3d 5b 1b f4 be 4e e7 2d bc
       0.025634667 0.035050064 -0.4767712 -0.010614229
0000a0 b3 d5 c8 bd b2 c2 57 bd 46 60 c1 bd d9 ca 75 be
       -0.09806385 -0.05267591 -0.09442191 -0.24003161
0000b0 3c 49 23 3d 5a 96 08 3e 54 e5 3e 3e bd 2a 15 3e
       0.039864764 0.13338605 0.18642169 0.14567085
0000c0 70 05 84 be 2d 1a a1 be 88 d4 bd bd e1 ad 46 bd
       -0.25785398 -0.31465283 -0.09269053 -0.048505668
0000d0 0b 20 58 3f f6 63 0c 3f 9c 95 87 bd d1 b7 d5 be
       0.84423894 0.5484003 -0.066203326 -0.41741803
0000e0 cb 5c d3 3e 6e 2c b4 3e e6 34 be be 1b 8a 24 3f
       0.41281733 0.35190147 -0.37149733 0.6427323
0000f0 ee b3 d7 3e 7d 8c d4 be 57 e3 68 3c 50 93 c3 be
       0.42129463 -0.41513434 0.014214358 -0.38198328
000100 a1 0a c2 bd 35 c3 b4 be 94 38 97 3b 8a 8d 50 be
       -0.094746836 -0.3530518 0.004614899 -0.20366493
000110 53 5f 33 3e 12 0c 77 be db 00 4b 3d 39 42 ec bc
       0.17516832 -0.24125698 0.049561363 -0.028840171
000120 1b 1d e7 bd 75 14 58 be 9f 09 15 3e 8c a0 cd bd
       -0.11284848 -0.21101554 0.14554451 -0.100403875
000130 df 6f e0 3d 0d 65 22 3e 1c 09 b0 3e 1c ed 94 3e
       0.10958838 0.1585886 0.3438195 0.2908715
000140 45 d2 32 bc a3 30 44 3e d6 ae e1 3d f8 6e 65 3e
       -0.01091439 0.19159178 0.110196754 0.22405612
000150 e2 ea 80 3e dd a5 fc 3e 0b ea 43 3f 56 35 fc 3e
       0.251792 0.49345294 0.76528996 0.49259442
000160 8f 13 79 be e5 07 1e be 79 f2 ad 3d 53 f5 e9 3e
       -0.24323867 -0.15432699 0.084935136 0.4569498
000170 be 92 af be c1 cc 9e 3e 63 da 01 be 94 a7 4a bf
       -0.34291643 0.3101559 -0.12680964 -0.79161954
000180 2e fd 69 be 22 18 ab be 06 7f 87 3e 81 2f 54 be
       -0.22850487 -0.3341685 0.264641 -0.20721246
000190 e3 e9 da bc 5e d0 d9 3e 49 cc 36 3d cc 97 87 be
       -0.026722854 0.42541784 0.044628415 -0.26483
0001a0 a1 48 b2 3c 61 2e 0b bd 79 a5 8c bd 74 99 cc 3d
       0.021763148 -0.033979777 -0.06867499 0.09990206
0001b0 a7 32 01 3f 15 e3 50 3e 58 8a b6 be 89 e6 fd 3d
       0.50467914 0.20399125 -0.35652423 0.12397487
0001c0 0d a1 a9 bd 0b 8a 83 be ec 71 58 3e 48 a3 96 3c
       -0.08282671 -0.25691256 0.21137208 0.018388405
0001d0 88 20 bc be be 6a 00 3e 76 c0 a1 be 40 84 31 3f
       -0.3674357 0.12540719 -0.3159215 0.6934242
0001e0 d9 81 8d 3e 59 e8 48 3e 11 af 8d 3e 8c 9b 28 3e
       0.27638128 0.19619884 0.27672628 0.16465586
0001f0 32 e7 1b bc 03 a5 69 3e dc 15 74 3e 08 85 cd be
       -0.0095155705 0.22816853 0.23836464 -0.40140557
000200 c8 59 68 be 16 2f c1 3e 62 59 da 3e 36 0b db be
       -0.22690499 0.37731236 0.4264632 -0.4278199
000210 a5 c7 15 be f1 f7 72 3e 05 6c 04 3f 32 f7 e1 3e
       -0.1462694 0.23727395 0.51727325 0.44133908
000220 4a 95 57 3e 19 33 07 be 4f f3 b6 3e da ea 13 bd
       0.21053043 -0.13203086 0.35732505 -0.036112644
000230 8c b9 fd bd bb 8f c9 bc 96 0c 94 bd 34 12 8b bb
       -0.12388906 -0.024604669 -0.07228963 -0.0042441133
000240 e0 29 98 3d a1 49 fa bd e9 80 e5 be 30 9d fa 3e
       0.07429862 -0.12221075 -0.44824913 0.4894805
000250 7f 74 8b be 8e d6 8f 3e ad 67 f2 3d ca d5 95 bd
       -0.27237317 0.2809338 0.11836181 -0.07316168
000260 6f 59 02 bd 9b 8f eb 3e c0 97 1d bc 30 3c 85 3e
       -0.03182357 0.46008 -0.0096187 0.26022482
000270 31 e2 03 3e 07 53 ab 3e 60 4f 1a 3f 78 0f 7f 3e
       0.12879254 0.33461782 0.60277367 0.24908245
000280 e7 ba 6c 3e 06 ac d2 3d c8 29 78 be 5a 2e 9a 3e
       0.23118173 0.10286717 -0.24234688 0.30113488
000290 93 c5 22 bd 88 77 86 3e b0 26 7f be 23 8d 4f 3e
       -0.039739203 0.2626307 -0.24917102 0.20268683
0002a0 bb c9 62 bd 99 d9 0b bd 8c d8 c4 bd f2 e2 d9 3d
       -0.055368166 -0.034143064 -0.096116155 0.106389895
0002b0 48 c3 b9 be 04 cb bb 3d 13 64 80 bd 84 6d ac 3d
       -0.362818 0.091695815 -0.06269088 0.08419326
0002c0 7b 80 08 3e e1 b6 28 3d 2d d9 2d bf b8 e2 6e 3e
       0.13330261 0.041190032 -0.6790951 0.23328674
0002d0 2b 63 8a 3e 15 22 96 3e 18 27 69 3e f8 48 87 3e
       0.27028784 0.29322878 0.2276882 0.26422858
0002e0 f1 bb da bd 04 a5 1d bf 57 73 8a 3d bf f7 f2 3e
       -0.10680378 -0.6157992 0.067602806 0.4745464
0002f0 36 0f 07 3e b2 4d b6 3c 91 41 18 3e b7 70 00 3f
       0.13189396 0.022253845 0.14868762 0.5017199
000300 33 cc 99 3e e6 77 f3 3e 60 96 07 3e fc be d5 be
       0.30038604 0.47552413 0.13240957 -0.41747272
000310 4d 22 d7 3d d1 a2 0d 3e 99 39 b0 3e 4f fd 70 3d
       0.10504589 0.13831641 0.34418944 0.058835324
000320 8c 38 25 bf c1 64 0f 3e 47 8b 9a 3e 2f 42 d9 3e
       -0.6453941 0.14003278 0.30184385 0.42433307
000330 e2 7e 86 be f1 c7 f2 bd 55 d2 12 bf 09 50 32 bc
       -0.2626868 -0.11854542 -0.5735219 -0.01088334
000340 56 94 13 3e 8c b2 e4 bc 33 db 01 be c8 12 65 be
       0.14412054 -0.027917169 -0.12681274 -0.22370446
000350 81 10 8b 3e 3b 72 82 3e 2d c1 6e 3d 31 71 e9 3e
       0.2716103 0.25477776 0.058289696 0.4559417
000360 6d 23 ce bd 97 e9 9b bd f4 34 47 3e 00 d4 e2 3d
       -0.10065351 -0.07612913 0.19453794 0.11075592
000370 2c 0c cd 3e c3 07 be bc fb fc 93 3e fa ca bb 3e
       0.4004835 -0.02319706 0.28903946 0.36678296
000380 98 c7 0a 3f 48 fd f7 bd da 36 0f 3f 0a 13 9a 3d
       0.54210806 -0.121088564 0.5594307 0.07523163
000390 da 13 c4 3e 83 d3 4e be 17 1e 14 bf c0 90 4e 3e
       0.38296396 -0.20197873 -0.57858413 0.20172405
0003a0 1e dd 28 bc ec a8 65 be b5 54 b0 be 0f 27 85 bd
       -0.010306625 -0.2242772 -0.34439626 -0.065015905
0003b0 6b 4b fa 3e 95 64 74 3e 4b e4 cb 3e ab 5e 4d be
       0.48885664 0.23866494 0.3982261 -0.20055644
0003c0 ab d7 b0 3e 7e 8d 90 3e e6 74 4e be 11 84 d6 3b
       0.34539542 0.2823295 -0.2016178 0.0065465053
0003d0 56 f2 c2 3d bf d8 bb be 6b 11 94 bd 4a c8 52 3d
       0.09518878 -0.36688802 -0.07229885 0.05146054
0003e0 f9 0c 17 3d 88 92 e6 3d 32 9a 6f bd 04 ef 07 3e
       0.036877606 0.11258417 -0.05849666 0.13274771
0003f0 7e 50 a5 be f4 bc 07 bd bf 50 82 3c 15 14 f7 3c
       -0.32287973 -0.033139184 0.015907643 0.030160943

grud_cell.weight_gamma_x f4 [17]
000000 53 0b 8c bb 19 8d 1d 3f c4 f3 9d 3d 0f 9a 86 3e
       -0.004273811 0.6154342 0.0771251 0.26289412
000010 88 74 b2 bb 0b 9b 71 3f e0 54 25 3f bd ac 09 3f
       -0.0054460205 0.943772 0.64582634 0.537792
000020 1d c3 96 3e 7e ea fc 3e 08 47 ed 3e 4c 93 da 3e
       0.29445735 0.49397653 0.46343255 0.42690504
000030 ab f3 1e 3f 84 88 3d 3f 84 40 8a 3e 12 a1 e1 3e
       0.6209056 0.7403643 0.27002347 0.440682
000040 11 7e 51 3f
       0.8183299

grud_cell.weight_gamma_h f4 [17]
000000 b9 3c 1a 3f 9c 13 50 bc df 6a 1d 3f 5f 5d 90 3e
       0.60248905 -0.012699988 0.614912 0.28196236
000010 0f f6 4b 3d 40 62 ef 3e 59 62 31 bb 49 fd 08 3b
       0.049795207 0.46754646 -0.0027066676 0.0020902923
000020 ec df a2 3e 0d f7 bd bb 5f d1 b3 bb 8f c3 58 bc
       0.31811464 -0.005797273 -0.0054876055 -0.013230219
000030 1b ff 1a bb df 47 a4 bb ac 06 cb bb d2 ed ce 3e
       -0.002365059 -0.0050134505 -0.0061958637 0.40415817
000040 45 67 68 3e
       0.22695644

grud_cell.bias f4 [17]
000000 04 bc ec bd f5 12 b7 3e 48 54 b8 3e ef 27 c9 bd
       -0.11559299 0.3575665 0.36001801 -0.0982207
000010 60 8f a0 bd a2 05 a7 bc 11 85 b5 bc b2 7b 3a be
       -0.078398466 -0.020388428 -0.022158178 -0.18211249
000020 77 19 1b 3e ea 34 c3 3d 26 e1 15 be 49 47 84 be
       0.15146433 0.09531577 -0.14636669 -0.25835636
000030 9f 74 5d bd 98 f5 86 3d 3c 41 ac 3d a8 9b 00 be
       -0.054066297 0.06589812 0.0841088 -0.12559378
000040 a2 23 e7 bd
       -0.11286093

fc.weight f4 [6, 17]
000000 85 51 40 3f 82 6a ef 3e eb e7 f1 3e e1 4f dc bd
       0.7512439 0.46760947 0.47247252 -0.10757423
000010 15 b4 31 be f8 59 19 3f 8c f8 4a 3f 08 be fa bd
       -0.17353852 0.59902906 0.792855 -0.12243277
000020 ca 7d b8 bd 2f 0d de be fb b3 c9 be 8e d9 b5 be
       -0.09008367 -0.43369433 -0.39395127 -0.35517544
000030 b3 f2 3c 3f c8 8e 04 bf 30 1b 76 bf 2f 87 2e 3e
       0.7380783 -0.51780367 -0.96135235 0.17043756
000040 89 92 22 3f c0 b6 fb be bb 38 ae 3d d7 93 00 3e
       0.63504845 -0.49162865 0.08506914 0.12556396
000050 ae 98 26 bf 74 dc 23 bf aa d2 1c bf 8d 70 1f bf
       -0.6507672 -0.6400826 -0.6125895 -0.62281114
000060 68 ac 15 bf f1 fa 10 3f 55 95 e4 3e 95 a4 c0 be
       -0.58466196 0.56632906 0.4464518 -0.37625566
000070 7c ba b0 be 87 87 84 bf 54 3a 3a 3f ab 50 a6 3e
       -0.34517276 -1.035386 0.7274525 0.3248342
000080 2d 05 26 bf 64 94 51 bf 70 1f 87 be b3 e8 82 bf
       -0.6485165 -0.8186705 -0.26391172 -1.0227264
000090 8c cf 9d bf e0 98 ee 3e cd 7b e7 3e 23 b1 8b 3e
       -1.2328963 0.4660101 0.4521164 0.27283582
0000a0 54 6c 1c 3d d6 e0 9e 3f bb 6c ad be 80 66 c9 be
       0.038189247 1.2412364 -0.33872017 -0.39336014
0000b0 e7 8f 23 3f 55 0d b1 3f 42 c3 07 3f 54 a5 a5 3e
       0.6389145 1.3832194 0.53032315 0.32352698
0000c0 d6 69 40 3f 89 66 c4 3e 3e 9c 7d 3d 4f f3 89 be
       0.7516149 0.38359478 0.061916582 -0.26943442
0000d0 95 ab 88 bf a9 cd 94 bf 58 e9 09 3f 33 b2 22 3f
       -1.0677363 -1.1625262 0.5387168 0.6355316
0000e0 91 18 9e 3e a4 84 42 be 7d 7c c0 3f 2d 0b e6 be
       0.30878118 -0.18995911 1.5037991 -0.449304
0000f0 7d 78 b7 be c4 5c 72 3f 87 11 a4 3f 82 93 ea 3e
       -0.35834113 0.946728 1.2817849 0.45815665
000100 27 24 a1 3e 7f 9c 33 3f ef e5 1a 3f 60 4f 2c 3e
       0.31472895 0.7016067 0.605071 0.16827154
000110 be 48 c0 be 18 cd 6d bf d5 e2 9c bf 51 f2 d8 3e
       -0.37555498 -0.92891073 -1.2256724 0.42372373
000120 6c db fe 3e db 5d ba 3e af 72 39 bd 42 57 95 3f
       0.4977678 0.3639973 -0.045275386 1.1667254
000130 31 02 07 bf e4 c5 85 be 78 ae 76 3f 9f 51 ad 3f
       -0.5273772 -0.2612754 0.9635997 1.3540534
000140 98 d4 35 3f bf a4 68 3e 08 6e 76 3f f3 7c c9 3e
       0.7102752 0.22719096 0.96261644 0.3935314
000150 be 55 69 3e d6 cc 20 be 32 e8 66 bf 81 3e 94 bf
       0.22786614 -0.15703139 -0.9019805 -1.1581575
000160 90 c3 c5 3e 2b c7 cc 3e 2c 69 ef 3d 15 26 07 bd
       0.38625765 0.39995703 0.11689982 -0.032995302
000170 44 9a b3 3f 10 e8 05 bf 1a d4 48 be 7d fa 86 3f
       1.4031453 -0.52307224 -0.1961216 1.0545193
000180 89 0b 84 3f f5 7c 3b 3f 71 29 b5 3e b1 f2 5c 3f
       1.031602 0.73237544 0.3538318 0.8630782
000190 10 d1 24 3f 98 a1 8d 3e
       0.64381504 0.2766235

fc.bias f4 [6]
000000 48 43 e6 3e 7f bd be 3e eb 0d ae be d3 be b7 be
       0.44973207 0.3725395 -0.33994994 -0.35887775
000010 6e d6 27 bf a2 6b d3 be
       -0.6556157 -0.41293055
