models/finetuned_coarse_model.pt (torch, 10689 bytes, 8 tensors)

grud_cell.weight_z f4 [17, 34]
000000 0c d2 5a 3f ba be 1a be e6 4d d0 3e 4a 85 4a 3e
       0.85476756 -0.15111819 0.40684432 0.19777408
000010 e7 8e 6e 3e 4e c9 b5 bd f3 dc 03 be d2 ab a9 3e
       0.232967 -0.088762864 -0.12877254 0.331389
000020 bd c7 a5 3e 1f 14 4f be 63 19 d3 3e 86 34 86 be
       0.3237895 -0.2022252 0.41230306 -0.26211947
000030 81 5a 3b 3e 60 90 95 3c c0 a7 91 3e 97 fd 8d bc
       0.18296243 0.01825732 0.28448296 -0.017332835
000040 17 f2 ed 3d c6 e9 19 3f 41 51 22 be b7 e9 0e 3f
       0.116184406 0.60122335 -0.15851308 0.5582537
000050 88 99 4a 3e 83 52 07 bc 2c df 84 be 4c 68 e2 bd
       0.1978513 -0.008259418 -0.25951517 -0.11055049
000060 69 b5 9c be e7 fa 14 bf 4b 1b 8d 3d dc bb 62 be
       -0.30607155 -0.58195347 0.06889971 -0.22141975
000070 bc e7 96 be 81 d2 29 be 3a 6b 1f bf e5 e9 48 bf
       -0.29473674 -0.16584207 -0.6227299 -0.78481895
000080 d1 22 8c bd 9f 78 21 bd b1 eb 96 bf 2d 4b 3b 3e
       -0.06842578 -0.039421674 -1.1790677 0.18290396
000090 fa 4f b5 bd 2a 69 28 be 7e 51 73 3c 65 ef 7e be
       -0.08853145 -0.16446367 0.014850972 -0.2489601
0000a0 25 c2 cf be 9a 04 75 3c c1 2f 2c bd 23 bc 16 3e
       -0.40577808 0.01495471 -0.04203773 0.14720206
0000b0 b5 86 27 3d 5e 48 ed bd 34 58 c8 3e aa 6f 67 bd
       0.04089995 -0.115860686 0.39129794 -0.056502976
0000c0 12 af 95 3e 80 36 9c be 18 39 3d be 3e 13 1a ba
       0.2923513 -0.3051033 -0.18478811 -0.0005877501
0000d0 a5 88 02 bf 84 a5 cf 3e cf 17 ec 3d 7f 42 f6 bd
       -0.50989753 0.40555966 0.11527979 -0.12024402
0000e0 9b 82 77 be 4f 13 ea 3d 29 b8 d8 bb 8c 4c 91 be
       -0.24170916 0.11429464 -0.0066137505 -0.28378713
0000f0 62 b9 01 3e 2f 7e 61 be 59 a4 9f 3e d7 73 fc be
       0.12668374 -0.22020791 0.31180075 -0.4930713
000100 ec 94 85 3e 7d c4 03 be 78 1f 83 3e 1e f4 a8 be
       0.2609018 -0.12867923 0.25609946 -0.32998747
000110 4b 86 1b be 43 b8 86 bd 42 df 2c be 5e 90 72 bb
       -0.15187947 -0.06578114 -0.16882041 -0.003701232
000120 f3 e2 01 3f 4f 80 c7 be 75 a6 27 be 35 41 ef be
       0.5073692 -0.3896508 -0.16372092 -0.46729437
000130 07 a0 87 be 94 f1 1d 3e 1a 95 39 be 64 76 8e 3e
       -0.2648928 0.15424186 -0.18123284 0.278247
000140 2d 5a 28 be 99 7c e6 bd f2 44 c8 3e 32 a4 0b 3e
       -0.1644065 -0.11254234 0.391151 0.13636854
000150 d8 69 2d 3f f4 9d b6 bc 18 82 f1 3e cb 0e 50 be
       0.6773963 -0.022292115 0.47169566 -0.20318143
000160 ec d1 d4 be 73 72 ce be c5 bd 65 3e 18 23 16 3f
       -0.41566408 -0.40321693 0.22435673 0.586473
000170 19 16 11 bf 2a eb 2c 3f a1 3b 1f bf 4f 75 f3 be
       -0.56674343 0.6754633 -0.6220036 -0.47550437
000180 6c 85 45 be a5 93 24 bf b6 86 01 3e e6 81 77 be
       -0.19289178 -0.6428779 0.12649044 -0.24170646
000190 33 9a de 3d 2d 71 be 3e 08 d4 0d bf 87 2d 9d be
       0.10869255 0.3719572 -0.5540166 -0.30698797
0001a0 4b 1a b1 be 2d 56 5f be fc ce a7 bd 29 47 35 3c
       -0.34590372 -0.21810217 -0.08193776 0.011064329
0001b0 60 0d ab be 3c cd 40 3e 20 81 23 3d 0f d4 93 3d
       -0.33408642 0.1882829 0.039918065 0.07218181
0001c0 8c 6b 91 3c 31 b4 13 bf ee aa 56 be 6b 74 a4 be
       0.017751478 -0.57696825 -0.20963642 -0.3212007
0001d0 e0 87 df be 59 1c 80 be fa 3d 1d be 84 e9 dc bd
       -0.43658352 -0.25021628 -0.15355673 -0.10786727
0001e0 44 1a 34 3e ee 45 71 3e 0e 50 42 bf 0e 0c 95 bd
       0.17588145 0.23561832 -0.75903404 -0.0727769
0001f0 17 85 90 be b4 70 48 be 98 cc 08 3e 9e 70 39 3e
       -0.2822654 -0.19574243 0.13359296 0.18109366
000200 19 1c 22 3e b2 ea 03 be 26 8e be 3d 5a fe 91 3e
       0.15831031 -0.12882498 0.093044564 0.28514367
000210 f5 85 ac be 75 b7 9b be 61 58 a7 3d c7 ee 19 be
       -0.3369595 -0.30413404 0.08171154 -0.15032493
000220 af 2f 55 bf 43 3f 20 bd 06 a5 62 bd 3d 75 3b bf
       -0.83275884 -0.03912283 -0.05533316 -0.73225766
000230 33 6f 9b be a7 53 32 3e cf 8d 58 bd f3 43 37 be
       -0.30358276 0.17414723 -0.052869614 -0.17897014
000240 67 29 0f 3e 3e 55 59 be c4 02 75 3e 16 e5 a6 3e
       0.13980637 -0.21223924 0.23926836 0.32596654
000250 06 cc 40 3f 74 f1 0e bf 12 52 94 3d 1a 5a 16 3c
       0.75311315 -0.5583718 0.07242216 0.009176755
000260 da 80 a6 3e 85 80 c2 be b3 89 b3 3e 22 48 17 3e
       0.3252018 -0.37988678 0.35065994 0.1477361
000270 1e fc 88 3b 65 d6 13 3d 29 2a 24 be 25 9e 0f be
       0.0041804453 0.036093134 -0.16031708 -0.14025171
000280 1c a1 a8 bd cf 66 3f 3f f2 02 d9 3e ce 50 42 be
       -0.08233854 0.7476625 0.4238506 -0.18976137
000290 d6 83 c9 3d 03 ad a7 bc 09 a1 b2 3e 38 73 ec bd
       0.09839599 -0.02046824 0.34888485 -0.11545414
0002a0 93 1d 38 3f ac c8 ec 3d a7 62 5b 3e f1 77 c7 3d
       0.71920127 0.115617126 0.21424352 0.09739674
0002b0 8a 1f 6a 3e 68 b2 7e 3c cf 79 78 3e 8b a8 b7 3e
       0.22863594 0.015545465 0.24265216 0.35870776
0002c0 d2 0f 26 be df cb 62 3d 34 9d af 3e f8 e2 bc 3d
       -0.16216972 0.055370208 0.34299624 0.09222978
0002d0 d8 a7 bd 3d e0 92 db be 3b ba af be 95 4d 50 3d
       0.09260529 -0.42885494 -0.3432177 0.050855238
0002e0 cb fb 10 3f 18 ff f7 3e 5c e0 d3 3c be c0 e6 bc
       0.56634206 0.4843681 0.025863819 -0.028168079
0002f0 df 94 60 be 8b dc e4 3e 3e 8b 1e 3e 57 f1 fc be
       -0.2193179 0.4469951 0.15482804 -0.49402878
000300 5f c8 c5 be a1 f7 41 be de 22 68 be 09 25 cc 3d
       -0.38629434 -0.18942119 -0.22669551 0.099680014
000310 87 13 4b 3f a7 e5 3b bd e6 8b 41 be 14 4b 51 bd
       0.7932667 -0.04587331 -0.18901023 -0.05109699
000320 6d 71 73 bf 39 15 18 bf 52 eb db 3e 4f 6e 93 be
       -0.9509495 -0.59407383 0.42952973 -0.28795096
000330 21 c5 c3 be 8b 48 ee be 02 61 0a bf 27 f5 92 be
       -0.38236335 -0.4653972 -0.5405427 -0.2870266
000340 99 4e 70 bc a2 8e 30 3e aa 84 23 bc 34 29 0d be
       -0.014667177 0.1724191 -0.00998036 -0.13785249
000350 da 2d de be 74 56 98 bd 36 87 32 be 39 c2 27 3f
       -0.43394357 -0.074383646 -0.17434391 0.65530735
000360 cd 71 c1 3d 1a cd 39 be 76 65 85 bc c4 f4 f6 3d
       0.09445534 -0.18144646 -0.016283732 0.12058404
000370 7a 77 9a 3e 71 7d 1a 3f a9 03 b9 be 2d 90 e2 bc
       0.30169278 0.6034766 -0.36135605 -0.027656639
000380 ad f0 f7 be 9e 76 91 bd 8e 67 50 3f 9b be f8 3d
       -0.4842581 -0.071027026 0.8140801 0.1214573
000390 b6 a8 86 be 29 e1 8d be 71 1b 51 be ab 66 cc 3d
       -0.2630059 -0.27710846 -0.20420624 0.0998052
0003a0 ee a1 a9 bc be 8c b1 3d b5 17 a7 3e 97 a7 91 3d
       -0.020707097 0.086694226 0.32635275 0.07112043
0003b0 79 78 4e 3e d0 72 3b bf c0 54 b5 be 00 15 04 bf
       0.20163144 -0.73222065 -0.35416222 -0.51594543
0003c0 1e bd 80 3e d3 80 9d be fe f7 b8 3e 53 ff dc be
       0.25144285 -0.30762348 0.36126703 -0.43163547
0003d0 98 8d c3 bd 6b b0 90 be 63 2f ab be 90 56 84 3d
       -0.09548491 -0.28259596 -0.3343459 0.06461823
0003e0 9c cc 81 3d b1 7b fc 3e bc 00 f8 3d c3 28 97 be
       0.06337854 0.4931312 0.12109515 -0.29523286
0003f0 32 db f5 3d 02 32 33 be 10 df b2 3d e8 04 f7 be
       0.12004699 -0.17499545 0.08733952 -0.4824593

grud_cell.weight_r f4 [17, 34]
000000 f2 8c cf be f8 25 22 be d4 16 e7 3e a9 1b ae be
       -0.4053722 -0.15834796 0.45134604 -0.34005478
000010 3b 7a be be 02 71 a8 3e 07 7d fb bd 94 f6 e9 3c
       -0.3720263 0.32898718 -0.122797064 0.02855996
000020 ee b6 f6 bc 8b c1 8f 3e d2 26 03 bf b3 d9 97 be
       -0.030116525 0.2807735 -0.5123111 -0.2965828
000030 00 ca 38 3f 9f 55 21 be d1 ff 5d 3d 44 43 dd bd
       0.7218323 -0.15755318 0.054199044 -0.108038455
000040 b1 c0 87 be 29 13 03 be 04 99 34 3e 0b 94 17 be
       -0.265142 -0.12800278 0.17636496 -0.14802568
000050 27 ec 21 3f 75 bb 1c 3e 50 8e 6f bd 83 69 5e bd
       0.63250965 0.15305884 -0.05848533 -0.054299843
000060 bc 20 10 bf 31 fd 67 be 77 1d 28 bf 02 db e3 be
       -0.5629995 -0.22655179 -0.6566996 -0.44503027
000070 05 04 a0 be 96 75 fb bd 8c e6 c4 bd 83 26 7f 3e
       -0.31253067 -0.12278287 -0.09614286 0.24917035
000080 45 f4 5d 3f e4 4b 6a 3e 20 fd be be 42 a4 dc 3e
       0.8670085 0.22880512 -0.37302494 0.4309407
000090 83 ae 0e be cb a1 02 be a7 55 16 3f bd 38 d2 be
       -0.13933758 -0.12757032 0.58724445 -0.41058913
0000a0 ac bd 18 3e 83 f8 06 be 88 c0 cd bd 01 1c b0 be
       0.14916104 -0.13180737 -0.10046488 -0.34396365
0000b0 87 f7 c1 be 50 64 12 3d 0e 99 84 3b 3e 62 46 bd
       -0.3788416 0.035740197 0.004046566 -0.048433535
0000c0 2c e1 03 3e d5 87 b3 3e 67 f2 d2 be 4a 74 18 3e
       0.12878865 0.3506457 -0.41200563 0.14888111
0000d0 63 f2 3a be bd ba dc 3c 96 97 37 be 87 cc 1a 3d
       -0.18256526 0.026944513 -0.17928919 0.03779271
0000e0 19 72 cc bd f6 04 bc 3e dc 2e da be ca 4b c0 3b
       -0.099827 0.36722535 -0.42613876 0.0058684098
0000f0 6f 9a 79 be c9 33 d1 bd 44 38 e9 bc e1 95 b2 be
       -0.24375318 -0.10214955 -0.028469212 -0.34879974
000100 bc d8 00 3f 05 dd 0e be a7 01 e6 be c1 1e 04 be
       0.5033071 -0.139515 -0.44923136 -0.12902357
000110 07 a3 97 3d a0 7f c7 bd 82 05 77 be 88 48 98 bd
       0.07404142 -0.097411394 -0.24123195 -0.07435709
000120 11 3c 0a 3f fc 16 1d bb 3f 34 a2 3d da 1d e7 bd
       0.53997904 -0.0023969999 0.079201214 -0.112849906
000130 95 09 07 bd 5f 2e 6c 3d c5 2e 9f bd 5f a4 62 3c
       -0.032968123 0.05766141 -0.077725925 0.013833134
000140 7a c5 30 3e ae 6c 17 3e 44 79 82 be c2 ce b4 3d
       0.17262831 0.14787552 -0.25483143 0.088284984
000150 70 cf 80 be 8c cd 05 3f e1 d3 24 3f a9 fd b2 3e
       -0.25158262 0.52266765 0.643858 0.34959152
000160 cf e2 9c be 5b 64 b7 be 6b 37 8a 3e 04 e0 ef 3e
       -0.3064179 -0.35818753 0.26995406 0.46850598
000170 75 01 e7 bd c2 34 10 3f 8e 1e d1 3e 62 a5 3b be
       -0.11279575 0.563305 0.40843624 -0.18324807
000180 ec 86 09 bf df 14 cb 3e 3e b0 41 be 6c df 23 bf
       -0.537215 0.3966436 -0.18914887 -0.6401279
000190 a1 44 e7 be e8 80 85 3e 3b 9d da 3e 45 23 99 3e
       -0.45169547 0.2607491 0.42698082 0.2990972
0001a0 0e 6e 27 bf fd e7 e1 3d 51 4e 0c bf 1a 96 29 3f
       -0.65402305 0.110305764 -0.54807 0.6624466
0001b0 27 0e 34 3e 2f 8d 97 bd d2 8f e7 bd ac 49 cf 3e
       0.17583524 -0.073999755 -0.113067284 0.40485895
0001c0 83 a0 ad 3e a1 0c 0c 3f a3 ae ef 3d cf d4 e9 3d
       0.33911523 0.5470677 0.11703231 0.11417543
0001d0 89 1c 13 bd ad 34 d8 bc 05 d8 2d 3e e9 da 22 3f
       -0.035915885 -0.026392305 0.16976936 0.6361528
0001e0 46 87 01 3d bc 1b 84 3e 13 14 22 3e f6 47 d7 be
       0.031623147 0.2580241 0.1582797 -0.4204709
0001f0 7a 61 0d be fc 1f 99 be d0 e3 14 be cf 7d de 3d
       -0.13806716 -0.29907215 -0.14540029 0.1086384
000200 fa 75 ab 3e 30 10 1e be 45 cf c6 be 77 03 9a bd
       0.33488446 -0.15435863 -0.3883001 -0.07520192
000210 b6 32 07 3e 1e 0e b4 3e 5f b6 63 bd 5b d7 53 be
       0.13202938 0.3516702 -0.055593845 -0.2068762
000220 3e 76 20 3f a1 2e 91 3d 3a e9 06 be 10 c8 2a 3d
       0.62680423 0.07088972 -0.13174906 0.0416947
000230 1f fb 0d 3c 3f 4a 8f 3c fd bc c1 3d 2e 71 bc 3e
       0.008665829 0.017491458 0.09459875 0.368051
000240 28 16 b7 3e 27 77 de 3e a2 c0 0a bf 15 ba 26 3f
       0.3575909 0.4345028 -0.54200184 0.6512769
000250 99 c6 1b 3d 7f eb 9d be 5c 56 01 be 62 8c 95 be
       0.038031194 -0.30843732 -0.126306 -0.29208666
000260 70 68 04 3f b9 2b 77 be a5 9a b9 be 7a 1f c3 3d
       0.5172186 -0.24137773 -0.36250797 0.09527488
000270 90 73 25 be 48 9c c3 3e 7e 3d b6 be ac 9b a9 bd
       -0.16157365 0.3820517 -0.3559379 -0.08281645
000280 19 0d 31 3e 24 6f 32 3f 7c 54 c0 3e 6e e5 34 3c
       0.17290153 0.6970084 0.37564456 0.011041028
000290 f2 84 e6 3d 12 a4 b5 3e 5c 2f bd 3c f7 1a bf be
       0.11255826 0.35476738 0.023093872 -0.3732526
0002a0 d3 1b c3 bd 6b 00 0e be 04 6e 08 bf f2 4e 44 be
       -0.095267914 -0.13867347 -0.5329287 -0.1917074
0002b0 57 c0 3e be bb 0f 45 be 30 8d 87 bd 33 d5 59 3d
       -0.1862806 -0.19244282 -0.06618726 0.05318184
0002c0 df a3 d9 3e b0 e0 34 3d 31 e4 e7 be 07 cc 9b 3e
       0.42507836 0.04415959 -0.45291284 0.30429098
0002d0 9c 09 dd be 81 c5 c5 3e 2e c4 11 bd 62 8c 9c be
       -0.43171394 0.38627246 -0.035587482 -0.30575854
0002e0 fb a9 0b 3e 70 f7 8a 3e 57 81 b3 3d 30 1b 00 3e
       0.13639061 0.27141905 0.08764904 0.12510371
0002f0 e6 41 57 3d 13 44 a2 be 2a 22 cb be 63 6f b0 3e
       0.05255308 -0.31692562 -0.39674503 0.3445998
000300 ee 03 6f 3e 24 11 4d 3e 70 b4 18 bf 9e cd 5b be
       0.23341343 0.2002607 -0.59650326 -0.21465155
000310 8c e9 5b 3e 90 7f 3d 3d e8 ff fb be 59 23 d4 bc
       0.2147581 0.04626423 -0.49218678 -0.025895761
000320 01 e4 17 3d dc e1 e4 3d 87 1f 8b bd 89 5d 7b be
       0.037082676 0.11175892 -0.06793123 -0.245474
000330 13 6d 85 be 01 3f cf be e4 4c 8a 3d 3a bf 66 be
       -0.2605978 -0.40477756 0.06752947 -0.22533885
000340 59 25 3c be 8d 79 16 3e 1c 9a 67 be 13 09 58 3e
       -0.18373622 0.14694805 -0.22617382 0.21097212
000350 db 65 2e bf 83 bd 7f be e5 fa a9 3e 25 cd 99 bd
       -0.6812417 -0.24974637 0.3319923 -0.07509831
000360 4b ed 32 be 4b 5a 42 3d ad ba 88 bd 0d 62 9c be
       -0.17473333 0.04744939 -0.066762306 -0.30543557
000370 15 05 1b 3c ee 4a 23 3e 12 37 1f 3e 7b f3 e6 3e
       0.009461661 0.15946552 0.15548351 0.45107636
000380 c8 33 01 bf f9 a9 5b 3e 71 34 51 3d f4 37 bb bb
       -0.50469637 0.21451558 0.051075403 -0.0057134572
000390 4e af ab be 9b 0a ee bd 34 90 b2 be 8f e5 f8 bd
       -0.33532184 -0.116231166 -0.34875643 -0.1215316
0003a0 22 fc 2d bf 37 20 10 3f b3 a6 a3 bd 99 1e 3c be
       -0.6796285 0.56299156 -0.0799078 -0.18371047
0003b0 20 e6 bd 3e a1 66 dc bc 7f 14 f6 3e 01 5f ef 3e
       0.37089634 -0.026904406 0.48062512 0.4675217
0003c0 5e 00 be 3c fe 95 46 3e 58 98 a5 3e 28 87 89 3e
       0.023193534 0.19393155 0.32342792 0.2686093
0003d0 95 62 0c 3e fb d1 6f be fb 59 e8 3d b0 d9 fa 3d
       0.13709481 -0.23419945 0.113452874 0.12248552
0003e0 58 5a b3 3e 20 06 d0 be 7b 6f a6 3b ee 75 98 bd
       0.35029864 -0.40629673 0.0050792075 -0.07444368
0003f0 c0 8a e1 3e 6a 58 8b be ab 32 10 be b8 36 86 be
       0.4405117 -0.27215892 -0.14081828 -0.26213622

grud_cell.weight_h_tilde f4 [17, 34]
000000 37 ca 32 3e ee d4 b7 3e cc ea e2 be 7e 15 3a 3d
       0.17459951 0.3590464 -0.4431976 0.045430653
000010 e5 67 ae 3d cc 83 d8 bc f4 45 39 bd c7 e1 e6 3c
       0.0851591 -0.026430033 -0.045232728 0.02818383
000020 c5 ee fb bc 90 6e 89 3e dd 31 ae bd 37 a0 a1 3d
       -0.030753503 0.26842165 -0.085056044 0.07891887
000030 56 93 f1 bd ac 67 50 be 2a 54 3e 3e d4 ff f0 bb
       -0.1179568 -0.20352048 0.18586794 -0.007354716
000040 d5 8c 5e be 4c 0c ea 3e d0 c0 e5 3e 0d 1a 93 3e
       -0.2173341 0.45712507 0.44873667 0.28730813
000050 4c 72 ff 3e 89 20 c0 3e aa 62 3e 3f 60 6f 71 3e
       0.4989189 0.37524822 0.743693 0.23577642
000060 4f bd 17 3e 8c 31 89 bd 46 21 da be 7e d9 e2 bd
       0.14818309 -0.066989034 -0.4260351 -0.110766396
000070 9d 2e c2 3e c7 2d 93 be 31 81 d3 bd 65 81 76 be
       0.37926188 -0.28745863 -0.10327376 -0.24072798
000080 65 fc b6 3e 7b 8c 3b 3f 33 b5 ae be 45 80 2d 3e
       0.35739437 0.7326123 -0.3412262 0.16943462
000090 57 17 28 3e 69 e4 5d bc fc c2 9b be 1d 96 5a bd
       0.16415153 -0.013543227 -0.304222 -0.053365815
0000a0 ba 70 bc bd 8a 24 cc bc 44 16 b6 bd b9 a4 a7 be
       -0.092011884 -0.024919767 -0.088909656 -0.3274286
0000b0 cc eb bd bd 81 ac 8c 3a 50 cb 4a 3e e9 ff 8e 3d
       -0.0927349 0.0010732563 0.1980412 0.06982405
0000c0 1f 46 93 be 16 e5 b8 be 61 31 26 3d 4d ce 24 be
       -0.28764436 -0.3611228 0.040574435 -0.16094323
0000d0 67 7c 57 3f 44 79 2b 3f b6 28 4a be 74 42 0e bf
       0.841742 0.6698191 -0.19742092 -0.5557015
0000e0 9c 30 78 3e e8 9e 0c 3f 9f 68 d7 be 1b ea 11 3f
       0.24237293 0.5492997 -0.42072007 0.5699784
0000f0 ea 6d b4 3e 8a 58 f7 be 5a 98 89 be 8f 0f fd be
       0.35240108 -0.48309737 -0.26874048 -0.49425933
000100 95 4e 65 be a7 e4 8a be 44 f5 b0 bd 65 05 97 be
       -0.22393258 -0.27127573 -0.08640531 -0.29496303
000110 71 43 3f 3e 3c 17 88 be 6a dd f0 3d 4c 7f 50 bd
       0.1867807 -0.26580226 0.117609814 -0.05090265
000120 d4 97 52 bc 1b f5 02 be 9e 7d a9 3d 54 cc 7e 3b
       -0.012853581 -0.12788813 0.08275913 0.0038879113
000130 79 16 4c 3d b2 07 6a 3d 57 95 5e 3e b9 c1 32 3e
       0.04982612 0.057136245 0.21736656 0.17456712
000140 8e ff 67 bc a8 6f 17 3e b3 27 f8 bb b7 3f 9e 3e
       -0.01416005 0.14788687 -0.007573092 0.30907986
000150 eb 66 a3 3e 2b 4c d7 3e 08 0d 53 3f 0d ac 16 3f
       0.31914458 0.420503 0.8244176 0.5885628
000160 56 d8 7d be 89 4f 16 be b2 ea 45 bc 6f 08 10 3f
       -0.24789557 -0.14678778 -0.0120798815 0.5626287
000170 2c 70 a5 be f2 0c 63 3e 30 eb dc bd 2c e4 73 bf
       -0.32312143 0.22172907 -0.10787046 -0.9527004
000180 b5 71 c6 be d5 a3 fd be ee d9 3a 3e 1f 53 28 be
       -0.38758627 -0.49539056 0.18247196 -0.16437958
000190 c0 bd 54 bd 26 30 83 3e bb 8c 96 bd 93 c6 38 be
       -0.051938772 0.25622672 -0.07351061 -0.180445
0001a0 0f 9c 18 be fc 68 00 bd ff ae c6 bd 78 45 e9 3d
       -0.14903282 -0.03135012 -0.097013466 0.11390203
0001b0 73 a4 f7 3e fb 4e 98 3e 9e 49 68 be fd 32 2e 3e
       0.48367652 0.29747757 -0.22684333 0.17011638
0001c0 ab f9 4f 3d 23 81 1c be b8 21 51 3e 6b fc a4 3d
       0.05077521 -0.15283637 0.20423019 0.080559574
0001d0 6a 33 7f be 13 37 51 3d 62 e2 ab be f8 23 56 3f
       -0.24921957 0.051077913 -0.33571154 0.83648634
0001e0 d1 7d 87 3e 2e ae 3f 3e cb aa c0 3e 16 4a 80 3e
       0.26463178 0.18718788 0.37630305 0.25056523
0001f0 e8 0d 18 3e a9 45 b5 3e 09 20 84 3e 9b ba ee be
       0.14849055 0.3540471 0.2580569 -0.46626744
000200 ba a9 6c be de ce c2 3e da 73 06 3f 50 c6 a3 be
       -0.2311162 0.38048452 0.52520525 -0.31987238
000210 1c 16 90 be 83 ee 38 3e dd 29 1a 3f f4 f8 08 3f
       -0.28141868 0.18059735 0.6022013 0.5350487
000220 eb da 3f 3e 32 9f 8c bd 4a 2c 4c 3e 67 15 cf 3a
       0.18735854 -0.068663016 0.1993877 0.0015799225
000230 77 bb 04 be 59 cf c1 ba c5 6f 9b bc 86 b2 2d bc
       -0.12962137 -0.0014786526 -0.018974194 -0.010601645
000240 ff 1e 39 3d 52 d7 94 bd e0 e0 a4 be da 40 13 3f
       0.045195576 -0.072676316 -0.32202816 0.5752083
000250 4e 50 b2 be 6e b3 b6 3e 7a f8 5b 3e b3 1c 10 bd
       -0.34826893 0.3568377 0.21481505 -0.03518362
000260 e3 11 61 3a 1d 72 d6 3e 64 03 e7 bd c4 ef 4b 3e
       0.0008585734 0.41883937 -0.112799436 0.19915682
000270 e4 74 47 3e 4e 26 f5 3e 44 50 50 3f 76 65 cc 3e
       0.19478184 0.47880787 0.81372476 0.3992116
000280 9a 55 c6 3e 73 d1 54 bd e0 19 1f be aa 4c b3 3e
       0.38737184 -0.05195756 -0.15537214 0.35019428
000290 ba 0d fb 3d 32 12 51 3e 9d 64 81 be aa f1 6b 3e
       0.122584775 0.20417097 -0.25272074 0.23041406
0002a0 7e 87 08 3e e2 8e 21 be 17 40 68 bd b7 a7 06 3e
       0.13332936 -0.15777162 -0.056701746 0.13149916
0002b0 b2 2d c1 be 3c f6 70 3d 34 c4 77 bd 3a 5b b6 3d
       -0.37730175 0.058828577 -0.06048985 0.08904119
0002c0 65 10 b0 3d bf 00 5b bd 89 42 1f bf c2 84 3c 3e
       0.08596877 -0.05346751 -0.622109 0.18410018
0002d0 73 3d a3 3e ab 36 8a 3e e9 b1 86 3e 07 87 8b 3e
       0.3188282 0.26994833 0.2630761 0.27251455
0002e0 c5 1c a4 bd ad 47 21 bf 7c 03 77 bd 8e b1 21 3f
       -0.080133 -0.62999994 -0.060306057 0.6316155
0002f0 5a 08 07 3e 2b 86 c8 3c a1 ea 75 3e 8b 3b 11 3f
       0.1318678 0.024478039 0.24015285 0.5673148
000300 7d 25 cc 3e a3 24 b3 3e 6a 41 47 3e b8 61 b3 be
       0.3987235 0.3498889 0.19458547 -0.3503549
000310 be 6b 8a 3d fb 27 f0 3d bc d9 d8 3e d4 16 f0 3d
       0.067588314 0.11726376 0.42353618 0.11723104
000320 a7 1c 23 bf 2f 90 12 3e 23 6c cd 3e 76 15 0c 3f
       -0.63715595 0.14312814 0.40121564 0.54720247
000330 a1 2d 2a be d3 a4 b4 bd f3 c9 04 bf 65 71 4d bd
       -0.16618969 -0.088205 -0.5187065 -0.05015697
000340 23 28 20 3e 73 a9 24 3d cf e0 ad bd 0c 05 19 be
       0.15640311 0.040200662 -0.084901445 -0.14943331
000350 46 c2 64 3e aa da 54 3e f6 22 2d bd bf 40 e6 3e
       0.22339734 0.20786539 -0.04226967 0.44971272
000360 02 ce b0 bc 4f b0 af bd ff bc 15 3e 7b 32 5e 3d
       -0.021582607 -0.0857855 0.14622878 0.05424736
000370 4b 9e 24 3f da 6a 7b be 33 a6 a2 3e 63 65 d1 3e
       0.64304036 -0.2455248 0.31767425 0.40897664
000380 82 3c e6 3e 38 ab 18 be 0a 0f df 3e dd 64 12 3e
       0.4496804 -0.14909065 0.4356616 0.14296289
000390 22 59 ae 3e 92 0d cf bd b2 f2 0c bf 1f 7c 05 3e
       0.34052378 -0.1011001 -0.55057824 0.1303563
0003a0 32 b9 ce bd d3 11 b1 be 0b 15 29 be 15 5c b5 bd
       -0.10093917 -0.3458391 -0.16511934 -0.08855454
0003b0 89 f0 0d 3f 2e c7 c0 3d f1 c8 7f 3e 77 35 ae bd
       0.5544515 0.094129905 0.24978997 -0.08506291
0003c0 cb 16 02 3e de 36 74 3e 60 81 2f be 09 49 21 3d
       0.12704007 0.23849055 -0.17139196 0.039376292
0003d0 e1 13 87 3d 90 58 b3 be a1 ad 23 be 26 5d 11 3e
       0.065955885 -0.35028505 -0.15984203 0.1419569
0003e0 ac 33 cc 3d ca 01 c9 3e d7 09 ce bb 8b 7c 15 3e
       0.09970793 0.39259177 -0.006287794 0.1459829
0003f0 a1 37 11 be 19 2e a8 bd a4 34 2e 3d 30 80 86 3e
       -0.14181377 -0.082119174 0.04253067 0.26269674

grud_cell.weight_gamma_x f4 [17]
000000 53 0b 8c bb b4 74 34 3f 58 e3 e4 3d 77 ec 9e 3e
       -0.004273811 0.70490575 0.11176175 0.31039783
000010 88 74 b2 bb d8 0c 85 3f 9d 5b 35 3f 6a 3f c4 3e
       -0.0054460205 1.0394545 0.70842916 0.3832963
000020 8d 6f 9a 3e b9 a1 09 3f 99 af 03 3f fc 01 b4 3e
       0.30163231 0.53762394 0.51439816 0.35157764
000030 65 5d 0d 3f 72 09 34 3f 0b a3 b3 3e 79 3d e3 3e
       0.55220634 0.7032691 0.3508533 0.44382837
000040 b5 56 18 3f
       0.59507304

grud_cell.weight_gamma_h f4 [17]
000000 64 5c d9 3e 9c 13 50 bc 75 18 01 3f 5e 92 f1 3d
       0.424533 -0.012699988 0.50427943 0.117954955
000010 b7 c2 3e ba 63 9a be 3e 59 62 31 bb 29 65 5d ba
       -0.00072769396 0.37227163 -0.0027066676 -0.0008445555
000020 00 e6 29 3e 0d f7 bd bb 5f d1 b3 bb 8f c3 58 bc
       0.16591644 -0.005797273 -0.0054876055 -0.013230219
000030 1b ff 1a bb df 47 a4 bb ac 06 cb bb 6f d3 af 3e
       -0.002365059 -0.0050134505 -0.0061958637 0.34341
000040 96 a0 24 ba
       -0.00062800327

grud_cell.bias f4 [17]
000000 e1 e8 65 bd 06 99 dd 3e 10 b2 d8 3e d7 47 c7 bd
       -0.056130294 0.4328081 0.4232335 -0.09730499
000010 32 6b 1b be cd 5b b7 bc 6f c4 bc 3c 6c 85 d2 bd
       -0.1517761 -0.022382641 0.023042886 -0.102793545
000020 7e 6e 34 3e 30 12 04 3d 86 a5 f2 bd 79 26 38 be
       0.17620274 0.032243907 -0.11847977 -0.17983426
000030 14 1f b8 3d 16 18 47 3d ce 45 39 bc c9 a9 a9 bd
       0.08990303 0.048606955 -0.011308147 -0.08284337
000040 ed 08 ce bd
       -0.10060296

fc.weight f4 [6, 17]
000000 ba 81 d4 be 32 2a ad 3e 17 b4 95 3e 91 7a 23 bf
       -0.41505224 0.33821255 0.2923896 -0.63858896
000010 d0 72 31 bf 4c d9 f0 be 2f 5b 1a be dc 6a f3 be
       -0.69315815 -0.47040784 -0.15073846 -0.47542465
000020 b7 39 df 3e c5 cf d5 be 44 1f 1b bf 0b d2 0c bf
       0.4359872 -0.41760078 -0.6059458 -0.55008
000030 37 6c 83 3e 43 e1 8d 3c 75 e8 bb be 66 ac e5 be
       0.256685 0.017319327 -0.36700788 -0.44858092
000040 2e ad 67 be 04 a3 67 be 7b fe 06 be 3b 65 49 be
       -0.22624657 -0.2262078 -0.13183014 -0.19667523
000050 eb ba ac bd f2 4d 38 bd fc 43 04 3e 70 00 a4 be
       -0.08434089 -0.04499621 0.12916559 -0.32031584
000060 8f 4b 12 bd 0b f2 1f be 8f 2d 8f 3e 3a 82 6e 3d
       -0.03571659 -0.15619676 0.27964446 0.058229662
000070 7c 72 fe 3d 22 08 c7 be 22 4d 0b 3f 86 cc 05 3f
       0.1242418 -0.38873392 0.5441457 0.52265203
000080 48 6f 79 3e c3 a2 e2 ba 25 78 88 3d 62 73 fd 3c
       0.24358857 -0.0017290938 0.06663541 0.030938808
000090 a9 9c 8b bd d2 35 00 3d e6 a3 db bc 53 31 b5 bd
       -0.0681699 0.031301327 -0.026811551 -0.088472985
0000a0 5c 22 ab 3e 55 d9 48 3d 11 4f 5d 3e e3 f9 c4 3e
       0.33424652 0.04903539 0.21612193 0.38471898
0000b0 9e 03 cc 3d 1a b5 c4 3e e4 16 27 bf a8 2a 10 3f
       0.099616274 0.3841942 -0.65269303 0.5631509
0000c0 70 02 9d 3d 08 65 06 be 2e 28 1d bf eb 33 89 3e
       0.076664805 -0.13124478 -0.61389434 0.26797423
0000d0 bb 5b 1c bf d9 76 77 be 3e 1e d3 3d 80 c8 ee 3e
       -0.6107747 -0.2416643 0.103085026 0.46637344
0000e0 83 05 90 3e bb 48 5b 3e 27 8b bb 3e 53 1c fe be
       0.28129205 0.21414463 0.36629602 -0.49630985
0000f0 d5 97 5d 3e d6 c0 e1 3e 04 a2 28 3f e0 71 38 bf
       0.2163995 0.44092435 0.65872216 -0.7204876
000100 bd 80 d6 3e 61 8e 21 3e ba c8 b3 3e f9 f5 ab be
       0.41895095 0.1577697 0.3511408 -0.335861
000110 c3 06 c4 3e e4 5c 1f bf 1a 26 00 be 08 d6 d0 3e
       0.3828641 -0.62251115 -0.12514535 0.40788293
000120 a9 62 fe be 34 ce 12 3f d2 8e 56 bf a8 ed 0d bd
       -0.49684647 0.5734589 -0.83811677 -0.034650475
000130 23 12 8f be 9a c8 80 be a8 16 02 3f e8 53 87 3e
       -0.27943525 -0.25153047 0.5081582 0.26431203
000140 a1 39 2f 3f 6d 23 20 bf 01 bf cd bd 1d fb 4e bd
       0.6844731 -0.62554055 -0.10046197 -0.05053245
000150 fd d8 4f 3f 79 a5 05 3f 92 08 f1 3e 2c af f7 3e
       0.8119047 0.52205616 0.4707685 0.48375833
000160 51 98 2e 3d 2a 82 f9 3e 49 a2 4b 3e fd 51 4f 3f
       0.04262573 0.4873212 0.19886126 0.8098448
000170 be a4 04 3f 18 91 28 bf d9 29 18 bd 0a 6a bb 3e
       0.51813877 -0.65846395 -0.037149284 0.3660434
000180 eb bd d1 be 96 87 12 3f ff b5 6e be 14 51 f5 bd
       -0.40965208 0.5723814 -0.23311614 -0.11978355
000190 a3 47 07 3f f9 93 4f 3e
       0.52843684 0.20271291

fc.bias f4 [6]
000000 d6 2b 1d 3e 03 fe ea be 10 13 78 3e d4 3e 69 be
       0.15348753 -0.4589692 0.24226022 -0.22777873
000010 67 17 38 be 78 a2 4f 3e
       -0.17977677 0.2027682
