models/finetuned_coarse_model_42_42_20230625-103738.pt (torch, 10689 bytes, 8 tensors)

grud_cell.weight_z f4 [17, 34]
000000 10 94 5c 3f 82 ed 79 be 05 9c bb 3e 7a 6d 1b 3e
       0.86163425 -0.24407008 0.3664247 0.1517848
000010 3d a1 35 3e 1b f4 29 be 2e b6 2e be fa 3a c1 3e
       0.17737289 -0.16597025 -0.17061684 0.37740308
000020 a8 4d 7c 3e 5f 4a cb be a1 78 09 3f 9a f2 4f be
       0.24638999 -0.39705178 0.5369969 -0.20307389
000030 45 54 99 3e 23 f7 8d bd 8d 02 9c 3e 97 ac 4a bd
       0.29947105 -0.06931903 0.30470696 -0.049481
000040 f2 c8 59 3e 9e b6 1d 3f 06 9b 1a be 37 30 38 3f
       0.21268061 0.61606777 -0.15098199 0.7194857
000050 41 a8 6c 3e 22 ce 11 bd 2b 73 b7 be 12 cb 6c bd
       0.23111059 -0.035596974 -0.35830054 -0.05781085
000060 da 95 72 be b0 af 46 bf 1a 88 9d 3e 9e cf 2f be
       -0.23689976 -0.7761183 0.307679 -0.17169043
000070 45 90 cb be 85 40 50 be 19 bf d3 be fc 12 4e bf
       -0.39758506 -0.20337112 -0.41356733 -0.8049772
000080 6f da 08 be 45 c4 3a be 0e 2a 96 bf 95 54 8a 3e
       -0.13364576 -0.18238933 -1.1731584 0.27017656
000090 16 cc 6f be 33 8e 90 be 38 18 3e be 34 13 c8 be
       -0.23417696 -0.2823349 -0.18563926 -0.3907715
0000a0 e5 3e c0 be 43 32 3d bd f0 63 c8 3d df 57 3e 3e
       -0.37547985 -0.04619051 0.097846866 0.18588208
0000b0 e0 31 3d bc b0 89 85 3d 1b de 0f 3f ed 5a 2a be
       -0.011547536 0.065204024 0.5619828 -0.16636248
0000c0 a5 35 ee 3e b6 1c 9b be a1 84 3d be c7 ba 0e 3c
       0.46525303 -0.30295342 -0.18507625 0.008711523
0000d0 b3 f5 56 bf c8 93 52 3f 47 1d 0b bc d7 62 f9 3d
       -0.8396866 0.82256746 -0.008490867 0.12177055
0000e0 4a 60 d8 be 53 d6 35 3d c5 45 31 3d 03 cf 90 be
       -0.42260963 0.04439385 0.043279428 -0.28282937
0000f0 5e 0d e5 3d 13 5d 9f be 6a 44 18 3f 2c 6b 1c bf
       0.1118419 -0.31125697 0.5947939 -0.6110103
000100 06 7c 51 3e 2b e3 33 be 88 02 e3 bc 37 06 58 be
       0.20457467 -0.17567126 -0.027711168 -0.21096121
000110 29 46 d0 bd bc 85 9f bd eb 6e ed be 1d 24 45 3d
       -0.10169632 -0.0778918 -0.46373686 0.048130143
000120 ad 35 d9 3e 6e 0f 05 bf e6 69 51 bd d6 f6 bb be
       0.42423764 -0.5197667 -0.051126383 -0.36711758
000130 79 b9 a5 be 32 45 5d 3d 48 f8 f6 be 9a 93 70 3e
       -0.32368067 0.054021068 -0.482363 0.23493806
000140 14 97 46 be d4 a3 97 bd 5a 90 04 3e 60 5c e1 3d
       -0.19393569 -0.074042946 0.12945691 0.11003947
000150 f3 bc 31 3f c4 df 19 bd 1c ef 1c 3f a3 d6 e0 bd
       0.6942894 -0.037566915 0.6130235 -0.10978439
000160 7c 6d 98 be 7f 83 d2 be f6 3e 4d 3e 0d 0c 2f 3f
       -0.2977103 -0.4111595 0.20043549 0.68377763
000170 0f ff f1 be c5 49 21 3f 89 60 60 bf dc 78 25 bf
       -0.47264907 0.6300319 -0.876473 -0.6463754
000180 b7 6b cc be 8e de 63 bf 21 fa 35 3e 3e 09 2d be
       -0.3992593 -0.89011467 0.17771198 -0.16898057
000190 03 74 0c 3f f6 c8 30 3e 38 40 2e bf eb 73 8a be
       0.5486452 0.1726416 -0.6806674 -0.27041563
0001a0 a5 cc 9d be 94 f7 32 be 27 65 85 3d a6 c7 35 be
       -0.30820194 -0.17477256 0.06513434 -0.17751941
0001b0 98 a5 48 be 03 36 97 3e a3 0c 86 3d 0c 5e 94 3e
       -0.19594419 0.29533395 0.06545379 0.28978002
0001c0 88 16 6d 3d f6 1e 25 bf fc a4 a4 be 6e f4 8b be
       0.057882816 -0.6450037 -0.32157123 -0.27334923
0001d0 90 df fc be fa ae 71 be bb 4a 1c be e5 83 ea be
       -0.49389315 -0.23601905 -0.15262882 -0.45803753
0001e0 06 f0 f9 3d 1b 14 2f 3e 28 9c 7e bf 57 c7 20 bd
       0.12203984 0.17097513 -0.99457026 -0.039252605
0001f0 39 56 6e be 7b ed 87 be eb a0 b2 bc 8f 99 1d 3e
       -0.23275079 -0.2654837 -0.021805247 0.15390609
000200 3e ae bb bb 61 83 51 be 27 88 9a 3e 7b f9 82 3e
       -0.0057275584 -0.20460273 0.30182 0.25580963
000210 6a 96 aa be c9 5c 97 be c1 c6 4b 3e d0 44 1a be
       -0.33317882 -0.29562977 0.19900037 -0.15065312
000220 40 7a 66 bf 48 53 88 bd 6a 76 48 be b2 60 2e bf
       -0.9003029 -0.0665651 -0.19576421 -0.68116295
000230 19 ca b3 be 20 3f 6a 3e ab 74 f3 bc 64 2e 84 be
       -0.35115126 0.22875643 -0.029718718 -0.25816643
000240 d0 1d 66 3e 35 4d 9c bb 31 79 83 3e 5e 9c 7c 3e
       0.2247231 -0.004769946 0.256784 0.24669024
000250 6e d2 61 3f 53 3b 19 bf ec 58 bd 3e 0c 1c 19 3e
       0.88211715 -0.59856147 0.36981905 0.14952105
000260 14 e7 c7 3e 10 65 b3 be a3 59 de 3e 6b 9c a9 3e
       0.39043486 -0.35038042 0.43427762 0.3312715
000270 6f e0 2f be ad d2 ac 3d 02 6a 80 bd 75 22 fc bd
       -0.17175458 0.08438621 -0.062702194 -0.1231126
000280 98 4b 7b be b7 eb 63 3f 50 ca f8 3e 7a 8e de be
       -0.24540555 0.8903155 0.48591852 -0.43468076
000290 72 92 52 be db 1f b5 3e f8 06 9c 3e 13 c8 81 be
       -0.20563677 0.35375866 0.30474067 -0.25347957
0002a0 a3 6a 36 3f 51 18 d5 3e c3 13 97 3e 64 70 6e 3e
       0.71256465 0.41620114 0.29507264 0.23285061
0002b0 a3 08 58 3e 2c 40 09 3c 65 a6 01 3e 3c d1 86 3e
       0.21097045 0.008377116 0.1266113 0.26331508
0002c0 ce 05 8a be 3f d2 57 3d f3 7b f8 3e b2 3b d6 3e
       -0.26957554 0.05269074 0.48532066 0.4184242
0002d0 65 15 01 3e ca 5d 13 bf 6e de 91 be 74 c5 d6 bc
       0.12605818 -0.57564986 -0.28490013 -0.0262172
0002e0 38 bd 17 3f f6 cb e3 3e f6 d3 84 bb 52 60 40 be
       0.592731 0.44491547 -0.004053588 -0.18786743
0002f0 60 aa 53 be ba e1 cc 3e 7c bb 62 3e ed 38 06 bf
       -0.20670462 0.40015966 0.22141832 -0.5243061
000300 52 cf db be b3 f8 9d be 68 4c 43 bd cb 59 1f 3e
       -0.4293161 -0.30853805 -0.04768029 0.15561597
000310 3d a7 78 3f 08 37 d2 bd f1 a0 76 be 08 f4 16 be
       0.97130185 -0.10264403 -0.24084832 -0.14741528
000320 8b 1e 39 bf c3 dc 20 bf 75 0f 3c 3f 6d bf b7 be
       -0.7231223 -0.62836856 0.73461086 -0.35888234
000330 54 34 0b bf 7e 27 01 bf 0f ba ac be c4 ce 5a be
       -0.5437672 -0.50450885 -0.337357 -0.21367937
000340 32 3a 21 be e5 32 2f 3e cf 5c 03 be ca 61 3c be
       -0.15744856 0.17109258 -0.12828372 -0.18396679
000350 ba 24 dd be 2f aa 61 3e 26 a9 6f bd 88 b2 08 3f
       -0.43192083 0.22037576 -0.058510922 0.5339742
000360 1b e9 e1 bd 5d 4e 86 bd 86 69 45 3e ec 72 7b 3d
       -0.110307895 -0.06557915 0.19278535 0.061388895
000370 b4 e9 ba 3e 2c e0 4a 3f a8 ef c6 bc 46 72 84 3e
       0.36506426 0.7924831 -0.024284199 0.25868434
000380 b6 39 fe be 6f 71 f1 be 24 0b 62 3f a7 95 ca 3d
       -0.49653405 -0.47156855 0.8829825 0.09891825
000390 2f e3 18 bf 14 d6 8b 3d f0 4c 93 be df e6 b9 bd
       -0.59721655 0.068279415 -0.28769636 -0.09077238
0003a0 b7 a2 5a be a1 3e a4 3e 68 66 aa 3e 1c 4b de bd
       -0.21351133 0.32079032 0.33281255 -0.1085417
0003b0 e6 34 06 3f 5a 50 b2 be 24 c7 2c be 33 70 20 3d
       0.52424467 -0.34826928 -0.16872841 0.0391695
0003c0 c9 f1 b7 3e 61 a1 23 be 0e af 50 3e ce 4b f8 be
       0.35926655 -0.1597953 0.20379278 -0.48495334
0003d0 3b 04 0f 3e 49 bb 9d be 99 4d c2 be d4 fb df 3e
       0.13966458 -0.3080695 -0.37949827 0.43746817
0003e0 63 65 b1 3d b6 19 09 3f 95 79 23 bd 94 78 31 3c
       0.08661916 0.53554857 -0.03991087 0.010831971
0003f0 0e ac 83 3d a3 aa d8 bd d7 26 f2 3b da 7f eb be
       0.06429301 -0.10579421 0.007389884 -0.4599598

grud_cell.weight_r f4 [17, 34]
000000 7e fb a4 be f9 ab 51 be 25 5f f1 3e 99 7a ec be
       -0.32223123 -0.20475759 0.47142902 -0.46187285
000010 81 1d 5a be bd 57 ab 3e 2b 44 83 be a4 ec 19 3e
       -0.21300317 0.33465376 -0.25637946 0.15031677
000020 dd 81 48 3c 7d 5b af bd 06 86 1a bf 5d a2 e4 be
       0.012237993 -0.08562372 -0.60360754 -0.44655123
000030 82 1d 4a 3f 28 3a 6e be 3b 36 cf 3d cd 38 2b be
       0.78951275 -0.23264372 0.101177655 -0.16720887
000040 51 63 2a be 7e 94 a0 be 75 dd 2b 3e b9 35 06 be
       -0.16639449 -0.3136329 0.16783698 -0.13106431
000050 32 46 c1 3e 5e e3 6f bd 55 36 e5 be 2e c2 40 be
       0.37748867 -0.058566444 -0.44768015 -0.18824074
000060 f8 1c 3c bf f9 6b bc be 48 aa 54 bf 45 81 0c bf
       -0.734817 -0.36801127 -0.8307233 -0.5488475
000070 9a 94 55 be 95 52 0b bd f4 52 87 bc 68 0e 53 3e
       -0.20857468 -0.034014303 -0.016519047 0.20610964
000080 c8 d7 4a 3f 4f 49 00 3d 78 5f dc be 10 45 aa 3e
       0.79235506 0.031319913 -0.43041587 0.33255816
000090 08 a5 6e be b4 33 22 be 7a 9a 20 3f 7f dc 2d be
       -0.23305142 -0.15840036 0.6273571 -0.16978644
0000a0 b5 9b c0 3e 27 d6 0d be 9d df 49 be 65 f3 b8 be
       0.37618795 -0.13851224 -0.19714208 -0.36123195
0000b0 2a be 01 bf 22 28 82 3d 7b c8 4a bc 6d 76 09 be
       -0.5068079 0.06355311 -0.0123769 -0.13424082
0000c0 09 17 ae 3e 65 3e 3b 3e 80 ad 15 bf 1d e4 45 3e
       0.3400195 0.1828552 -0.58467865 0.193253
0000d0 1c 82 c3 be 89 9a ba bd cc b0 8a be ef a4 24 3e
       -0.38185203 -0.091115065 -0.2708801 0.16078542
0000e0 e4 b5 10 be 20 53 8d 3e 8f e9 f1 be e5 e3 4d be
       -0.14131886 0.27602482 -0.47248504 -0.20106466
0000f0 8f 9f ea bd 69 08 a6 bd 83 cb af bc f0 d3 7a be
       -0.11456215 -0.08107073 -0.021459347 -0.2449491
000100 38 c6 8a 3e d6 a7 1c be 68 38 28 bf 6c 68 14 be
       0.27104354 -0.152984 -0.6571107 -0.14492959
000110 ad 53 69 bd 4b 2b 12 be 0c 1c 94 bd 9f 10 0c be
       -0.056964565 -0.14274327 -0.07231912 -0.13678215
000120 cc 67 3f 3f e0 da 9a 3e 45 d4 86 3d 2c e6 54 3c
       0.74767756 0.30245113 0.06583456 0.01299433
000130 37 be 31 be 62 7b 8d bd 11 52 8b bd ab 1a c6 bd
       -0.17357717 -0.06908299 -0.06802762 -0.09673055
000140 f5 6b b1 3e 90 68 dc bd b7 e0 61 be 6d 9e a0 3d
       0.34652677 -0.10762131 -0.22058378 0.07842717
000150 2f 6f 52 be bd 23 09 3f 0c 93 2c 3f 08 8f 73 3e
       -0.20550226 0.5357016 0.67411876 0.23785031
000160 35 be 7a be 9a 23 85 be cb 15 9b 3e 08 8b da 3e
       -0.2448662 -0.26003724 0.30290064 0.42684197
000170 cf 33 8f bd 2b 27 fe 3e 80 24 30 3f 16 b9 9a bd
       -0.069923036 0.49639258 0.68805695 -0.075548336
000180 d6 2a 44 bf 4d f7 25 3f 44 ea f0 be e9 e8 09 bf
       -0.7662786 0.64830476 -0.4705373 -0.5387102
000190 73 b0 b3 be 51 bc d7 3e 71 35 ea 3d 3b 32 f6 3e
       -0.35095558 0.42135862 0.114359744 0.48085198
0001a0 e7 c4 39 bf 84 99 9e bd c5 fa 35 bf da 89 83 3f
       -0.72566074 -0.077441245 -0.7108577 1.0276444
0001b0 b6 e9 b6 3e 48 08 fc 3d 7c fd 85 be 95 1a 8a 3e
       0.35725182 0.12306267 -0.26169956 0.26973405
0001c0 a1 a2 bc 3e 7e 29 29 3f d5 96 a2 3d aa 7e 93 3d
       0.36842826 0.6607894 0.07938925 0.07201894
0001d0 3c 36 84 be df bb 2c 3e 2e 3d b9 3e de 15 b8 3e
       -0.25822628 0.16868542 0.3617949 0.35954183
0001e0 f2 26 3e bc 3c af 49 3e 68 86 e5 3d 24 bb b1 be
       -0.011605965 0.19695753 0.112072766 -0.3471309
0001f0 6f 27 02 be f5 e5 cd be 59 f0 ee 39 d0 bf 22 3e
       -0.12710355 -0.40214506 0.0004557397 0.15893483
000200 b2 2d 9c 3e d0 fb 8e be 9f 73 c6 be b3 66 29 be
       0.30503613 -0.27926493 -0.38760087 -0.16543083
000210 c6 20 bf 3e 14 e3 ec 3e 0c e8 bc bd 2b f8 fe bd
       0.37329692 0.46266997 -0.09223947 -0.12449678
000220 4b 30 65 3f c0 7e 45 bd 28 8d 83 bd e5 b3 f5 3b
       0.89526814 -0.04821658 -0.06423408 0.0074982517
000230 ff f6 d3 3d 45 99 86 bd 97 d4 fa 3d b1 75 a7 3e
       0.10349845 -0.065722026 0.122475795 0.3270698
000240 8c ba 02 3f c9 0a f4 3e 44 68 33 bf 1c 5d 25 3f
       0.510659 0.47664478 -0.7008097 0.645952
000250 e1 74 04 bc b4 e5 bb be 48 cc 5e bd 59 a3 e5 be
       -0.008084507 -0.36698687 -0.054394037 -0.44851187
000260 b4 e2 1f 3f 22 95 6f be df fd dd be b6 0a 7d 3d
       0.62455297 -0.23396733 -0.4335775 0.061777793
000270 a3 d8 1e be 87 71 f6 3e f5 b3 bb be 50 5a 08 be
       -0.15512328 0.4813349 -0.36660734 -0.13315701
000280 27 e6 35 3e cd cd 1e 3f 0c 22 8a 3e 57 bf ae 3d
       0.17763577 0.6203278 0.269791 0.08532589
000290 9f 7b 4f 3e 1b 68 ac 3e d8 ac 8c bd d9 d1 a7 be
       0.20262001 0.33673176 -0.06868905 -0.3277729
0002a0 90 a7 08 be 48 8b 32 bc 49 6a 2b bf a3 e9 8e be
       -0.1334517 -0.010897465 -0.66959053 -0.27912626
0002b0 6d 78 ad be cb 67 7a be f7 ba a1 3e 9c f7 b6 bd
       -0.3388094 -0.24453656 0.31587955 -0.089339465
0002c0 32 ee 3a 3e 4a 19 1a 3e fd aa ed be e1 1a f8 3e
       0.18254927 0.1504871 -0.46419516 0.48458007
0002d0 48 fd 0f bf 1d 4c f0 3e 94 1b 0d be 7b 0d c1 be
       -0.5624585 0.4693307 -0.13780051 -0.37705597
0002e0 35 ad 06 3e fb e4 ac 3e 11 fc b1 3b 9e 34 4c 3d
       0.1315201 0.33768448 0.00543166 0.049854867
0002f0 af ec bd bc 3d 2c bf be 06 18 dd be 0b e5 b1 3e
       -0.023184149 -0.3733844 -0.4318239 0.34745058
000300 b2 46 99 3e 29 88 38 3e 6e f6 07 bf ef ec a4 be
       0.2993675 0.18020691 -0.53110397 -0.32212016
000310 57 df db 3e 06 c8 8c 3e a7 e6 d0 be c6 04 ef bd
       0.42943832 0.27496356 -0.40800974 -0.11670832
000320 e2 49 43 3e c2 07 0a 3e 8f 59 de bd 52 5f bc be
       0.19071153 0.13479522 -0.10856926 -0.36791474
000330 36 a4 9a be 1d 4f c2 be af 82 46 3c 2a 1b 6b be
       -0.30203408 -0.37950984 0.012116118 -0.22959581
000340 02 31 c9 bc 2b 71 83 3e c5 b3 e3 3d 81 50 11 3c
       -0.024559502 0.25672278 0.11118273 0.008869291
000350 1e 39 38 bf de 1e 9b be fd 49 a9 3e c0 7a 03 be
       -0.71962154 -0.30296987 0.3306426 -0.12839794
000360 55 68 a3 be 25 0c 01 3e dd ce 10 3e 1f 27 1e be
       -0.31915537 0.12602289 0.14141412 -0.15444611
000370 40 55 3e 3e 4f 33 83 3e e5 6d d7 3d a3 39 f9 3e
       0.18587208 0.25625083 0.105190076 0.48676786
000380 b2 2a fa be 40 ae 2c 3c cc e6 56 bc 6d 9e 0e 3e
       -0.488607 0.010539591 -0.01311655 0.13927622
000390 22 86 8b be ff 14 5c be c8 1b 54 be 1c 57 3d bc
       -0.27250773 -0.21492384 -0.20713723 -0.011556413
0003a0 04 0f 39 bf 86 ca 1f 3f 33 f6 2b be 39 0e 92 be
       -0.7228854 0.624184 -0.16793136 -0.28526476
0003b0 9b 5f f7 3e e4 da 46 3d d5 f9 9b 3e 25 d3 26 3f
       0.4831513 0.048548594 0.30464044 0.6516593
0003c0 3f 11 53 3d e8 fb a9 bd 3e 4a 3b 3e c6 07 56 3c
       0.05153012 -0.083000004 0.1829004 0.013063377
0003d0 c0 e2 4c 3e 83 be 6f bc e8 60 89 bc 06 45 52 3e
       0.20008373 -0.014632824 -0.016769841 0.20534143
0003e0 7e 97 2f 3f 06 92 84 be 19 11 a5 3e f2 7c d7 be
       0.68590534 -0.25892657 0.32239607 -0.42087513
0003f0 f7 ab d4 3e b0 b9 7c be 91 c4 4e be 2f f9 6b bd
       0.4153745 -0.24680209 -0.20192172 -0.057610687

grud_cell.weight_h_tilde f4 [17, 34]
000000 6f 2b 52 3e 50 c0 cb 3e 02 bc 00 bf 8a 1b a0 3c
       0.20524381 0.3979516 -0.5028688 0.019544382
000010 07 d3 a2 3d ee b5 2d be 9f e9 1f bd c9 81 04 bd
       0.079504065 -0.16963932 -0.039041158 -0.032350335
000020 23 97 14 bd dd 69 c3 3e 04 d2 6a bd c5 48 db 3d
       -0.036276948 0.38166705 -0.057329193 0.10707239
000030 68 b9 1f be 36 ce 80 be bd e5 86 3e 29 09 22 bd
       -0.1559807 -0.25157326 0.2634715 -0.039559517
000040 79 da 8f be b5 40 35 3f c8 78 be 3e 8d 0d 55 3e
       -0.2809637 0.7080186 0.37201524 0.2080595
000050 ee b5 1c 3f 59 b4 fa 3e 79 10 80 3f fa cb 0a 3e
       0.612151 0.4896572 1.0005027 0.13554373
000060 0d cc b9 3d 10 5c 6e bd 18 d0 bb be a5 6b 72 bd
       0.09072123 -0.058193266 -0.366822 -0.05918469
000070 de 4c f4 3e dc 4c 56 be 23 ac 49 be fa 77 5c be
       0.47714895 -0.20927757 -0.19694571 -0.21530142
000080 c1 7b fe 3e 98 8a 41 3f 75 58 bd be ab 50 c7 3d
       0.49703792 0.756021 -0.3698155 0.09732183
000090 4e 4a 32 3e 67 18 81 3d 79 a1 6f be 55 f7 08 be
       0.17411157 0.063034825 -0.2340144 -0.133756
0000a0 83 28 26 be f5 31 8b 3c 42 ca 5e bd 09 45 d8 be
       -0.16226391 0.016991595 -0.054392107 -0.4224017
0000b0 5c fb be bd dc 1c 09 bc 65 b9 3d 3e aa 55 f6 bc
       -0.09325287 -0.008368697 0.18527754 -0.030070145
0000c0 e4 12 71 be 94 29 ac be fc 0c 70 bc 3b 19 d5 bd
       -0.23542362 -0.33625472 -0.014651533 -0.10405203
0000d0 cb 0d 7c 3f 6a 2b 4b 3f 5f 24 5a be 31 2c 18 bf
       0.98458546 0.7936312 -0.21302937 -0.5944243
0000e0 61 74 13 3e 52 01 50 3f ac 74 a3 be 65 8f ee 3e
       0.14399864 0.81252015 -0.3192495 0.46593776
0000f0 15 a3 99 3e 2e 56 e1 be ca a4 05 bf c1 20 0b bf
       0.30007234 -0.44011062 -0.52204573 -0.54346853
000100 0c 78 9e be 1b 75 2d be 48 1e 41 be 65 22 9a be
       -0.30950963 -0.16939203 -0.18859208 -0.30104366
000110 40 58 7e 3e 43 67 8c be 74 a5 09 3e 93 a9 88 bd
       0.24838352 -0.27422532 0.13442022 -0.06672969
000120 63 e6 3a bd 1e 75 4a bd f1 cb b2 3d aa 52 2e 3d
       -0.04562987 -0.049428098 0.08730305 0.042559303
000130 de c1 1a 3e c9 80 61 3e d4 c1 95 3e 4d c6 6e 3e
       0.15113017 0.22021784 0.29249442 0.23317833
000140 9f eb eb bd 08 c1 2f 3e 79 99 c5 3d 22 77 b7 3e
       -0.115195505 0.1716348 0.09648413 0.3583308
000150 b2 d0 12 3e 1a 7b da 3e 47 92 2b 3f f9 3f 3e 3f
       0.14337423 0.42672044 0.67020077 0.74316365
000160 b8 c0 9f bd 51 66 2e 3e 47 36 1a 3e b4 e2 30 3f
       -0.0780043 0.17031218 0.15059768 0.6909592
000170 60 8f d8 3c 95 e6 98 3e 19 49 cc 3c ba 49 73 bf
       0.026435554 0.2986342 0.0249372 -0.9503437
000180 83 40 21 bf 4a 84 be be 3d 91 04 3e de 09 49 be
       -0.6298906 -0.37210304 0.12946029 -0.1963267
000190 d1 ab 86 be 3a 52 03 3f 3b f1 91 be 32 57 85 be
       -0.2630296 0.5129734 -0.28504357 -0.26043087
0001a0 70 12 34 be e1 5e 2d bd a0 3e 95 bd 85 f8 83 3e
       -0.17585158 -0.04232681 -0.072873354 0.25775543
0001b0 58 03 05 3f 2b c3 05 3f 2a 9d 03 be 88 25 b3 3d
       0.5195823 0.5225093 -0.12852922 0.08747393
0001c0 ad f8 89 3d 15 33 2b be 33 12 4f 3e 11 bc 77 3e
       0.06736884 -0.16718705 0.20221786 0.24192835
0001d0 db 7e 8e be 1f c8 e7 3d 21 c3 98 be 11 da 64 3f
       -0.27831158 0.11317467 -0.29836372 0.8939524
0001e0 f7 5b 6e 3e 54 b6 1e 3e f6 4f e4 3e 83 4d 21 3e
       0.2327727 0.1549924 0.44592255 0.15752225
0001f0 20 b2 0b 3e 8f 53 84 3e 64 6c 79 3e 18 c7 d3 be
       0.13642168 0.25845 0.24357754 -0.41362834
000200 11 d0 71 be 84 c1 b8 3e 80 e4 0e 3f 76 00 b4 be
       -0.23614527 0.3608514 0.55817413 -0.35156602
000210 f3 c8 d9 be e1 41 85 3e 95 a4 18 3f 42 68 16 3f
       -0.42536125 0.26026824 0.5962613 0.58752835
000220 db be be 3e b7 6b b3 bd 9d 44 8b 3e de 44 b3 3b
       0.37254986 -0.08760779 0.27200785 0.005470856
000230 a1 1e e3 bd 3e 3d 40 bd 1c 7f 0b 3b 38 f7 66 bd
       -0.110898264 -0.046933405 0.002128548 -0.05638811
000240 c3 c9 a2 3c d3 20 1c bd 25 f1 bf be 58 72 1d 3f
       0.019871598 -0.03811724 -0.37488666 0.615026
000250 7a 62 c8 be 29 04 cc 3e 21 a2 3f 3e ee b0 f3 bb
       -0.39137632 0.39846924 0.18714191 -0.007436863
000260 e3 b8 cc bd 7a ae 1c 3f e8 7e e2 bd 84 6a 56 3e
       -0.09996202 0.6120373 -0.11059362 0.2093907
000270 70 6d 1e 3e 04 98 14 3f 23 2c 4e 3f 23 be bf 3e
       0.15471435 0.5804446 0.805361 0.3744975
000280 69 e1 ee 3e 21 0d 4e be 76 7e 62 be 80 a2 82 3e
       0.4665635 -0.20122196 -0.22118554 0.25514603
000290 6c 48 b4 3d c2 ce e5 3d 34 e2 81 be 18 0d 1e 3e
       0.08802876 0.112210765 -0.25367892 0.15434682
0002a0 3d 31 52 3e 84 06 1b be f9 b8 db bd 33 4c f6 3d
       0.20526595 -0.15139204 -0.1072864 0.120262526
0002b0 24 91 b7 be 6c 22 12 3e 69 4a 66 bc e4 c6 66 3d
       -0.3585292 0.14270943 -0.014055827 0.05634202
0002c0 05 91 01 3c 85 cb 3b 3b c7 66 4d bf 37 4e 20 3e
       0.0079081105 0.0028655243 -0.8023495 0.15654837
0002d0 9b 74 92 3e c3 88 9d 3e b2 20 7e 3e 10 df ae 3e
       0.28604588 0.30768403 0.2481716 0.34154558
0002e0 f5 0c 30 be 85 ec 2a bf 15 a2 96 bc 53 79 41 3f
       -0.17192443 -0.6676715 -0.018387834 0.7557575
0002f0 e5 50 63 3e 73 84 be 3d 99 27 90 3e 87 57 19 3f
       0.22198828 0.093026064 0.2815521 0.5989918
000300 8f 1c f2 3e 2c 55 80 3e 78 a2 5b 3e 73 5a 9d be
       0.47287413 0.2506498 0.21448696 -0.3073307
000310 93 3c 07 3e 8b 77 37 3e fe 49 b7 3e 0e 02 6b 3e
       0.13206701 0.17916696 0.3579864 0.22950003
000320 68 f3 32 bf b0 5f 09 3e eb 5c 0f 3f a3 ac 1c 3f
       -0.6990266 0.13415408 0.56001157 0.6120092
000330 87 52 bb bd bc 4a bc b8 c4 4b 9d be 6d ba e8 bd
       -0.091466 -8.978459e-05 -0.30721867 -0.11363683
000340 c7 38 ca 3d bb ea 26 3d f2 e4 f7 bb 19 4b f8 3d
       0.09874111 0.0407512 -0.007565134 0.12123699
000350 51 84 c5 3d b4 36 7c 3e 62 76 ed bb 7e c5 eb 3e
       0.09644378 0.24630243 -0.0072467783 0.46049112
000360 62 2f 5d 3d 6a e7 11 3d b6 dc 2b 3e 09 b7 d4 3c
       0.054000266 0.035621084 0.16783413 0.025966184
000370 bf 39 60 3f 72 62 32 bf 3e f7 a2 3e 76 93 d9 3e
       0.87588114 -0.69681466 0.31829256 0.42495316
000380 99 02 1e 3f 6b 61 a4 be 42 5b 9d 3e 09 9c 45 3f
       0.61722714 -0.32105574 0.30733687 0.77191216
000390 95 06 e3 3e b2 4a 3b be 2d 23 2f bf b0 9a 3e 3e
       0.4434096 -0.18290213 -0.6841305 0.18613696
0003a0 2e 06 af be 92 d5 e8 be bf 6b 0e 3d d1 2c 9b bd
       -0.34184402 -0.4547544 0.034770723 -0.075769074
0003b0 41 8c 40 3f 74 88 17 3e 87 d2 17 3e a4 2c 54 ba
       0.7521401 0.14798146 0.14826404 -0.000809381
0003c0 25 4e 4f 3e 6a fe 01 3e f2 2a 4c be c2 fa 44 3e
       0.20244654 0.12694708 -0.19938257 0.19236282
0003d0 1a 62 4a 3e af a5 94 be f6 69 a3 be 87 5f 8c 3d
       0.19763985 -0.29032657 -0.3191678 0.06854158
0003e0 14 b1 27 3e ab 69 12 3f 6c d3 6c 3e 6a b7 56 3e
       0.16376144 0.57192487 0.23127526 0.20968404
0003f0 53 6b e8 bd 7c db ea bd 58 60 57 3e 17 89 f3 bd
       -0.113485955 -0.114676446 0.21032846 -0.11891382

grud_cell.weight_gamma_x f4 [17]
000000 53 0b 8c bb 45 92 3e 3f 79 6b bb 3d a2 a0 e5 3e
       -0.004273811 0.7444194 0.09151358 0.44849116
000010 88 74 b2 bb 10 09 8b 3f 76 13 2c 3f 1a 42 7d bb
       -0.0054460205 1.0862141 0.67217195 -0.0038644136
000020 21 98 87 3e 99 ef 95 3e aa ab c4 3e 71 0c 32 3e
       0.26483253 0.2928436 0.3841222 0.17387559
000030 87 49 c2 3e 3d 41 1a 3f 7c 8e ab 3e 00 9e fd 3e
       0.37946722 0.60255796 0.33507144 0.49534607
000040 fd 0e bf 3e
       0.37316123

grud_cell.weight_gamma_h f4 [17]
000000 3e 98 c4 3d 9c 13 50 bc 27 e9 d8 3e 64 51 30 3d
       0.095993504 -0.012699988 0.4236538 0.04304637
000010 6f c6 d3 bb 63 59 70 3e 59 62 31 bb 69 4b 01 bc
       -0.006462864 0.23471598 -0.0027066676 -0.007891514
000020 f1 ad e1 bb 0d f7 bd bb 5f d1 b3 bb 8f c3 58 bc
       -0.0068871905 -0.005797273 -0.0054876055 -0.013230219
000030 1b ff 1a bb df 47 a4 bb ac 06 cb bb bc ca 39 3e
       -0.002365059 -0.0050134505 -0.0061958637 0.18143743
000040 8d 25 e1 bb
       -0.0068709315

grud_cell.bias f4 [17]
000000 bc a7 f3 bd c7 09 f5 3e 70 25 f0 3e 16 6c ab bd
       -0.11897227 0.47859022 0.46903563 -0.08370225
000010 b8 c5 63 be 19 57 0a bd b1 fa b4 3d f5 72 48 bd
       -0.22243392 -0.03377447 0.08836878 -0.048937757
000020 f5 94 67 3e 06 77 17 3d ab 6d 50 be a5 9b 2d be
       0.22615416 0.036978744 -0.20354335 -0.16953905
000030 f8 d2 2f 3d 85 62 b0 3c 81 0b 13 3d 19 c7 3a bd
       0.042925805 0.021531353 0.035899643 -0.04560003
000040 a7 01 0a be
       -0.13477193

fc.weight f4 [6, 17]
000000 81 10 49 bf 02 e0 87 3e f4 e8 cd 3e a0 7b 40 bf
       -0.7854081 0.26538092 0.40216792 -0.75188637
000010 31 ee 4f bf 19 bc 11 bf 98 42 0d be b2 e6 1c bf
       -0.81222826 -0.5692764 -0.13794935 -0.61289513
000020 8a 06 19 3f b7 b9 12 bf 6b 4f 4c bf b3 68 4b bf
       0.597756 -0.5731463 -0.7980868 -0.79456633
000030 a4 57 bd 3e 36 64 30 3e 9f 71 e3 be fc 59 30 bf
       0.36980927 0.17225727 -0.44422624 -0.68887305
000040 94 8a bd be a0 a2 ae bd b7 20 99 bd 68 2f 8a bd
       -0.3701979 -0.08527112 -0.07476943 -0.06747323
000050 ad e2 6a be fb 4d 6c be 4f f3 aa 3e 0f 0a 88 3e
       -0.22938032 -0.23076622 0.33388755 0.26570174
000060 e2 a7 80 3e ba 57 1a be 91 bc 22 3f 49 62 0f bd
       0.25128084 -0.15072528 0.6356898 -0.03500584
000070 5b 0d b7 bd b9 d8 a1 be 85 6c 35 3f 37 18 b4 3e
       -0.08938094 -0.3161066 0.7086871 0.35174724
000080 23 06 8b 3e 26 64 64 be 48 73 a4 be f2 df 2c 3e
       0.2715312 -0.22303829 -0.32119203 0.16882303
000090 2f 64 e2 be 34 36 b2 3e 1e 70 aa be 7c cb d7 be
       -0.4421706 0.3480698 -0.33288664 -0.42147434
0000a0 a1 37 be 3c 3f a1 97 3d 21 e3 d2 3e c0 48 2d 3f
       0.023219885 0.07403802 0.4118891 0.6768913
0000b0 e7 c7 2c 3f 06 fc 7b 3f 01 19 c1 bf a6 84 15 3f
       0.67492527 0.9843143 -1.5085756 0.5840553
0000c0 9d 19 42 3f 87 43 16 3c 72 77 88 bf be 75 09 3f
       0.7582033 0.009171373 -1.0661452 0.53695285
0000d0 03 62 74 bf 9b 74 5d be d1 08 8c 3e 47 9f 81 3f
       -0.95462054 -0.21626513 0.27350476 1.0126733
0000e0 58 c5 bc 3e ea fa 1c 3f 5f ca 34 3f 5d 31 82 bf
       0.3686931 0.61320364 0.70621294 -1.0171314
0000f0 a2 a4 87 3e 2c 4c 1b 3f 93 56 69 3f 52 ad 80 bf
       0.26492792 0.60663104 0.91147727 -1.0052893
000100 5c f6 bb 3e 29 47 5a 3e 62 2d 28 3f 2a ca 01 be
       0.36711395 0.21316208 0.6569425 -0.12674776
000110 14 d5 8b 3f 03 4f 60 bf 4c 38 67 be 1a 11 d7 3e
       1.0924401 -0.8762056 -0.2258007 0.42005235
000120 c0 3d 23 bf 99 15 42 3f 25 8a ed bf 56 38 2b bf
       -0.637661 0.75814205 -1.8557783 -0.66882837
000130 7e af 96 be f5 f7 8c be f2 81 7d 3e 9f 27 00 3f
       -0.29430765 -0.27532926 0.24756601 0.50060457
000140 27 02 74 3f 9c 70 4e bf fc 03 81 be f4 51 af bd
       0.95315784 -0.8064058 -0.25198352 -0.08560553
000150 d3 a2 81 3f 71 f0 41 3f 80 0b 4e 3f d0 54 32 3f
       1.0127815 0.7575751 0.804863 0.69660664
000160 71 9e b7 3d 23 cf 54 3f 7a 2e f3 3e ec 44 8c 3f
       0.08965767 0.83128566 0.47496396 1.0958533
000170 b1 62 6b 3f c1 ea 2e bf 06 89 82 be dc ae 05 3f
       0.91947466 -0.68326956 -0.25495166 0.5221994
000180 9d a9 29 bf 0d af 6a 3f 12 49 b6 be cf fe d8 be
       -0.66274434 0.91673356 -0.35602623 -0.42381904
000190 d1 9d 02 3f d8 23 fc 3e
       0.5102206 0.49246097

fc.bias f4 [6]
000000 5f 66 a9 3d 64 7a e6 be 5d bb 30 3f 38 73 d7 be
       0.08271479 -0.45015252 0.69035894 -0.42080092
000010 c1 b9 9c be fd 5a db 3e
       -0.3061047 0.42842856
