models/model_20230621-231254.pt (torch, 10395 bytes, 8 tensors)

grud_cell.weight_z f4 [17, 34]
0.4433188 0.46537438 -0.26776055 0.55329895 0.016098708 0.12522803 -0.03456592 0.40445808
0.09442566 -0.16372593 0.09841178 0.14172694 0.06588998 0.23345901 -0.021266483 0.076045245
0.315374 -0.049231205 0.053196453 0.14319898 -0.33447835 -0.15003929 -0.3357177 0.4472086
-0.17170134 -0.08142181 -0.48200825 -0.33918542 -0.4794479 -0.34167975 -0.0107038785 -0.2804448
0.4709988 0.2654725 -0.20731182 0.2552105 0.26017505 0.16333151 -0.122708365 -0.2423698
-0.065256 -0.19301537 0.23877464 0.19992366 0.07259822 -0.35277352 0.02857402 0.22900432
0.2686145 -0.31456164 -0.17956236 0.036455803 -0.33413583 0.42919743 0.08251853 0.089271925
0.10502965 0.3238804 0.3291811 -0.14848712 -0.32779118 -0.25822064 -0.35182112 0.059458397
-0.10211914 -0.20724382 0.35599872 -0.12743077 -0.18431109 -0.3763332 0.5252151 0.38411537
0.40256697 -0.36476284 -0.21928146 -0.4031996 -0.07032625 0.24897608 0.31011048 0.06692887
-0.38498256 -0.024965381 0.2818443 -0.18182173 0.07673127 -0.15133722 0.26753747 -0.39731333
-0.26750618 -0.021390451 0.09348232 0.22879271 0.12998392 0.123117484 -0.5001527 -0.30154163
-0.11637931 -0.17888701 -0.3560269 -0.21302263 -0.09112782 0.13023776 -0.008818089 -0.05459629
-0.1578319 -0.45306814 -0.3052507 -0.09322158 -0.50012624 -0.290629 0.42489427 -0.16481832
0.036468 -0.08664462 -0.32574764 -0.015480736 -0.013711776 -0.19661096 0.07879868 0.0789895
0.07871074 0.14530893 -0.038591642 -0.28008273 -0.33202806 0.22813888 0.0628791 -0.05528939
-0.10232377 -0.27668247 -0.21988332 0.41280028 -0.5197694 0.017358992 0.027171787 0.07669989
-0.3576197 -0.18787648 -0.05411522 -0.26023027 0.29653645 -0.16702226 0.34681326 -0.35707554
0.04967216 -0.026723266 0.090388164 0.38116133 0.54342157 -0.49947694 -0.039162636 0.015190057
0.040719654 0.0045321593 0.4769338 0.03039613 0.05066886 0.064659074 -0.0890572 0.18472447
0.55075186 0.30940804 -0.40569746 -0.51349056 -0.33487326 0.23768182 -0.38934967 0.042310994
0.2687835 0.03961503 -0.32904574 -0.080602475 0.39617977 0.03246459 -0.09477505 -0.16148019
-0.36920756 -0.012383832 0.3974846 -0.5350618 -0.12507768 0.043042198 -0.16797228 0.10808235
0.29276705 0.21712875 0.22345185 0.18572275 -0.03165113 0.2450947 -0.1359504 -0.192765
0.16525628 0.732449 0.14794812 0.08965425 -0.43118015 -0.20563431 -0.45151636 0.3462633
-0.5129141 -0.3027948 0.4737639 0.31935936 -0.122308075 -0.07289742 -0.3739628 -0.06666749
-0.060376607 -0.03538787 0.13455188 0.022240603 -0.13520041 -0.11037775 -0.06457858 0.47219676
0.18885295 -0.22917709 0.10563922 0.0025239459 -0.049029756 0.47129208 0.11259296 0.2179296
-0.5372946 0.031788904 -0.039437078 0.069448724 0.04542459 -0.08631619 -0.5825591 0.02617105
-0.2810723 0.6206522 -0.14431168 -0.1687745 0.23774414 0.035600156 -0.107715495 -0.21292023
0.07364951 0.119359374 -0.24978939 -0.34989157 -0.21919219 -0.3629317 -0.09187488 0.04359605
-0.29176128 0.17804118 -0.30623966 -0.056033462 -0.25075993 -0.09708927 -0.091642424 -0.25270137
00000000: affa e23e 8d45 ee3e e917 89be 00a5 0d3f
00000010: 70e1 833c c73b 003e fe94 0dbd 2115 cf3e
00000020: 3e62 c13d c5a7 27be 1e8c c93d de20 113e
00000030: 53f1 863d e10f 6f3e 0c37 aebc 9cbd 9b3d
00000040: b378 a13e a9a6 49bd 86e4 593d c1a2 123e
00000050: bf40 abbe e6a3 19be 31e3 abbe 87f8 e43e
00000060: 7ad2 2fbe 7ac0 a6bd c9c9 f6be b6a9 adbe
00000070: 327a f5be a6f0 aebe 525f 2fbc 7696 8fbe
00000080: c126 f13e 03ec 873e 8d49 54be f3aa 823e
00000090: aa35 853e 6040 273e 864e fbbd ca2f 78be
000000a0: f0a4 85bd d2a5 45be 5781 743e cab8 4c3e
000000b0: 60ae 943d bb9e b4be 1014 ea3c 1c80 6a3e
000000c0: d787 893e 390e a1be 32df 37be ae52 153d
000000d0: da13 abbe c4bf db3e 7aff a83d 33d4 b63d
000000e0: c919 d73d a7d3 a53e 6d8a a83e 020d 18be
000000f0: 3fd4 a7be 7f35 84be e621 b4be a68a 733d
00000100: d723 d1bd b937 54be 7745 b63e 367d 02be
00000110: 0cbc 3cbe bfae c0be 7f74 063f c5aa c43e
00000120: 421d ce3e 32c2 babe 528b 60be 2e70 cebe
00000130: 3507 90bd 96f3 7e3e cdc6 9e3e 0112 893d
00000140: 6f1c c5be 3384 ccbc e54d 903e 7a2f 3abe
00000150: 4925 9d3d 25f8 1abe acfa 883e a76c cbbe
00000160: 92f6 88be 073b afbc a973 bf3d a348 6a3e
00000170: 811a 053e 0525 fc3d 020a 00bf aa63 9abe
00000180: 4758 eebd 282e 37be 2849 b6be 9b22 5abe
00000190: 39a1 babd 0c5d 053e bf79 10bc 5ca0 5fbd
000001a0: b09e 21be 8cf8 e7be d249 9cbe f5ea bebd
000001b0: 4608 00bf 53cd 94be be8b d93e 22c6 28be
000001c0: 785f 153d bc72 b1bd 65c8 a6be eaa2 7dbc
000001d0: 5ba7 60bc 6254 49be 3461 a13d 3fc5 a13d
000001e0: 1933 a13d ddcb 143e 4512 1ebd 0167 8fbe
000001f0: 95ff a9be 3d9d 693e c2c6 803d 2177 62bd
00000200: 208f d1bd 53a9 8dbe 1829 61be 8f5a d33e
00000210: 9b0f 05bf 7234 8e3c 5e97 de3c d514 9d3d
00000220: ee19 b7be b162 40be eca7 5dbd e73c 85be
00000230: a0d3 973e e207 2bbe 8291 b13e 9bd2 b6be
00000240: 0975 4b3d c0ea dabc 6e1d b93d 9427 c33e
00000250: ad1d 0b3f 71bb ffbe 0069 20bd b8df 783c
00000260: a7c9 263d 8282 943b ab30 f43e 4e01 f93c
00000270: 278a 4f3d fa6b 843d 9f63 b6bd 6928 3d3e
00000280: 13fe 0c3f bb6a 9e3e 94b7 cfbe 1e74 03bf
00000290: 8274 abbe dd62 733e d758 c7be 4b4e 2d3d
000002a0: fe9d 893e 5f43 223d af78 a8be e912 a5bd
000002b0: 13d8 ca3e 97f9 043d 6c19 c2bd 105b 25be
000002c0: c608 bdbe 8ee5 4abc 1a83 cb3e cff9 08bf
000002d0: 5d14 00be 044d 303d ed00 2cbe 475a dd3d
000002e0: 90e5 953e 0057 5e3e 90d0 643e 1b2e 3e3e
000002f0: 9ea4 01bd 1bfa 7a3e 9536 0bbe 3064 45be
00000300: f138 293e c781 3b3f b67f 173e a69c b73d
00000310: a5c3 dcbe cd91 52be 272d e7be 6c49 b13e
00000320: 574e 03bf ec07 9bbe 2f91 f23e 1283 a33e
00000330: a87c fabd 3e4b 95bd 0d78 bfbe f788 88bd
00000340: 764d 77bd dff2 10bd f8c7 093e ed31 b63c
00000350: fa71 0abe bb0d e2bd c641 84bd c6c3 f13e
00000360: ab62 413e 66ad 6abe 6059 d83d c968 253b
00000370: 6dd3 48bd 324d f13e 2397 e63d f028 5f3e
00000380: 248c 09bf 1535 023d c688 21bd 223b 8e3d
00000390: 230f 3a3d 8bc6 b0bd 9822 15bf ab64 d63c
000003a0: b5e8 8fbe 10e3 1e3f 71c6 13be 39d3 2cbe
000003b0: 3373 733e 78d1 113d f199 dcbd c307 5abe
000003c0: 8ed5 963d b072 f43d cac8 7fbe fd24 b3be
000003d0: eb73 60be 2fd2 b9be e628 bcbd c691 323d
000003e0: bc61 95be 6d50 363e 72cb 9cbe 5883 65bd
000003f0: 9b63 80be bdd6 c6bd 06af bbbd 1362 81be

grud_cell.weight_r f4 [17, 34]
-0.19870879 -0.12528364 0.12163373 -0.46748435 0.06315708 0.25518182 0.093204014 0.35685056
-0.4557398 -0.08266732 -0.030923037 0.18742801 0.15113238 0.27538973 -0.2528133 0.06975218
-0.08892158 0.07498568 0.13751219 0.035388477 0.080667846 -0.120271444 -0.4053066 0.47202528
0.018999845 0.18403804 -0.20198141 -0.5464086 -0.27999026 0.33524272 0.05326705 0.003243393
0.4303287 0.037637673 -0.14362283 0.28783467 0.06590673 -0.085913025 0.04599479 -0.2546503
-0.096712194 0.56695426 -0.34799314 -0.094626784 -0.27252343 -0.052329842 -0.09639262 -0.12284768
-0.08883535 0.15539522 -0.32146734 0.30484775 0.13979909 0.09066421 -0.21696852 -0.06064327
-0.47647592 0.11502546 0.065007664 0.13838373 -0.5230521 -0.4409373 -0.031643342 -0.049722794
-0.035218406 -0.03571278 0.02735747 0.21867242 0.08958776 0.004003979 -0.06347731 -0.21836922
0.22956374 -0.16823047 0.27902567 0.11597795 -0.08984154 0.13357762 -0.07324639 -0.091493815
0.043346006 0.18040717 -0.24364963 0.114877015 -0.25912845 0.4985995 0.31841487 0.35418305
-0.0013898624 -0.12976663 -0.10592872 -0.036579937 0.2619305 0.5152917 0.083008245 -0.012462325
-0.4224866 0.6149915 -0.3331643 -0.39954087 -0.106446125 0.22804531 0.21844396 0.09327228
-0.25666782 -0.04421977 -0.16080059 0.22407626 -0.24896777 -0.07908205 -0.42289674 -0.23564146
0.016591934 0.36897054 0.10594787 0.2853021 0.0015715056 0.24165769 0.38039634 0.5683196
0.03265443 0.58907306 0.0015467417 -0.3677724 -0.387842 -0.028328171 0.3333996 -0.053642184
-0.02775263 -0.17656791 -0.3969793 0.38799646 -0.17702575 -0.10754069 0.4569173 -0.06397453
0.3253975 0.279907 0.08875633 -0.41870993 -0.1430597 -0.12658682 0.0043171486 0.2425438
-0.027179297 0.19972867 -0.10932116 0.19900705 0.1549721 -0.30846128 -0.36703256 -0.17026894
0.15835066 -0.07252642 1.4873858e-05 0.4218721 -0.1032484 0.019823993 -0.552128 0.007290082
0.46315035 0.4953159 0.04908985 -0.2154886 0.04274433 0.5895665 -0.4927583 -0.37413386
0.54549617 0.06992647 -0.18707234 0.2112058 0.039932728 -0.03696129 -0.0864144 -0.10317412
0.31886557 -0.11010332 -0.15998933 0.093697734 -0.2596564 0.42613584 -0.18399855 -0.06827897
-0.119308904 -0.20538513 -0.28259423 0.42722943 0.42724368 -0.008110524 -0.52274907 0.04570226
-0.19846253 0.42552108 0.11881363 0.17294851 -0.29018936 -0.3352479 -0.3792749 0.32300436
-0.25010243 -0.3644263 0.34423313 0.22189993 0.013921343 0.13000394 -0.22672215 -0.3299268
0.17091809 0.022266636 -0.11793091 0.5361493 -0.35813776 0.16187076 0.11304363 -0.21191627
0.41430816 -0.5064705 -0.13450083 -0.03760094 -0.11857635 0.6234 0.12248566 0.35922232
-0.62128896 -0.042146843 -0.35677195 0.34023124 0.3359548 0.34582153 -0.29020202 -0.36769804
-0.65259236 0.26795462 -0.114698924 -0.11042205 0.51067734 0.12646124 0.22774671 0.25067925
-0.12644765 0.045385905 0.12771508 0.27308252 -0.13535224 -0.045968067 -0.21127746 -0.049218312
0.147794 -0.15489894 0.14700702 -0.095298514 0.15581605 0.011731686 -0.21434884 0.08653214
00000000: 517a 4bbe 5b4a 00be 1b1b f93d 1c5a efbe
00000010: 8058 813d 31a7 823e bfe1 be3d 1eb5 b63e
00000020: ba56 e9be 7c4d a9bd 4f52 fdbc 21ed 3f3e
00000030: 72c2 1a3e e2ff 8c3e bf70 81be 3bda 8e3d
00000040: 841c b6bd 1892 993d ffcf 0c3e 82f3 103d
00000050: 2f35 a53d e050 f6bd 5984 cfbe 4cad f13e
00000060: 90a5 9b3c 7874 3c3e 37d4 4ebe 6fe1 0bbf
00000070: e25a 8fbe efa4 ab3e 8d2e 5a3d 1b8f 543b
00000080: 0b54 dc3e f629 1a3d dd11 13be 115f 933e
00000090: 1cfa 863d 2bf3 afbd 0865 3c3d 8661 82be
000000a0: 0b11 c6bd ea23 113f 282c b2be b0cb c1bd
000000b0: 3188 8bbe d157 56bd 7e69 c5bd 9097 fbbd
000000c0: 4fef b5bd ed1f 1f3e 5e97 a4be 0115 9c3e
000000d0: 7e27 0f3e 28ae b93d ff2c 5ebe 1465 78bd
000000e0: a7f4 f3be 7892 eb3d bd22 853d 77b4 0d3e
000000f0: bee6 05bf 89c2 e1be 739c 01bd 21aa 4bbd
00000100: 2d41 10bd 9047 12bd c61c e03c aaeb 5f3e
00000110: ca79 b73d cf33 833b 6400 82bd 2e9c 5fbe
00000120: c212 6b3e 9c44 2cbe 74dc 8e3e d985 ed3d
00000130: d7fe b7bd 92c8 083e 3402 96bd 1c61 bbbd
00000140: 958b 313d a8bc 383e 4a7f 79be a444 eb3d
00000150: 7cac 84be 6f48 ff3e 4607 a33e 7b57 b53e
00000160: 0b2c b6ba 8be1 04be 28f1 d8bd d8d4 15bd
00000170: c11b 863e 28ea 033f 3a00 aa3d c82e 4cbc
00000180: 2a50 d8be 1570 1d3f 8394 aabe 9f90 ccbe
00000190: 6d00 dabd b684 693e c6af 5f3e 8a05 bf3d
000001a0: f769 83be ca1f 35bd e9a8 24be 3f74 653e
000001b0: 68f1 7ebe c5f5 a1bd ec85 d8be ff4b 71be
000001c0: cfeb 873c b5e9 bc3e 32fb d83d 1e13 923e
000001d0: fafa cd3a 1d75 773e 4fc3 c23e 657d 113f
000001e0: a7c0 053d 7ecd 163f 0abc ca3a aa4c bcbe
000001f0: 3a93 c6be 7b10 e8bc 5ab3 aa3e e8b7 5bbd
00000200: 7c59 e3bc 38ce 34be df40 cbbe 79a7 c63e
00000210: 3d46 35be 4b3e dcbd 10f1 e93e 1405 83bd
00000220: 809a a63e f84f 8f3e e1c5 b53d 2661 d6be
00000230: 3e7e 12be fa9f 01be de76 8d3b 675d 783e
00000240: 1ea7 debc ac85 4c3e c6e3 dfbd 81c8 4b3e
00000250: 02b1 1e3e a3ee 9dbe b1eb bbbe fb5a 2ebe
00000260: ad26 223e bb88 94bd bc8a 7937 9fff d73e
00000270: e673 d3bd ed65 a23c 4358 0dbf a4e1 ee3b
00000280: 0b22 ed3e 0c9a fd3e 7012 493d 0ba9 5cbe
00000290: ae14 2f3d d5ed 163f d14a fcbe 798e bfbe
000002a0: a3a5 0b3f 9c35 8f3d e48f 3fbe 5546 583e
000002b0: 8090 233d b964 17bd 08fa b0bd f44c d3bd
000002c0: 5942 a33e d97d e1bd 3ed4 23be 99e4 bf3d
000002d0: aff1 84be 7a2e da3e 1e6a 3cbe d8d5 8bbd
000002e0: 3a58 f4bd 7b50 52be 31b0 90be d1bd da3e
000002f0: afbf da3e 01e2 04bc e2d2 05bf 4b32 3b3d
00000300: c339 4bbe e6dd d93e 8f54 f33d 6a19 313e
00000310: b393 94be 9da5 abbe 5230 c2be d460 a53e
00000320: 6d0d 80be 1696 babe 533f b03e bc39 633e
00000330: 5816 643c c11f 053e da29 68be 2aec a8be
00000340: 2705 2f3e 8568 b63c c385 f1bd 1541 093f
00000350: d55d b7be 73c1 253e 6b83 e73d 9400 59be
00000360: 3320 d43e 0da8 01bf 96ba 09be 7103 1abd
00000370: 28d8 f2bd 2497 1f3f c3d9 fa3d fdeb b73e
00000380: cb0c 1fbf 2ba2 2cbd d0aa b6be ca32 ae3e
00000390: 4402 ac3e 850f b13e 5c95 94be eb42 bcbe
000003a0: 4b10 27bf 5931 893e 45e7 eabd f524 e2bd
000003b0: c0bb 023f 0e7f 013e 6f36 693e 0859 803e
000003c0: 7e7b 01be 92e6 393d bec7 023e 79d1 8b3e
000003d0: c799 0abe 0349 3cbd 1e59 58be 2499 49bd
000003e0: 4f57 173e d49d 1ebe 0289 163e de2b c3bd
000003f0: 3e8e 1f3e 4236 403c 437e 5bbe c337 b13d

grud_cell.weight_h_tilde f4 [17, 34]
0.30029625 0.266596 -0.24664973 0.40378755 -0.040843938 0.11450066 0.15212555 0.5187155
-0.49032584 0.14179139 -0.1683209 0.05076544 -0.26578698 -0.043341383 -0.038346805 -0.02772922
0.05555505 0.28075674 0.5382882 0.46701166 -0.025040088 -0.078851625 0.012876591 0.3144931
0.2939165 0.30297235 -0.74557644 -0.44127104 -0.4450791 0.10781715 -0.31525207 -0.33025888
0.2958163 0.4748377 -0.19132288 0.22381121 0.35274205 -0.016901089 -0.26770645 -0.2964606
-0.15187383 -0.19998524 0.03617029 -0.055145502 -0.07600697 -0.16038322 -0.028886097 0.24036682
-0.04657635 -0.3286938 0.0961599 0.23030567 0.43993917 0.4670846 0.11431296 -0.43876287
-0.00711559 0.6382857 0.0893698 0.53838104 -0.22078165 -0.15187813 -0.33948034 0.123087525
-0.5974122 -0.15864313 0.33856866 -0.0038889772 0.08146638 -0.3358717 0.3529403 0.42957464
0.10668418 -0.3049578 0.10437775 -0.028896194 0.1621569 0.02997626 0.26718706 -0.15029837
-0.12875195 0.14303958 0.08893652 0.22438923 -0.036684405 0.2711498 0.29113105 0.1878254
-1.5158349e-05 -0.1806693 -0.5652097 0.3242316 0.13591215 0.29932866 -0.5018356 -0.54296106
-0.5368744 0.2375257 -0.40454498 0.053673826 0.18555263 0.4806052 0.06503753 -0.18521173
0.008013714 0.15501183 -0.078613006 -0.122912906 0.43594065 0.17657308 -0.08912149 0.19303364
-0.075109705 -0.233621 0.15709797 -0.018572394 -0.09825442 0.16648808 -0.2766618 -0.052514456
0.047039542 -0.1111743 0.3261051 0.376963 0.0473475 -0.44754943 -0.34648758 -0.44567066
0.24884996 0.44104883 0.7302728 -0.58898735 0.4359848 0.43306166 0.0428765 -0.07195092
0.37101066 0.0007228307 0.18117045 0.08640355 -0.31130314 -0.18018566 0.0009836215 0.14649767
-0.09959259 0.060033944 -0.08003079 0.03705602 -0.42177168 0.43071768 0.16788061 -0.1315747
-0.012512223 -0.25372973 -0.09584423 0.06720961 0.31395736 0.12911117 0.551269 -0.47045803
-0.37831116 -0.19808495 0.21694225 0.20618096 0.25905067 -0.20001903 0.33968726 0.30205664
-0.50921077 -0.5623884 0.19416974 0.20057988 -0.30813223 -0.09490768 -0.12744002 0.077887
0.40811428 0.12518041 -0.11772893 0.33459947 0.17773555 -0.032087527 0.21311304 -0.021798642
-0.09833198 -0.27894235 -0.06271323 -0.19653998 -0.19528714 -0.47939384 0.060305644 0.32790187
-0.048776567 -0.40321246 -0.32661167 -0.3941942 0.58554244 0.21289647 0.6984114 -0.31160218
0.08582699 0.5261833 -0.21567367 -0.35874668 -0.18566558 0.021560535 -0.26586023 0.19307904
0.1592842 -0.22627604 -0.18467262 -0.07651257 0.10443079 0.15826891 0.020274326 0.3817136
-0.12303454 -0.3169674 0.0645088 0.0641702 0.29164413 0.27719355 0.4881927 0.4952452
0.015155732 -0.5448499 -6.513063e-05 0.04960951 0.60805184 0.20829707 -0.7358657 -0.07502555
-0.5483491 -0.02333376 -0.41812596 -0.23725753 0.5398927 0.15299784 0.121423446 -0.05257138
-0.007691209 0.23486559 -0.2444432 -0.3016747 -0.1388843 -0.35562924 -0.13460626 -0.023503624
-0.18924579 -0.055310175 -0.15195245 0.050195597 -0.1750066 -0.029087728 -0.05743863 0.35657054
00000000: 6ec0 993e 457f 883e bf91 7cbe 3ebd ce3e
00000010: f94b 27bd 527f ea3d cdc6 1b3e 8aca 043f
00000020: fd0b fbbe c331 113e 505c 2cbe 6cef 4f3d
00000030: 3b15 88be bc86 31bd 8a11 1dbd 6428 e3bc
00000040: b18d 633d 59bf 8f3e 41cd 093f 271c ef3e
00000050: df20 cdbc f67c a1bd 56f8 523c 3d05 a13e
00000060: 397c 963e 311f 9b3e 19de 3ebf 47ee e1be
00000070: 68e1 e3be 3dcf dc3d b868 a1be b117 a9be
00000080: 3c75 973e ed1d f33e 25ea 43be c42e 653e
00000090: 9b9a b43e 2774 8abc d210 89be afc9 97be
000000a0: d084 1bbe eec8 4cbe 4c27 143d 40e0 61bd
000000b0: 8ba9 9bbd 803b 24be 89a2 ecbc b822 763e
000000c0: d8c6 3ebd 8e4a a8be 7bef c43d 40d5 6b3e
000000d0: b53f e13e b625 ef3e ea1c ea3d 87a5 e0be
000000e0: e529 e9bb b166 233f 8407 b73d 57d3 093f
000000f0: 9614 62be f185 1bbe 5ed0 adbe 5015 fc3d
00000100: 02f0 18bf 5873 22be df58 ad3e 36de 7ebb
00000110: d8d7 a63d 60f7 abbe 97b4 b43e 35f1 db3e
00000120: 3c7d da3d 6e23 9cbe 00c4 d53d b6b7 ecbc
00000130: 750c 263e c690 f53c becc 883e d1e7 19be
00000140: 8dd7 03be f878 123e 5a24 b63d 4ac6 653e
00000150: 6342 16bd 26d4 8a3e 210f 953e 4d55 403e
00000160: 9d50 7eb7 5f01 39be 95b1 10bf af01 a63e
00000170: 8e2c 0b3e 9b41 993e 4c78 00bf 7fff 0abf
00000180: 9a70 09bf f039 733e 8520 cfbe 16d9 5b3d
00000190: 8201 3e3e e311 f63e 6632 853d 25a8 3dbe
000001a0: f44b 033c 6cbb 1e3e dbff a0bd c3b9 fbbd
000001b0: 9d33 df3e 93cf 343e 5485 b6bd 9caa 453e
000001c0: 1ed3 99bd 583a 6fbe 4ade 203e 2225 98bc
000001d0: 9d39 c9bd da7b 2a3e 9ea6 8dbe 6619 57bd
000001e0: 89ac 403d 5aaf e3bd 3ff7 a63e 4b01 c13e
000001f0: 74ef 413d 3325 e5be d266 b1be f22e e4be
00000200: 86d2 7e3e 27d1 e13e 29f3 3a3f e0c7 16bf
00000210: 6639 df3e 42ba dd3e 459f 2f3d 015b 93bd
00000220: 1cf5 bd3e 597c 3d3a bf84 393e 58f4 b03d
00000230: 2063 9fbe 9782 38be dcec 803a 7c03 163e
00000240: 33f7 cbbd 27e6 753d 2fe7 a3bd 0ec8 173d
00000250: 75f2 d7be 0787 dc3e e5e8 2b3e 85bb 06be
00000260: 1100 4dbc dde8 81be fb49 c4bd 31a5 893d
00000270: 05bf a03e b835 043e f71f 0d3f e0df f0be
00000280: 00b2 c1be c8d6 4abe 1c26 5e3e 1a21 533e
00000290: 4aa2 843e cad1 4cbe 7deb ad3e 2ba7 9a3e
000002a0: a35b 02bf b0f8 0fbf 6fd4 463e d064 4d3e
000002b0: 82c3 9dbe f55e c2bd a37f 02be 3883 9f3d
000002c0: 5bf4 d03e 4b2f 003e de1b f1bd 9f50 ab3e
000002d0: 4f00 363e 366e 03bd 4e3a 5a3e 1193 b2bc
000002e0: 4762 c9bd 88d1 8ebe cb6f 80bd c741 49be
000002f0: 5af9 47be 1c73 f5be 0d03 773d c1e2 a73e
00000300: f0c9 47bd dd71 cebe a539 a7be d2d3 c9be
00000310: 1ce6 153f 8801 5a3e 17cb 323f 528a 9fbe
00000320: 10c6 af3d f3b3 063f 8fd9 5cbe a5ad b7be
00000330: 1e1f 3ebe b89f b03c d51e 88be 83b6 453e
00000340: 661b 233e e8b4 67be d21a 3dbe 9fb2 9cbd
00000350: cfdf d53d 3f11 223e 5816 a63c f76f c33e
00000360: 88f9 fbbd 8d49 a2be 311d 843d aa6b 833d
00000370: 6152 953e 50ec 8d3e 65f4 f93e c790 fd3e
00000380: bf4f 783c 487b 0bbf be96 88b8 5733 4b3d
00000390: 49a9 1b3f d44b 553e b261 3cbf ffa6 99bd
000003a0: 9b60 0cbf 7126 bfbc 9b14 d6be a3f3 72be
000003b0: 6836 0a3f 77ab 1c3e dbac f83d 1655 57bd
000003c0: 8a06 fcbb 9b80 703e 514f 7abe 1b75 9abe
000003d0: b037 0ebe 0915 b6be 39d6 09be ac8a c0bc
000003e0: a6c9 41be ec8c 62bd 6c99 1bbe e699 4d3d
000003f0: ee34 33be 6349 eebc c544 6bbd 6a90 b63e

grud_cell.weight_gamma_x f4 [17]
0.59816337 0.60017043 0.6382568 0.41855168 0.2136441 0.8397664 0.5594281 0.7627886
0.3883524 0.71751046 0.9055554 0.83589727 0.68168414 0.932873 0.4660698 0.6213583
0.97590655
00000000: 3c21 193f c5a4 193f cc64 233f 684c d63e
00000010: 85c5 5a3e eefa 563f ae36 0f3f 1d46 433f
00000020: 20d6 c63e c4ae 373f 7bd2 673f 5dfd 553f
00000030: da82 2e3f c4d0 6e3f b3a0 ee3e 5611 1f3f
00000040: 03d5 793f

grud_cell.weight_gamma_h f4 [17]
0.89230853 0.13160866 0.88711685 0.6039379 0.34341997 0.8768116 -0.018410444 0.76588327
0.9470182 -0.0056037903 0.11856689 -0.0042583793 0.21985236 0.007967678 0.25430554 0.649234
0.78527087
00000000: 556e 643f 6cc4 063e 171a 633f ad9b 1a3f
00000010: bed4 af3e ba76 603f 80d1 96bc ed10 443f
00000020: c96f 723f 00a0 b7bb 33d3 f23d e089 8bbb
00000030: fa20 613e dd8a 023c 5634 823e 3334 263f
00000040: 8307 493f

grud_cell.bias f4 [17]
0.39252168 0.36197826 0.3964629 -0.35363567 -0.33336815 -0.36359942 0.33556467 0.39219296
0.3920225 -0.29893076 -0.2878272 -0.28901038 0.34914762 -0.2917875 -0.26915452 0.4400888
0.45834535
00000000: 9af8 c83e 3755 b93e 2ffd ca3e bc0f b5be
00000010: 3baf aabe b429 babe 22cf ab3e 84cd c83e
00000020: 2cb7 c83e 740d 99be 165e 93be 2bf9 93be
00000030: 7ac3 b23e 2c65 95be 9fce 89be 5253 e13e
00000040: 3eac ea3e

fc.weight f4 [6, 17]
0.42099714 0.38451734 0.3898569 -0.38453865 -0.44427904 -0.27704385 0.4945012 0.32169363
0.24482428 -0.4391283 -0.37127322 -0.5046274 0.49782902 -0.32136446 -0.49166065 0.2927513
0.2854163 -0.3034954 -0.16138461 -0.1470997 -0.002671498 0.057752464 0.2622856 -0.4602322
-0.51152426 -0.044938706 0.23880562 0.12454569 0.21829937 -0.48005885 0.46327573 0.21557957
-0.3814594 -0.4457434 -0.13065766 -0.26536563 -0.30183092 0.16556096 0.11772183 0.31367
-0.068509795 -0.4414546 -0.24011594 0.07533243 0.12805514 0.5179424 -0.29289064 0.48994198
0.22307137 -0.38529807 -0.38572317 -0.058651138 -0.40701976 -0.15279877 0.26789418 0.3014871
0.41546318 -0.32529405 -0.15689324 -0.44897848 0.18895164 0.41464782 0.38977632 -0.33459213
0.21748817 0.11820791 -0.12497329 -0.24711446 -0.29110545 -0.19115978 -0.10565854 0.10684794
0.1656147 0.4481082 -0.11508653 -0.41578534 -0.4995224 0.30510166 0.37240142 0.36682126
-0.1257701 0.090377174 0.3965572 -0.39810285 -0.13624449 -0.13027045 -0.20365252 -0.11641576
0.0994991 0.066854626 0.07477102 -0.14662787 -0.24340706 -0.46513903 0.41801664 0.49124992
0.098230824 -0.14265612 0.34193704 0.324126 -0.0785722 -0.08455655
00000000: f08c d73e 75df c43e 539b c73e 40e2 c4be
00000010: 8b78 e3be b1d8 8dbe 432f fd3e 07b5 a43e
00000020: 37b3 7a3e 6dd5 e0be 8617 bebe 432f 01bf
00000030: 72e3 fe3e e289 a4be f2ba fbbe 80e3 953e
00000040: 1622 923e c063 9bbe 0242 25be 4ea1 16be
00000050: 4d14 2fbb d98d 6c3d 4c4a 863e 8ea3 ebbe
00000060: 41f3 02bf a611 38bd 7689 743e d011 ff3d
00000070: df89 5f3e 46ca f5be 7a32 ed3e e4c0 5c3e
00000080: a54e c3be 7b38 e4be 1fcb 05be 01de 87be
00000090: 9589 9abe d088 293e 2518 f13d 5b99 a03e
000000a0: dd4e 8cbd 5606 e2be f4e0 75be e447 9a3d
000000b0: e320 033e e097 043f c3f5 95be add9 fa3e
000000c0: d26c 643e ca45 c5be 827d c5be 2d3c 70bd
000000d0: e564 d0be 4877 1cbe 6d29 893e 845c 9a3e
000000e0: 97b7 d43e f18c a6be 9fa8 20be 82e0 e5be
000000f0: 8a7c 413e b84c d43e c390 c73e a94f abbe
00000100: 38b5 5e3e fd16 f23d fff1 ffbd 930b 7dbe
00000110: c60b 95be 64bf 43be 8163 d8bd 18d3 da3d
00000120: e696 293e 706e e53e 7db2 ebbd d1e1 d4be
00000130: 66c1 ffbe 4936 9c3e 66ab be3e ffcf bb3e
00000140: e1c9 00be ab17 b93d 8c09 cb3e 23d4 cbbe
00000150: ad83 0bbe 9e65 05be 498a 50be 636b eebd
00000160: 2fc6 cb3d 14eb 883d 8c21 993d 9e25 16be
00000170: b33f 79be b426 eebe 4706 d63e 1c85 fb3e
00000180: 3e2d c93d 7214 12be 5f12 af3e d8f3 a53e
00000190: 76ea a0bd fc2b adbd

fc.bias f4 [6]
0.32234064 -0.020321315 -0.11116956 -0.17626725 -0.4300221 -0.19611445
00000000: d509 a53e e378 a6bc deac e3bd 677f 34be
00000010: db2b dcbe 3ad2 48be
