models/model_42_20230622-181251.pt (torch, 10489 bytes, 8 tensors)

grud_cell.weight_z f4 [17, 34]
00000000: 69e0 fd3e af4e 733e 9e2d 39bf b289 2a3f
00000010: 1d5b 933e 4a9f 0b3d fa45 db3e 4431 c63e
00000020: 520a 773e 30c0 56be 052b 973e 3c73 8bbe
00000030: c100 913e e317 653d 64eb f1be a8c7 a9bd
00000040: b928 9a3e be74 17be 6dbe 29be 6d64 4a3e
00000050: 4b3a 8ebe 136b cdbe e507 1abe 329f dbbe
00000060: 8e1b a0be 566b 8a3d e3b2 8ebe 4086 d2bd
00000070: 3874 26bd 2948 ccbe f790 2a3e fb9d cfbe
00000080: 7d5e 3e3d 6d01 773e 8c3c 81be cb71 013f
00000090: 6ab7 113f f43b ee3d a45d 55be bd83 c9be
000000a0: 8cc4 dabe 506f 003e 4363 253f 3749 bd3d
000000b0: 1ea5 7f3c b0de 8abe 0a9b 423d 9a41 193e
000000c0: c5bd c4be 702e a03d 0adb 203e 3db0 85be
000000d0: 635f 41bf bfa2 103f 5594 4e3e 8d74 b83e
000000e0: c98f a93e de2b 27bf 5ed1 ddbd c270 4a3e
000000f0: d178 0dbf 513d e1be 707d adbc 50ce 203d
00000100: 96a0 f93e 9bf5 04be 125c 4b3e 2667 5dbe
00000110: 3cb4 62bf c3fd bbbe 074f 13be 2289 e53e
00000120: 7846 8f3e c718 1bbf 1d03 7cbf d210 03bf
00000130: 9715 b5be c34b 543e 6a8c 1fbe 4b2d c73d
00000140: f4a9 4cbe 2c6c 84be d6bc 1e3d 0df2 bc3d
00000150: ea8f 043e 98af 8bbe d791 603e df3b 17be
00000160: bcf4 98be 3ef3 863e 2b64 2abe 1021 c9be
00000170: 09f6 04bf 90af 643f 055d 31bf e1ef 0fbf
00000180: 8e8c c63d 8837 27bd 19e6 20be b481 c4be
00000190: a5e5 2dbe 33a4 663d f9ea 1bbe 56d5 0bbe
000001a0: d6b2 03bf 51a4 bfbd 6f57 d3bd e908 d3be
000001b0: afe5 d4be 624b ea3d 99ff 753e a29a 92be
000001c0: f2e6 b13e 5bde 3fbe b77a 01bf 3f9b 873e
000001d0: 4cd6 d0bd a31e 81be cbc3 c9bd 895f 723d
000001e0: 7e40 8f3c b7f7 f0be 0e05 213d ca38 f8be
000001f0: b35a 5dbe f3ae 443b a41a ea3d 7234 ddbe
00000200: 0c6e 3a3f c0d1 943e 94bc 0b3f 2437 0c3e
00000210: f608 f2bd 76d0 e93e 7361 4e3e 9fa9 19bf
00000220: e42d f9bc 0ccc 99bd c9f2 8a3d 16fb 38be
00000230: 976d 413d a10d 773e 97a5 983e a688 25be
00000240: 1ee1 0abe 963f 80be 987a ab3e 2ec5 933e
00000250: 3ea5 353e 55cc 01be d253 dfbe f1d6 113f
00000260: 604e 8c3e 3a3f 75bf 23c5 99be a55e eabd
00000270: 125c bf3d bb07 1c3f 849e 3c3f ad48 24bf
00000280: 5b2c 893d 7842 443e 0cdf 5e3d 3d95 7bbe
00000290: 77b8 083e 9ade 86bd c310 7cbe 096a b23d
000002a0: a04b d6be 82b2 b3be 706e dabd 8550 833c
000002b0: fd64 f53e 8646 bcbe ed6f 4fbd a668 783e
000002c0: eea4 d9be 6ef9 123f 3f64 2f3f b423 07bf
000002d0: c94d 883d 2f82 f5ba 6a84 debd f89b 963e
000002e0: 2bd4 8e3e a047 133f 8dba 1c3f a13e 893e
000002f0: 7f41 d4be 0edf 12be 3744 39be 4405 873d
00000300: cbe2 1d3f dd1e ba3e 3272 16bf b83e 2e3e
00000310: e17e cbbe d1e2 a2be c6bb a53e 77e3 683e
00000320: e157 04bf 1fa9 51bf fbfe b93f ec52 2ebe
00000330: ecc9 27be 31ae 873e 4796 5b3d 83f2 fabd
00000340: 69bf 1cbe 1473 423e 1deb 3ebe 6673 7f3d
00000350: c94b 4dbe 0582 ba3d 2be9 02bf c348 863e
00000360: a576 3a3e 86ff 67be 2f96 8b3e 3f72 8b3e
00000370: 2863 093e 72f0 853e 3601 5cbd e7b4 09bf
00000380: bd5f 15bf becf 213e 493e d43d 707e 9e3e
00000390: 9bf2 4d3e c337 7cbd 49f9 1cbe a38f 1b3f
000003a0: 9566 0e3f 7b44 c6be 9d31 ff3e 1180 e7bc
000003b0: 4b57 6d3e 1dca 1bbf ef1d 8bbd 3212 05be
000003c0: 0aa2 ab3e a2ad cabd 3f57 0cbf ea4d 15bf
000003d0: 4710 7bbf 75f9 08bf eb59 edbd 202f 8e3d
000003e0: 7f95 c3be af5d 773e 726a 64be aada 5cbe
000003f0: c058 34bd 0060 d3bc 426f dcbe e6df 2ebf
0.49585274 0.23760484 -0.7233523 0.66616356 0.2878045 0.034087457 0.42826825 0.38709462
0.2412503 -0.20971751 0.2952501 -0.27236354 0.28320888 0.055930983 -0.472499 -0.082900345
0.30109194 -0.14790627 -0.16576548 0.19764872 -0.2777885 -0.40120754 -0.15042074 -0.42894894
-0.31271023 0.06758754 -0.27870855 -0.102795124 -0.04063818 -0.39898804 0.16656862 -0.40550217
0.04647683 0.24121638 -0.25241506 0.5056426 0.5692049 0.11632529 -0.20836502 -0.3935832
-0.42728078 0.12542462 0.64604586 0.0924248 0.015603332 -0.27123022 0.047511138 0.14966431
-0.38426033 0.07821357 0.15708557 -0.26111022 -0.75536174 0.5649833 0.20173772 0.3602642
0.33117512 -0.6530131 -0.10830949 0.19769576 -0.55262476 -0.43992093 -0.021177977 0.039259255
0.4875533 -0.12984316 0.19859341 -0.2162138 -0.88556266 -0.36717042 -0.14385615 0.44831187
0.2798345 -0.6058468 -0.9844225 -0.5119754 -0.35368034 0.20732026 -0.15580907 0.09725436
-0.19986707 -0.2586378 0.038754307 0.09225855 0.12945524 -0.27282405 0.21930633 -0.14768933
-0.29874218 0.26357454 -0.16639774 -0.39283037 -0.5193792 0.8933039 -0.6928256 -0.562254
0.096947774 -0.040824443 -0.15712775 -0.38380206 -0.16982134 0.056308936 -0.15226354 -0.136556
-0.51444757 -0.09357513 -0.10319411 -0.41217735 -0.41581485 0.114401594 0.24023284 -0.286336
0.3474651 -0.18737166 -0.50577873 0.2648563 -0.10197124 -0.25218686 -0.09851798 0.05917314
0.017486807 -0.4706399 0.03931146 -0.48480827 -0.2161663 0.0030011504 0.114308625 -0.43204075
0.7282417 0.29066277 0.5458462 0.1369291 -0.118181154 0.45666856 0.20154361 -0.60024446
-0.03041739 -0.07509622 0.06784589 -0.18064532 0.047223654 0.24126293 0.29813835 -0.16165408
-0.13562438 -0.25048512 0.3349197 0.28861374 0.17738816 -0.12675603 -0.43618637 0.569686
0.27403545 -0.957996 -0.30033216 -0.11443833 0.09343733 0.60949296 0.73679376 -0.64173394
0.06697913 0.19165981 0.054411933 -0.24568649 0.13351618 -0.06585427 -0.24615769 0.08711631
-0.41854572 -0.35097128 -0.106655955 0.016029606 0.4792861 -0.36772555 -0.05064385 0.2425867
-0.42508644 0.5741185 0.6851234 -0.52788854 0.06655461 -0.0018730814 -0.108651 0.2941587
0.27896246 0.57531166 0.61222154 0.26805595 -0.4145622 -0.14342901 -0.18092428 0.06592801
0.61674184 0.36351672 -0.58768 0.17016113 -0.39745238 -0.31813672 0.32369822 0.22743021
-0.5169659 -0.81898683 1.4530939 -0.1702382 -0.16385621 0.26500085 0.053610113 -0.12253287
-0.15307392 0.18989211 -0.18644376 0.062365912 -0.20048441 0.091068305 -0.51137036 0.26227388
0.18209322 -0.22656068 0.27263018 0.272356 0.13416731 0.26160008 -0.053712092 -0.5379166
-0.5834921 0.15801904 0.103634425 0.3095584 0.20112078 -0.061576616 -0.1532947 0.6076605
0.5562528 -0.3872412 0.4984254 -0.028259309 0.23177831 -0.60855275 -0.06792819 -0.12995222
0.33522063 -0.09896399 -0.54820627 -0.5832201 -0.9807171 -0.5350564 -0.11589416 0.06942582
-0.38199994 0.24156831 -0.2230623 -0.21567789 -0.04402995 -0.025802612 -0.43053633 -0.6831039

grud_cell.weight_r f4 [17, 34]
00000000: 3799 d9bd a7dc 683e 3cad c2bd 39fb 68be
00000010: d268 063e add8 14be 33d7 a1be 1e7e ac3e
00000020: 90f0 a0be 6e91 cb3e 6505 363b a67b d23e
00000030: 614c 253e feb3 993e 4467 0cbe 4de7 ef3d
00000040: f627 01bf 265d 3bbe b9a4 c33d 55f3 2cbe
00000050: e47c 583e 37de 14bc b2ca 9cbe 6e82 1b3f
00000060: 7667 87bd c9db 5abe 99d1 123f 11e5 7dbe
00000070: c7ac 92be 170c 04be 031a 313e cb60 b33e
00000080: 2f10 9e3e 7cbd 91be 1c4b 59be 0577 4abd
00000090: 0fe6 36be b0ea e73e 5f1b 4d3e 6bc8 903e
000000a0: 3575 b53d e037 263f 98a4 8b3e fe75 47bd
000000b0: 3e9d ffbd bc0b 183e 9635 81bd 8535 693b
000000c0: e7fc 6b3e 4a31 7a3c 83c0 31be a87d 6a3e
000000d0: a569 66be 5a05 adbd bbaf babb 52ae f6bd
000000e0: 22c1 0abf 4643 733e 2adb aabe 1626 25bd
000000f0: 3f4e 92be 4ba9 26be 07e2 babd a0e4 b5be
00000100: 4fbc 603e 6ee7 e53e c49f a7be 30d4 3f3d
00000110: ea44 6ebd 4ad3 01bf 552d 333d f616 b2be
00000120: 0f2a bc3d d109 2abe 9813 c13e 9b48 f7bd
00000130: 66a8 d73e 22b7 2d3f 5c45 0a3d d766 92be
00000140: d9e8 73bd f9a3 d83e de70 6ebe 7f24 54be
00000150: e5f2 a3be 76b0 c03e c833 223d a71c 343e
00000160: cbd3 fa3e 8610 35be 4953 61be 7433 d2bd
00000170: 0144 1e3e 5aef 7d3d 5e34 593e 6f33 593e
00000180: 971e c0be 002c 8d3e 4983 eabc 55eb 0a3e
00000190: f15a 63be 1f4a 89bd 865e a23e 25f0 bcbd
000001a0: e744 ecbe 97d4 063e 0849 a43e 06b1 5b3d
000001b0: c795 233f 8f4d c1be 9abc 62be 822c 6abe
000001c0: bb93 f83e eb6f 1b3f 0f94 0d3d e2e6 113d
000001d0: 293b c1bd 3a78 cf3d d584 493e 8e2c af3e
000001e0: 3f48 82be c795 b23e 03c6 f23d c79b b5be
000001f0: bfad b6bd 70a2 50be b5b2 85be ae54 37be
00000200: 55f1 823d 0e70 1ebe 0458 b5be 4de7 ab3e
00000210: 3b79 1cbe 1f4b 7e3e c637 a03e 3185 a9be
00000220: c903 25bd d116 d23e 8f97 b33d a5f4 9cbe
00000230: 5ddb 2bbe ea20 64bd f180 bbbe 3459 293e
00000240: 4e6d 773e 5582 cb3e b357 84be 6711 443f
00000250: 4475 a5be 73cc c3bd 3d80 183e 1a43 26bd
00000260: 9ab8 ffbc d0bb 00be 228c ddbe b9b0 9e3e
00000270: 73f3 51bd 9e6c dd3e af13 f9be 01b6 19bd
00000280: 4d98 c63d 0054 cd3e 79a1 e83e e38d 28be
00000290: 9e63 923d 8f4a bf3e 162d 96be a8cb 313e
000002a0: caf7 4cbc c5fd 17be 23e8 8e3d 7e26 da3e
000002b0: 2e8f 6fbe 488a 923d 463c 9d3d cf2f 6ebd
000002c0: 2c9a 1f3f 63b9 9c3d ad30 e8bd c01b 4d3e
000002d0: 471b 9ebc 541e 023f 8868 5cbe b187 4ebe
000002e0: f109 7abe fed7 f73c ca63 38be a668 263f
000002f0: a049 2c3e db76 7fbe cecc 06be ecbf d13d
00000300: f15e 5c3e 6956 d23e 3aa2 13be a11c eebe
00000310: a2df 8b3e c6b9 fa3d b4e5 cbbe fcdd 10be
00000320: 51ba 123e 735c 683d 574a 9e3e d225 11bb
00000330: e0d4 fcbd b108 a53e f0b9 cbbd 187c a2be
00000340: 2266 203f 8508 af3e 4de6 2bbe ab8a e83e
00000350: ce8c c2be 9187 9a3e e26e e63d 0974 debe
00000360: 3e2d 8c3e 02f1 25bf 7756 563e 128f 28bc
00000370: 120a 6ebe 0f88 0d3f 5e0e 943e 428f 7c3e
00000380: 41d7 f0be cdf4 513d e8c7 7cbe 1b55 1cbe
00000390: 6084 81bd 0e3e 68bd 5ef9 873e 1cba 4ebe
000003a0: 784a b4be 8034 243e c299 73be 3fe7 61be
000003b0: 267d 903e 7eb0 493d e313 043f 895c 2e3e
000003c0: 7627 7b3d a493 b1bd 3530 4f3f 5dbd 813e
000003d0: cb19 ee3a 461f 8dbe 7d36 6c3e 39de 70be
000003e0: 2191 8f3e ccdf d6be ea16 393d 0c29 313e
000003f0: 2696 b43e 0700 4fbc d323 d5bd d9f0 a9be
-0.106249265 0.22740422 -0.09505698 -0.22752084 0.13125923 -0.1453578 -0.31609496 0.3368997
-0.31433535 0.39759392 0.0027774211 0.4110996 0.16142417 0.30020136 -0.13711268 0.11714039
-0.504516 -0.18297252 0.09552903 -0.16889699 0.21141392 -0.009086183 -0.30623394 0.60745895
-0.066115305 -0.21372904 0.5735107 -0.24794413 -0.28647444 -0.12895237 0.17295079 0.35034785
0.30871722 -0.28464878 -0.21220058 -0.049429912 -0.17861198 0.4529624 0.20029972 0.28277907
0.08860246 0.6492901 0.27274013 -0.04869651 -0.124811634 0.14848226 -0.06309049 0.0035584879
0.23045693 0.0152705405 -0.17358594 0.22899497 -0.22501238 -0.08448286 -0.0056972182 -0.12044968
-0.5420095 0.23756132 -0.33370334 -0.040319525 -0.28575322 -0.16275518 -0.091251425 -0.3552599
0.21946834 0.4490313 -0.3273908 0.046833217 -0.05817119 -0.50713027 0.043744404 -0.34783143
0.091877095 -0.16605307 0.3771026 -0.12074395 0.42120665 0.67857563 0.033757553 -0.28594086
-0.059548233 0.423126 -0.23285243 -0.20717047 -0.3202125 0.3763463 0.039600164 0.17589055
0.4898971 -0.17682084 -0.22004427 -0.1026372 0.15455629 0.06199584 0.21211383 0.21211027
-0.37523338 0.27572632 -0.028627055 0.13566335 -0.2220266 -0.067035906 0.3171274 -0.092254914
-0.46146318 0.13167034 0.32086968 0.05363562 0.6390042 -0.37754485 -0.22142258 -0.22868541
0.4855021 0.6071765 0.034565028 0.035620578 -0.09435112 0.10130353 0.19679578 0.3421368
-0.25445744 0.34879896 0.11854174 -0.3547041 -0.08919858 -0.20374465 -0.26112905 -0.17903396
0.06393687 -0.15472433 -0.35418713 0.33574906 -0.15280621 0.24833344 0.31292552 -0.3310943
-0.040286813 0.41033033 0.08769142 -0.306554 -0.16782899 -0.05569545 -0.36621812 0.16537935
0.2416279 0.39747873 -0.2584816 0.76589054 -0.3231603 -0.0956048 0.14892669 -0.040591337
-0.031215955 -0.12571645 -0.43270975 0.30994204 -0.051257562 0.4324693 -0.4864783 -0.037527088
0.09697018 0.4010315 0.45435694 -0.16460375 0.07147907 0.3736157 -0.29331273 0.17362845
-0.012510249 -0.14842899 0.0697787 0.42607492 -0.23394462 0.07155281 0.07677512 -0.058151063
0.6234462 0.07652547 -0.11337409 0.20030117 -0.019300116 0.5082753 -0.2152425 -0.2016895
-0.24417855 0.03025436 -0.18006817 0.6500343 0.1682496 -0.24947684 -0.13164064 0.10241684
0.21520592 0.4108155 -0.14417353 -0.46506217 0.27319056 0.12242465 -0.39823687 -0.1414718
0.14328887 0.05672879 0.30916092 -0.0022147787 -0.1234529 0.32233194 -0.09947574 -0.317353
0.6265584 0.34186187 -0.16787072 0.45418295 -0.3799805 0.30181554 0.11251618 -0.43447903
0.27378267 -0.64820874 0.20931421 -0.010288017 -0.23246029 0.55285734 0.2891721 0.24664024
-0.47039226 0.05125885 -0.24685633 -0.1526684 -0.06324077 -0.056699805 0.2655744 -0.20188183
-0.35213065 0.16035652 -0.23789123 -0.2206087 0.2822048 0.04924058 0.51592845 0.17027487
0.06131693 -0.08670738 0.80932933 0.25339785 0.0018165646 -0.27562922 0.2306766 -0.23522271
0.28040412 -0.41967618 0.04518787 0.17300814 0.35270804 -0.012634284 -0.104072236 -0.33191565

grud_cell.weight_h_tilde f4 [17, 34]
00000000: 1c4a 303f b744 2f3e a263 80be db89 2ebd
00000010: 694b 82bd e3b5 433e 5670 7c3e 0332 363e
00000020: 9f2b 17bf 7453 ac3e ec80 46be 72db 553e
00000030: a1b5 80be 557a 03bd ee88 1c3d a1fc 44be
00000040: 169b a03e 65ef 543f d2c0 053f 7008 843e
00000050: 4d76 ddbc 08dc 45be 5b3e 11bc 474c 043f
00000060: eedc 463e a3c9 fd3d 769f 02bf 518d 12bf
00000070: 9127 c7bc 65e9 82bd f7ee 1fbd f6ad d9bd
00000080: fef9 283f 631b d83d fb59 b1be a1f6 c53e
00000090: 77ff 963e ad77 953e 9ed8 43be c9a5 a6be
000000a0: 0a34 1ebd 821b c6bd 42dd 8abd acfd a8be
000000b0: 5f83 13be 6058 4cbe 60e4 ecbc 27ae dd3d
000000c0: ad64 cebd 3b26 0bbe c672 5d3e 9893 d03d
000000d0: b524 1c3f aa4d ea3e 9264 90bd b503 1fbf
000000e0: d5ac 8ebe 025b f33e 4c76 30be aacb b83e
000000f0: c226 603e dd45 41be f447 2fbe 7b49 443e
00000100: b289 1abf ef4d a5be 54b8 d03e 023e 54be
00000110: 309e 6e3e 0910 86be 0caf d03e bab6 2d3e
00000120: 5465 f83c ff98 19be 170b 0bbe b052 0e3d
00000130: d385 523e c00a a53d 08a9 a13e a1e5 d03d
00000140: ce0d a3bd c866 71be 85fa 143d 543e 993d
00000150: 6dd0 6bbe f003 e23e 3e89 013f be5e 063f
00000160: 7122 2a3e 67ce 9bbd aeb8 eabe 061a 723e
00000170: 3aa5 a7be b4cf cf3c b47b 19bd 6604 4bbf
00000180: af0b 4fbf 605a 8e3e a007 d0be ffb4 3d3e
00000190: dbca a23e 4088 ef3e 1f18 c93d c84b 40be
000001a0: 1a28 0c3d 1569 5f3d edf6 d6bd 5c2b 43be
000001b0: c6b3 1c3e 0988 e53e a562 c3bd 1dc1 0a3f
000001c0: 3bbf b8bd 381f a8be 6a72 433e 76af 983e
000001d0: 4530 853d 69e9 303e 42cc a9be 6e68 1e3e
000001e0: bb3f 2a3e 3e90 f33c 2378 c13e 548c 9d3e
000001f0: 13cb 1dbe e510 1cbe 02f1 8b3e 2439 02bf
00000200: 6906 f13d 1ab3 003f a8f3 ad3e 50d7 04bf
00000210: fb12 463e 6b30 f73e cfe0 773e cebd d83e
00000220: e6f8 743d 8d6e ab3e 722d a43d b6ec 0d3e
00000230: a326 5dbd 9c5f bebd 8994 acbe f3ba b2bb
00000240: e59a 71bd 89ee ed3d 24fa 5d3e ea19 5d3e
00000250: 42aa ccbe 5ca4 d13e fd5b c63e 85b8 0bbe
00000260: 79fb c7bd bcb1 c0be 2354 3fbd 17ec a73d
00000270: 8682 8b3e 7482 fd3e 1716 583f 35a8 9ebe
00000280: 1e31 dcbd 4333 c0bc b48b 29bd a523 c73e
00000290: 8437 4fbe 69b0 13be f45f 1abe f3f5 523e
000002a0: 44df 15bf 38a2 8cbe 50de 0e3c 94dd 1f3f
000002b0: 2deb 86be 7d2c a0bc 2811 fcbd f6b9 cebd
000002c0: 482a 1c3e c96a a1be 2786 50be 347f de3e
000002d0: 08e7 a93e 959a a0bd d7fb 813e 4a27 cabd
000002e0: c5f2 fdbd ceee e6bd 17d8 b8bd 6a5f b1bd
000002f0: e878 a8bb a384 74be 3df2 7d3e fe0a 573f
00000300: 3c4e 083f 1993 bbbe 6643 3ebe 2764 26be
00000310: 3f75 483e 0f81 fd3d 512a 2e3e 8182 b2bc
00000320: d007 d8be 1be1 f13e 714b 3bbe 5ad3 9c3d
00000330: ffac 88be 7379 2fbc 7dd3 95be dcb7 c63d
00000340: 1b40 2d3d 02a6 21be 1f6f 9ebb fa5a 47bc
00000350: 480e 233e 004b 9d3e 1b0e e2bd b9ba 173f
00000360: 6dc2 bebd 613c c2be 0271 c83d 15fc a03d
00000370: 0092 fe3e dfb3 103f a772 bf3e 4500 963e
00000380: 9ef4 b23d aa6e 16bf d85a 0e3e 1806 1d3e
00000390: bbaa 803e f138 d13d 926c f5be 4ac7 213d
000003a0: dc3b 5bbe 7c46 bdbe 19f1 43be 2253 d93d
000003b0: d0dd 383f 6990 33be f60e 0a3d 8a6b c2bd
000003c0: 58ca 1dbd 49ee 01be 31a4 5fbe 1de4 e9be
000003d0: 0cae 0ebf 27bb c5be 9cf3 51be 94c6 ac3d
000003e0: 9f4a b1be 8abf 29be a101 413d ba2f 923d
000003f0: 8a95 21be f171 2fbe 5085 71bd 257c 203d
0.6886308 0.17116056 -0.25076014 -0.042611938 -0.063620396 0.19112353 0.24652228 0.17792515
-0.59050936 0.3365742 -0.19385117 0.20884493 -0.25138572 -0.032099087 0.038216524 -0.19236995
0.3136832 0.8317779 0.52247345 0.25787687 -0.02703395 -0.19322217 -0.008864964 0.5167889
0.19420215 0.12391975 -0.5102457 -0.5724688 -0.024310859 -0.06392173 -0.039046254 -0.106288835
0.6600646 0.105520986 -0.34638962 0.38664725 0.2949178 0.29192868 -0.19125602 -0.3254836
-0.038623847 -0.096732154 -0.06780483 -0.33006036 -0.14405583 -0.19955587 -0.028917491 0.108242325
-0.10077796 -0.13588803 0.21625814 0.10184401 0.6099351 0.45762378 -0.07050432 -0.6211503
-0.27866235 0.4753037 -0.17232627 0.36092883 0.21889785 -0.18874307 -0.17117292 0.19168656
-0.60366356 -0.3228602 0.4076563 -0.20726779 0.23302531 -0.2618411 0.4075855 0.16964236
0.030321755 -0.1499977 -0.13578449 0.034746826 0.20558862 0.08058691 0.31574273 0.10200048
-0.079616174 -0.23574364 0.036371727 0.07482591 -0.23028727 0.4414363 0.5060004 0.52488315
0.16614701 -0.076077275 -0.45844024 0.2364274 -0.32743245 0.025367595 -0.037471488 -0.79303586
-0.808772 0.27803326 -0.40630817 0.18526076 0.3179539 0.46783638 0.09819054 -0.18778908
0.03421793 0.054543573 -0.10496316 -0.19059509 0.15302953 0.4483035 -0.09540299 0.5420092
-0.09020849 -0.32836318 0.19086614 0.29821366 0.06503347 0.17276539 -0.3316365 0.15469524
0.16625874 0.029731866 0.3778697 0.30771124 -0.15409498 -0.1524082 0.27332312 -0.5086844
0.11768801 0.5027329 0.33974957 -0.5189104 0.19343178 0.48279127 0.24206851 0.4233231
0.05980768 0.3348278 0.080164805 0.1385983 -0.053991925 -0.0929558 -0.33707073 -0.005454415
-0.05898561 0.116177626 0.21677452 0.21591917 -0.39973646 0.4094571 0.38742056 -0.13644607
-0.097647615 -0.376356 -0.0467111 0.081993274 0.2724802 0.4951359 0.84408706 -0.30987707
-0.10751556 -0.023461943 -0.041392997 0.38894382 -0.20236021 -0.14422764 -0.15075666 0.20601635
-0.585438 -0.27467513 0.008719996 0.62447476 -0.263513 -0.019552464 -0.1230796 -0.10094063
0.15250504 -0.31526783 -0.20363675 0.43456423 0.33184075 -0.07841984 0.2538745 -0.09870775
-0.1239982 -0.11276017 -0.09025591 -0.08660777 -0.0051413663 -0.23878722 0.24799438 0.8400115
0.53244376 -0.36635664 -0.18580398 -0.16249143 0.19575976 0.123781316 0.1700833 -0.021790745
-0.4219346 0.47242054 -0.18290497 0.076574996 -0.26694486 -0.010710108 -0.29262915 0.09703037
0.042297464 -0.15785983 -0.004835024 -0.012167687 0.15923417 0.30721283 -0.11037847 0.5926929
-0.093144275 -0.3793669 0.097871795 0.07860581 0.49720764 0.5652446 0.3739216 0.2929708
0.08738063 -0.5876261 0.13901842 0.15334356 0.25130257 0.10215939 -0.47934395 0.039496697
-0.21409553 -0.36967838 -0.1913494 0.106115595 0.7221346 -0.17535557 0.033705674 -0.09493168
-0.03852305 -0.12688555 -0.21839978 -0.4568185 -0.55734324 -0.38619348 -0.20503086 0.08436313
-0.34627244 -0.16576973 0.047120694 0.07138009 -0.15779701 -0.17133309 -0.058965027 0.039180893

grud_cell.weight_gamma_x f4 [17]
00000000: 9647 9e3e ff32 933e 1e8e bc3e 05ab a83e
00000010: d36d 033d d65c 3a3f eaa4 ff3c 51cd 66bb
00000020: 09bd ec3e 61fb 093f 281d 053f 43a8 ae3e
00000030: 305b 1b3e 066c 293f 0b2c b53e feb8 e53e
00000040: 40fb 5f3f
0.3091399 0.28749844 0.36827177 0.32942978 0.03208716 0.72797906 0.031206567 -0.0035217593
0.46237972 0.538992 0.51997614 0.34112749 0.15171504 0.66180456 0.35385165 0.448677
0.8749275

grud_cell.weight_gamma_h f4 [17]
00000000: 9518 6c3e 21a2 93bc c26f b83e 19cb 8e3e
00000010: d561 9dbb b5f7 19bc 9713 1fbc 1149 da3d
00000020: 2432 db3e c9e6 24bc b5c7 f2bb a41c e2bb
00000030: c091 dcbb ef05 4cbc 8dcc 5bbc 3c02 37bb
00000040: ce92 903e
0.23056252 -0.018021645 0.36022764 0.27889326 -0.0048029223 -0.009397437 -0.00970926 0.106584676
0.42811692 -0.010064789 -0.007409061 -0.006900387 -0.006731242 -0.012452587 -0.013415468 -0.0027924916
0.28237003

grud_cell.bias f4 [17]
00000000: f0db 383e 5fd1 df3d 371e 3b3e 5392 5ebd
00000010: 9843 6ebe 894f 5dbe 4caf 003e b445 bc3d
00000020: b5dc 64be 8f1b 673d 6f21 83bd 5aa5 4cbe
00000030: 44a1 963d ab88 08be 70c3 89bc ba9d 0c3e
00000040: b065 a93e
0.1805265 0.10928606 0.18273245 -0.054338764 -0.23267972 -0.21612372 0.1256687 0.09192982
-0.22349818 0.056422766 -0.06402861 -0.19984952 0.07354978 -0.13333385 -0.016816825 0.13732043
0.33085394

fc.weight f4 [6, 17]
00000000: 843b e93e 6998 463f 238b 483f a6d5 88bf
00000010: f58c 38bf f206 31bf 447e 093f 1cf1 80bf
00000020: 1f44 263f a1d0 66bf d670 d3bf cfc0 17bf
00000030: d2a8 d93f e293 7cbf 7247 85bf 1923 1e3f
00000040: 8fca 52bf 22d3 fc3d 0a36 1dbe 5d23 1bbf
00000050: 366d c63d 0be4 dfbe 4bbc 623f befa bbbb
00000060: 1809 75bd 57b2 ebbd 73a7 733e 4874 4e3f
00000070: 3a1d aa3e 62c0 62bf dc33 e43f ee59 dcbd
00000080: 8281 773f 6732 88be 41bd cabe 5f3d 29bf
00000090: 05e0 bdbf 7198 0f3f 936c fabe c2ee 9cbf
000000a0: ddee b2be 0cb3 583f af8f 4b3e 9b25 493d
000000b0: a18a 43be 3602 e33f 44a0 20bf ef4d d83f
000000c0: 5bdd 223f 4374 bbbf bbb7 57bf 1a0c 343e
000000d0: e0b9 afbf d633 1ebf ae76 d43d b009 c73f
000000e0: 2966 0a40 b294 153f a3ca f23c 333b 28be
000000f0: d035 803e d834 7c3f 8683 893f 7bce 19bf
00000100: a2de febe 4e94 f73d b82b d9bd 2bd0 45bf
00000110: de64 a5bf 41c2 6bbe 669c 173f 99bc b23e
00000120: e6b2 433f 65cb ab3f a3cf 09c0 0a23 60bf
00000130: 2aa3 22be bd17 93be 2bef aa3e bd2a 40bf
00000140: e1a8 6c3f b24b b6bf 72d8 493e 0243 cbbf
00000150: 58a5 843f 576b 0d3f 4604 383f b048 5a3f
00000160: 724b 7abe 3c4f ddbe d309 02bf 6ea5 043f
00000170: c6f4 1c3f 76e5 44bf 0d82 0e3f 463d 163f
00000180: 4ee0 93bf 95dd d2be 4186 853e 827d da3e
00000190: 150b 0b3f 7f61 963f
0.4555322 0.7757631 0.78337306 -1.06902 -0.72090083 -0.6915122 0.5370829 -1.0073581
0.64947695 -0.9016209 -1.651881 -0.5927858 1.7004645 -0.9866315 -1.0412428 0.61772305
-0.8234033 0.12344958 -0.15352646 -0.60600835 0.09688799 -0.4372867 0.8856856 -0.005736678
-0.059823126 -0.11508625 0.23794346 0.8064618 0.33225423 -0.885748 1.7828326 -0.1075934
0.9668199 -0.26600954 -0.39597514 -0.6610927 -1.483399 0.5609198 -0.4891096 -1.2260363
-0.34947863 0.84648204 0.1987903 0.04910813 -0.19095851 1.773505 -0.62744546 1.6898783
0.6361901 -1.4644855 -0.84264725 0.17582741 -1.37286 -0.61797845 0.10374199 1.5549831
2.1624854 0.58430016 0.02963764 -0.16428833 0.25041056 0.98518133 1.0743263 -0.6008069
-0.4977923 0.12088834 -0.10604042 -0.77270764 -1.2921407 -0.2302332 0.5922302 0.34909514
0.7644485 1.3421446 -2.1532981 -0.87553465 -0.15882555 -0.28729048 0.33385596 -0.75065213
0.9244519 -1.424185 0.19711474 -1.5879824 1.0362959 0.5524191 0.7188152 0.8526716
-0.24442843 -0.43224514 -0.5079624 0.51814926 0.61310995 -0.7691263 0.5566719 0.58687246
-1.1552827 -0.4118468 0.2607899 0.4267388 0.54313785 1.1748503

fc.bias f4 [6]
00000000: 93d8 613e 315b 90be 81fb d63e 9f67 f7be
00000010: 2e30 b03e f036 80bc
0.22055273 -0.28194574 0.41988757 -0.48321244 0.34411758 -0.015651196
