models/model_20230621-204643.pt (torch, 10395 bytes, 8 tensors)

grud_cell.weight_z f4 [17, 34]
00000000: d31b 1bbe 190d 57be 406e f33e 9543 29be
00000010: 607d 203e 4e41 983e 205d 68be e8a2 ecbe
00000020: 9984 d13e d779 82be 1b12 943e 575b b5be
00000030: 2a32 4c3d 1d6a c73d 20d7 833d 22ac c73d
00000040: 17f1 a4be 1b16 85be 6929 29be 5ef4 933e
00000050: 87d6 fd3d 22ec ae3e e879 923e 713d 6f3e
00000060: e9d8 093c cede c6bd d5e8 343d 4d8b 7c3d
00000070: 481b 4abd 47c6 d13d 7bbd ecbc 0bf8 2e3e
00000080: ecde bd3e 1476 133e fbc2 503e 7666 1fbd
00000090: 22e1 94be 8e11 6f3e ee5c 2d3e c567 893e
000000a0: b644 4b3e 878e 6dbb 90e7 90be bc3e a1be
000000b0: f4d2 eb3c 7a38 823e d969 a43d df4c 66be
000000c0: 49fd 333e fe3b 01be cf78 063e 11e9 92be
000000d0: 2604 a5be ff78 31be dc14 8abd 9108 2d3e
000000e0: 6ec5 3a3e f061 41be 5649 4dbd e1ed 3a3e
000000f0: 4de1 abbd 040e 47bd 1512 433e 36be 82bd
00000100: a85a 0d3e 37d0 753e b9e5 ca3d 3f6a cbbc
00000110: e7ff afbe ea63 a3be ab2d babc 0014 8fba
00000120: 1699 9d3d 8313 10be 9330 b83e 3169 9f3c
00000130: 373e 81bd 9af9 83be 9ff7 55bc 8a5e 4f3e
00000140: 64f4 923e bf56 15be d834 dabd 74dd ccbe
00000150: 6c49 4cbe 1d8e 23be c44d e53d 34f0 babd
00000160: 8bfc 01bd d2ad 71be 098f 543b 69c7 253e
00000170: 7e90 fd3a 3941 debd 98d4 9e3e 7543 613e
00000180: 5387 7c3e df1d c3be 8d56 003c 27e8 4dbe
00000190: aa62 71be 782d 0e3e 6c57 bebe 0d64 8bbe
000001a0: 3a1c 633e c051 813e e6d2 78be 812a a5be
000001b0: 0339 bdbc 8697 d63e 2c61 793d 77a2 2e3e
000001c0: b03a 6c3e 2d91 18be d0da da3e 65a8 3ebe
000001d0: c270 093e 341d 4abe 247c 2d3e 46a2 833e
000001e0: 216e e6bd 78db 3b3e 176f d93b 27a8 233c
000001f0: 980f d73e 55c4 913d 7acd 7dbe 6005 90be
00000200: a24f 253e 7ac8 f53d 89a9 0c3e 8f06 cb3d
00000210: 59ed 2b3e d181 7ebd a6e1 29be d5ef 493e
00000220: 26c3 d1bd 02f3 a5bd ab81 78be fcfd a13e
00000230: 33c2 8f3e 88cf 83be 03a9 5abe 9b24 dd3e
00000240: 3596 bd3c 96ea 65ba 712c 8bbe 2034 313e
00000250: 9abc 8abe e794 523e 0674 63be e61d 66be
00000260: 934c 96be 2ffc c53e e6b5 c53e e5f7 95be
00000270: c0b3 9d3e 6273 f6bd 3f0d c3be 454e 2c3e
00000280: 3e5d 6d3e 56f0 593e adb9 11bd 61e0 c13e
00000290: 244c 9fbe c184 4b3e 689c cabd 0b1a 35bc
000002a0: 7f0f 143e 0b97 84be bf2c 833e 7d03 9c3c
000002b0: f1e7 473e d714 bcbd c5a5 c93d f4a5 d23e
000002c0: e1a8 49bd 4023 69be b705 503e 3350 8fbe
000002d0: 7429 d93b fa9a 883e 8e53 fd3c f9fc 393e
000002e0: d340 e23d ba3c 833c afde 243e 8040 013e
000002f0: fa51 733e b406 743d cac0 7bbd 4e0e 8fbc
00000300: c857 9c3e 8718 e23d 0386 84bd 0410 03bd
00000310: f515 b43d b604 ed3d 1dc8 07be 4789 403e
00000320: 4290 d43e a50d 09be 108c 26be c205 d73d
00000330: 1b67 31be e65f 8e3e 21ec 4cbe e7f9 93be
00000340: 792f bdbd 32d5 e93e 4265 2fbe 379c d93e
00000350: 0973 2dbd 6caa 883e 168f 723e 1289 5b3e
00000360: 3d50 e73e ae5a 85be abd4 6abc 2c5a 1e3e
00000370: 6b40 a33e ae52 cbbd 7119 36be b8f2 a0be
00000380: 7fc1 a9bd d82c 163e 3cad 0abd 6689 7b3d
00000390: 4d56 3bbe 3da2 073e 123b cbbe d41c b13e
000003a0: 3157 3bbc 35f4 353e dcb2 2c3c 9795 0cbe
000003b0: c205 3c3e 48ca 5a3d bb83 273d f6c8 e7be
000003c0: 223e 3a3e 7f98 393e 9eaf dbbc 40c4 1fbe
000003d0: 84ba ca3e e124 c63e 41f5 f73d fae6 f1bd
000003e0: 6c05 453d 0bb6 adbe bb52 cdbe 5bf7 b73d
000003f0: 4648 fa3d 59c4 b4be 09c0 92be 6f78 763e
-0.15147333 -0.2100109 0.47545052 -0.16529687 0.15672827 0.29737324 -0.22691774 -0.46218038
0.40921476 -0.2548358 0.28920063 -0.3542125 0.049852528 0.097370364 0.06437516 0.097496286
-0.32215187 -0.25993428 -0.16519703 0.28897375 0.123944335 0.3416453 0.28608632 0.23363282
0.008413532 -0.09710465 0.04416736 0.061656285 -0.049342424 0.102428965 -0.028898945 0.17086808
0.37084138 0.14400512 0.20386879 -0.038916074 -0.29078013 0.2334654 0.16929981 0.26836982
0.1985043 -0.0036248283 -0.28301668 -0.31493175 0.028787114 0.25433713 0.08028001 -0.22490261
0.1757709 -0.12620541 0.13132022 -0.2869344 -0.32229728 -0.17331313 -0.0674226 0.16897799
0.18239376 -0.18885016 -0.050118767 0.18254806 -0.08392582 -0.04859735 0.19049866 -0.06383936
0.13804114 0.24005209 0.09907097 -0.024830936 -0.34374925 -0.31912166 -0.022726854 -0.0010915995
0.076952145 -0.14069943 0.3597456 0.019459339 -0.06310695 -0.25776368 -0.013059526 0.20250908
0.2870208 -0.14583872 -0.106546104 -0.40012705 -0.19949883 -0.1597218 0.11196473 -0.09127846
-0.031734984 -0.23601463 0.0032433888 0.1618935 0.001934543 -0.10852284 0.3102157 0.21998389
0.24660997 -0.38108727 0.007833135 -0.2010809 -0.23572794 0.13884532 -0.37176073 -0.2722477
0.22178736 0.25257683 -0.24299201 -0.3225899 -0.023098474 0.41912478 0.060883686 0.17054163
0.23069263 -0.1489913 0.42745066 -0.18618925 0.1342192 -0.19737703 0.16941887 0.25709742
-0.11251474 0.1834544 0.0066355574 0.009988821 0.42004085 0.071175255 -0.24785414 -0.281291
0.16143659 0.120011285 0.13736548 0.0991336 0.1678976 -0.06213552 -0.16589984 0.19720395
-0.102423 -0.08102991 -0.24268214 0.31639087 0.2807785 -0.2574427 -0.21353535 0.4319199
0.023142913 -0.0008770613 -0.27182344 0.1730504 -0.27097017 0.20564614 -0.22212228 -0.22472343
-0.29355296 0.38668963 0.3861534 -0.2929069 0.308012 -0.12033726 -0.38096043 0.16826732
0.231801 0.21283087 -0.035577465 0.378665 -0.31112778 0.1987486 -0.098931134 -0.011053572
0.14459036 -0.25896487 0.25620076 0.019044632 0.19522072 -0.091836624 0.09846071 0.41142237
-0.04923332 -0.22767353 0.2031468 -0.27990875 0.006627256 0.26680738 0.030923631 0.18162908
0.110475205 0.016020168 0.16100572 0.12622261 0.2376174 0.059576705 -0.061463155 -0.017462876
0.30535722 0.110398345 -0.06470873 -0.031997696 0.087932505 0.11573164 -0.13259931 0.18802367
0.4151631 -0.13384111 -0.16264367 0.10499145 -0.17324488 0.2780754 -0.20011951 -0.28901598
-0.0923757 0.45670468 -0.1712847 0.42501995 -0.042346034 0.26692522 0.23687395 0.21439007
0.45178404 -0.26045746 -0.014332931 0.15464085 0.31885085 -0.09927879 -0.17783143 -0.3143518
-0.082888596 0.14665544 -0.033856615 0.06141033 -0.1829464 0.13245483 -0.39693505 0.34592307
-0.011434362 0.17768939 0.01054069 -0.13728939 0.18361571 0.053415567 0.040897112 -0.4527051
0.18187764 0.18124579 -0.02681714 -0.15602207 0.39595425 0.3870001 0.12107325 -0.118116334
0.048100874 -0.3392795 -0.4010218 0.08982726 0.12220816 -0.3530605 -0.28662136 0.2406938

grud_cell.weight_r f4 [17, 34]
00000000: 7fbe 3dbd af93 c0be 989d a93e daa3 933d
00000010: f3df 6a3e 741d a1bd 3018 bebd 9805 a9be
00000020: 3767 83be cf24 4b3c 1549 4f3e 3f9d b3be
00000030: a667 253e 2b88 a9be 79bc febd 7337 88be
00000040: 8a08 77be 97b3 00be 6e83 15bd ca47 48be
00000050: 7801 ad3e b571 0f3e e5c6 99bc 5387 70be
00000060: 0322 76be b2ce 77be d4ee 863e 842b bb3e
00000070: 4b92 3dbe d9ce cdbe 8e68 e5be fabd d43d
00000080: 3138 d3bd 80ed c7be b48d 613e c210 fcbd
00000090: db36 58be ff9d 8fbe b0c6 673e 857e 953e
000000a0: e219 92bd 71e8 2abe fb35 4b3e c397 d03d
000000b0: 6410 b03d b07b dc3e 1b23 8ebe 747e 78bc
000000c0: 5801 5e3e 5319 b5be 88a0 17be 0d5e 81bd
000000d0: a6d8 503c d4e0 8a3e 8525 7a3e 0dda 46be
000000e0: e540 83be 7535 f63d 88ca fbbd a26c 7fbd
000000f0: 19f0 04bf 8f2a a13e 476a 7d3d 7685 843e
00000100: e13e 95bd be72 efbe 0be2 37be 0593 cf3d
00000110: abcb c23a ae77 2e3e 38b0 d2bc 76ec c93d
00000120: 1c82 763e cadb bd3d c706 50be c549 053e
00000130: a3ee b8be 9b59 0abe e9bb 39be 6272 c63e
00000140: 3bf6 26be 2c43 37bd 15e1 e3be 7678 853d
00000150: 99b2 813c 677d 533d 853b 1e3e cf77 ff3d
00000160: 7942 d73e 720c e0be e38d d13d b798 283e
00000170: f98d 2cbe f370 2bbe 2fcc 103e 4a04 9b3d
00000180: 495b ee3d 8716 1ebe 83de d63e 60dc 873d
00000190: c5cd 193c dd09 0ebe 28f7 41be 76b9 0c3e
000001a0: d835 b33e 74b9 3c3d 2dae c1bd e4ab acbc
000001b0: fd1c ba3e b1db 9e3d 80e6 233e a64b 26be
000001c0: b387 40be 03bd 76be 05c7 2b3e 122f 193e
000001d0: 2434 543e fe15 5bbe 964a 113d dc84 fc3d
000001e0: cd7e 9fbd 0450 b8be a861 863e f462 813d
000001f0: d14e f83e 9e39 8ebd 935e ebbe 5ce9 7c3e
00000200: 6ce9 c23e 0289 ec3d 1d8e 623e c244 913e
00000210: 7685 2dbe e4e4 ba3e 148d c23d 2d73 7cbc
00000220: cd20 323e e799 893e c28d 953e 83fd 16be
00000230: 0328 d03d 37e6 4abd ae58 81be 26a2 9c3c
00000240: 1cc8 b1bc ef7e 89be 8430 d0be 6573 5abe
00000250: c300 c7bd 0e82 af3e 6dbf 1d3e 3eb8 3dbc
00000260: 2a71 df3e 6bf2 96be 22e3 19be 9b01 2a3e
00000270: cf91 c1be 22b7 e53e 85cd ea3d 22d4 95bd
00000280: 9682 b33e 90b2 293e a66a 273e 04bb 183e
00000290: 46d3 40be 723f c13e e9a5 8a3d e666 9ebd
000002a0: f956 343e 0dfb 94be ef44 50be 84ac 5c3e
000002b0: 9a60 85be f571 e93d cf77 773e 5c98 b9be
000002c0: 62e5 d3bd d1aa b33d 5cfc 313e 6a36 333d
000002d0: e950 ce3e 327a b1be de6e 6a3d 84ab 8c3e
000002e0: 4c5d a6bd ac80 4dbe 2cbf afbe 4966 a03d
000002f0: d8ab e43d a038 533d 9e22 e73d 4cc5 b7bd
00000300: e767 5bbe 0400 dd3e 3791 753e 5e6c b33e
00000310: 6a6d f13d 2c68 cebe 7a29 d8bd 015b f03e
00000320: 509c b9be c710 1dbd cadc fa3d 8c0e 4c3e
00000330: b9fd 48be 054a 443e 7d1d 18be cc5c 513e
00000340: 1480 9c3e 5e78 af3c f0dd 78be 8f27 e23c
00000350: 5e4f 713e 479b 54be d44f e23c 0d62 edbe
00000360: 88f2 8c3e 822f 173d e143 723e 42d8 e0bb
00000370: 3727 143e 196b f73e 71de 853c 520c 64be
00000380: 59c7 9abd bf0a 103e ce3b 8d3d e5aa b63c
00000390: 77dc 93be 2041 27be 5ad8 a2bd da25 9e3d
000003a0: 1a09 433e 91c5 09bf 2dc7 00bd 8a7c c83e
000003b0: c049 9e3e 5533 553d 37f5 a4bd 4fc8 b03d
000003c0: 2e09 e1be 63b8 7e3e a2e9 103d ec6d 8e3e
000003d0: e9f2 20be dcf8 0f3e d7ad ab3e 9c69 e63e
000003e0: 308d 1cbd e596 8cbe 50b9 acbe 4e76 82be
000003f0: 49d7 c0bc 2a4c 37be 7da0 68be fc71 893d
-0.04632425 -0.37612674 0.33128047 0.072089866 0.22936992 -0.07866946 -0.09281957 -0.3301208
-0.25664684 0.012398913 0.20242722 -0.35080907 0.1615282 -0.331117 -0.12438292 -0.26604804
-0.24124351 -0.12568508 -0.036502294 -0.19558635 0.33790183 0.1400822 -0.018771598 -0.23489122
-0.24036412 -0.24199942 0.26354086 0.36556637 -0.18512838 -0.40196875 -0.4480633 0.10387798
-0.10313452 -0.39048386 0.22026712 -0.12307884 -0.21114676 -0.2805023 0.22634387 0.2919809
-0.07133843 -0.16690232 0.1984481 0.10185196 0.08596876 0.43063116 -0.27761158 -0.0151668675
0.216802 -0.35370883 -0.14807332 -0.06316767 0.0127469655 0.27124655 0.24428375 -0.19419117
-0.25635448 0.12021915 -0.12294489 -0.06235946 -0.5192886 0.31477782 0.061868932 0.25883073
-0.07287384 -0.4676723 -0.17957322 0.101354636 0.0014861723 0.17037842 -0.025718793 0.098595545
0.2407307 0.09270437 -0.20315085 0.13016422 -0.36119565 -0.13510744 -0.18138088 0.38759142
-0.16304867 -0.044741794 -0.4450766 0.06517117 0.015832232 0.051633265 0.15452392 0.124740236
0.42042902 -0.43759495 0.10232141 0.16464506 -0.16851033 -0.16742305 0.1414039 0.075691774
0.11638505 -0.15438281 0.41966638 0.0663383 0.009387438 -0.1387095 -0.18941939 0.13742623
0.35002017 0.0460753 -0.094570495 -0.021078058 0.3635024 0.077567466 0.16005898 -0.16239795
-0.18801765 -0.2409554 0.16775139 0.14959362 0.20723015 -0.21395108 0.03547152 0.123300284
-0.07787857 -0.35998547 0.2624638 0.06317702 0.48497632 -0.06944583 -0.45970592 0.24698395
0.38068712 0.1154957 0.22124524 0.2837277 -0.16945443 0.36502755 0.09499565 -0.015408319
0.17395325 0.2687523 0.29209715 -0.14745145 0.10163882 -0.049535956 -0.2526297 0.019120287
-0.021701865 -0.26854655 -0.40662014 -0.21333082 -0.09716942 0.3427891 0.15405054 -0.011579571
0.43641025 -0.29481825 -0.1502805 0.16602175 -0.37806556 0.44866282 0.11464981 -0.07315852
0.35060567 0.16572022 0.16349277 0.14915091 -0.18830594 0.37743717 0.06769926 -0.0773447
0.17611302 -0.29097787 -0.20338796 0.21550184 -0.26050264 0.11398689 0.24166797 -0.36249053
-0.10346486 0.08772815 0.17381424 0.043753065 0.40296105 -0.3466354 0.057234637 0.27474606
-0.08123264 -0.20068616 -0.3432554 0.07832009 0.11165589 0.051567674 0.112858996 -0.08973178
-0.21426354 0.43164074 0.23981176 0.35043615 0.11788447 -0.40313852 -0.10554786 0.4694443
-0.3625207 -0.03834608 0.122491434 0.19927424 -0.19628038 0.19168861 -0.14854999 0.20445555
0.30566466 0.0214197 -0.24303412 0.027606754 0.23565432 -0.20762359 0.027625956 -0.4636387
0.27528787 0.03691054 0.23658706 -0.0068617174 0.14468084 0.48323897 0.01634142 -0.22270325
-0.07557554 0.140666 0.068961725 0.022298286 -0.2887914 -0.16333437 -0.07951422 0.07722063
0.1904644 -0.5381709 -0.03143995 0.39157516 0.30915642 0.052050907 -0.080545835 0.08631956
-0.43952316 0.24875025 0.03537906 0.2781824 -0.15717663 0.14059776 0.33531067 0.4500245
-0.038220584 -0.27458873 -0.33735132 -0.25480884 -0.023540156 -0.17900148 -0.22717471 0.06711194

grud_cell.weight_h_tilde f4 [17, 34]
00000000: aff4 e33d 5a9c 87be ce62 823d e033 ccbe
00000010: d1c2 cebd abf3 ddbc 866b e8bd 3a89 d9be
00000020: 2d87 b9bd 0abd 8dbe b77f 4dbe 4c64 c3be
00000030: 6d36 9cbd b821 4abe d4db 8e3e 823a 9ebe
00000040: c16f 85be f3a1 f1bd 7eb9 b53e 8fcc 60be
00000050: 35ec ac3d ca73 ac3d 9013 72be 82ab 8abe
00000060: 11ed 273e abce c6ba e497 e9bd 7ab5 b53d
00000070: d9fa 4a3e 5c55 2ebd d949 62bb fae7 d83e
00000080: 1101 313e 9770 f3be 1158 ad3d c12c bcbe
00000090: a08a 193d bed2 8dbe 0bcd 41bb 198a 9b3b
000000a0: 0801 47be b0f9 b8bd 496a 093b ae27 eebd
000000b0: 5e9b 1e3e 79fc 7a3e 8e1f 9ebc 96a2 8dbe
000000c0: 1551 ea3b dfdd 3fbe 0f49 3f3d 0da5 d7be
000000d0: f05e 40be 89ae bf3d f0d8 233d e77b cabd
000000e0: 7a12 57bd 7f21 2b3e 2fe4 92be 6e4e c93d
000000f0: bc8f 49be 0510 7e3d b1e7 543d e3a6 953e
00000100: a09a f83d 0d72 0ebe 94e4 a9be c9aa e13e
00000110: 97b6 a03e e921 2e3e 0889 8e3e 732b b53d
00000120: 2d58 4e3e e913 823e 6f73 96be 120f 87be
00000130: 240e 5fbe 529a 523e 61c8 753e 0e1b d5bb
00000140: 2f78 c0be c9bd 22bd 8fe8 4b3e 13e0 773e
00000150: b79f 913d 41f9 b7be 6a22 a33e 3f1d e63e
00000160: 12e4 99be 772f a0bd d2b9 873e 5487 adbd
00000170: bfdb cc3e 357c ac3d 4be8 14be 89a6 adbe
00000180: 75a7 f4be 343c 663e 5f47 87be 9a3c b7be
00000190: b319 053e 1ee9 573e 2a92 36be c2ae aabe
000001a0: 649c 0ebe 7642 d3bc 3902 6f3d fcc6 8dbe
000001b0: 571a 023e f6ef a03e 366e f63d 1965 71be
000001c0: 5fc0 673d 2651 41be 22dc 5e3e 1eb5 f8bd
000001d0: 528a 513e aacd b7bd 865a e03c 5478 993e
000001e0: 4b3e 98be 8d79 03be 16e0 e13e 45ff c93d
000001f0: f86d f23c f2e9 59be afc7 2abd 31cb dabe
00000200: 9dea 803d 73d4 f03e 1ce5 723e 8c56 2ebe
00000210: 2797 43be 02e1 19bd e35f 243e e14e cebe
00000220: da46 13be 51de c3bd e789 403e 1102 88bc
00000230: 164e 8dbe ff13 f23d 49e6 3d3d a66a 90be
00000240: 6a2a bd3e 8326 8abe c349 99be 87e1 22bd
00000250: 0e60 9abe 0626 c4bc 946f 4abe d104 ccbc
00000260: 0802 953e 8759 e8be 6d6b 93be 0a20 c63d
00000270: ff5b debe aa9d 423e 6588 8abc 93c7 d33e
00000280: f0b5 76be deed 2a3e af18 29bb 72dc ccbd
00000290: 2eec 66be 62ea f53e 2679 c8be 5150 1b3e
000002a0: 6a8d 62bd 3a21 a43e 8f0d 5b3e 7c23 d83c
000002b0: e1d6 863c 0632 adbd 4477 9fbe f9c1 533e
000002c0: 9e7c 723e 2ce1 0d3e b779 febc f192 98be
000002d0: fdb2 16bb 2e5d 063e eb42 2ebe 012d 463e
000002e0: 4a42 2a3c 3830 b83d 8565 a23e dae4 9b3e
000002f0: 27a6 15be d5f2 1fbd 82bc bf3e a5cb ad3d
00000300: 9c6a 23be 26a9 0bbe c737 c8be 3b24 37be
00000310: b23f b1bd 54e2 bf3e 040d f93e 94b3 fabe
00000320: 794c cabc aa24 103d 5a52 adbd 2ac4 123e
00000330: 368d 4fbe b345 4fbe bcf0 43be 2a3c f43d
00000340: 4125 75be 8d6a 6cbe ab54 bb3e 5fec 323d
00000350: 38ed 6f3e 790d 223e e4fb 413c 9743 313d
00000360: 78ec cabe 0675 703e a027 47be 683a 53bd
00000370: 68e4 13be b088 b2be 1ec5 55be 025a 263b
00000380: 0762 bebe d085 9dbd 7b4b 82bd 6fc1 0fbe
00000390: ad2f c83e e7f7 943e bf74 febe f0df 00bf
000003a0: 714f aabe 83da 993e c42b 243e 6cdf 6ebe
000003b0: ec68 d03c 6c1e 81bc 607f 99bd e56c 903c
000003c0: 6cca 8abe 7b67 47bd 62d0 f33b 4dd7 4c3e
000003d0: 18b5 87be b415 d7bd 324b 96bc 501c 13bd
000003e0: 7179 033d 0e3e 81be 820f 153e f202 45be
000003f0: 9399 8dbd e55e 833e 240d 8cbd fd5c a7be
0.11130654 -0.26486474 0.06366502 -0.39883327 -0.10095752 -0.027093729 -0.113486335 -0.42487508
-0.09058986 -0.27683288 -0.2006825 -0.38162458 -0.076275684 -0.19739425 0.2790209 -0.30904013
-0.26061824 -0.117984675 0.35493082 -0.21953033 0.084434904 0.084205225 -0.23640275 -0.27083975
0.16399027 -0.0015167793 -0.11405924 0.088725045 0.19822253 -0.042561874 -0.003452888 0.42364484
0.17285563 -0.47546837 0.08464063 -0.36752895 0.03748572 -0.27699846 -0.0029571678 0.004746687
-0.19433987 -0.09031999 0.0020967892 -0.11628662 0.15488955 0.24510373 -0.019302156 -0.27663106
0.007150779 -0.18736981 0.046700533 -0.4211811 -0.18786216 0.09359462 0.04000181 -0.09886914
-0.052507855 0.16711996 -0.28689715 0.098294124 -0.19683737 0.062026996 0.05197877 0.29228887
0.121388674 -0.13910694 -0.33182204 0.4407561 0.31389305 0.17005123 0.27838922 0.08846178
0.20150824 0.25405815 -0.29384944 -0.26378685 -0.21782738 0.20566681 0.2400222 -0.0065034693
-0.37591693 -0.039731774 0.19912933 0.24206571 0.07110541 -0.35932353 0.31862193 0.44944188
-0.30056816 -0.07821553 0.26508957 -0.084730774 0.40011403 0.08422128 -0.14541738 -0.3391612
-0.4778401 0.22483903 -0.2642164 -0.35788423 0.12998085 0.21085021 -0.17829195 -0.33336455
-0.13926846 -0.025788527 0.05835173 -0.27690876 0.1270536 0.31433076 0.1203274 -0.23573722
0.056579944 -0.18878612 0.21763662 -0.1214392 0.20462921 -0.08974774 0.027386915 0.29974616
-0.29735026 -0.12839337 0.44116277 0.09863142 0.029593453 -0.2128065 -0.04169434 -0.42733148
0.06294749 0.47037086 0.23720211 -0.17025203 -0.19100629 -0.0375681 0.16052203 -0.40294555
-0.14382496 -0.09563888 0.18802606 -0.016602548 -0.27598637 0.1182022 0.046362195 -0.28206366
0.36946422 -0.26982507 -0.29939088 -0.03976586 -0.3015141 -0.023943912 -0.19769126 -0.02490464
0.29103112 -0.45380804 -0.28792897 0.0967408 -0.43429562 0.19005457 -0.016910741 0.413632
-0.24092841 0.16692302 -0.0025802066 -0.10002984 -0.22551033 0.48030382 -0.3915493 0.15167357
-0.055310644 0.320566 0.21391891 0.026384108 0.016459884 -0.08456807 -0.3114568 0.20679463
0.2368035 0.13855428 -0.031063898 -0.29799607 -0.002299487 0.13121483 -0.17017715 0.19353105
0.010391781 0.08993572 0.31718078 0.30448037 -0.14614163 -0.039049942 0.37448508 0.08486108
-0.15958637 -0.13638744 -0.39105055 -0.17884915 -0.08654727 0.37477362 0.48642743 -0.48965132
-0.024694668 0.035191216 -0.08462973 0.14332643 -0.20268711 -0.20241432 -0.19134802 0.11925538
-0.23939992 -0.23087521 0.36588034 0.043682452 0.23430336 0.15825452 0.011839841 0.04327735
-0.39633536 0.23482141 -0.1944871 -0.051569372 -0.14442599 -0.3486991 -0.20875975 0.0025383239
-0.37184164 -0.07691538 -0.06362053 -0.14038633 0.39098874 0.29095384 -0.49698445 -0.503417
-0.33263734 0.30049524 0.1603232 -0.23327416 0.025440656 -0.015761577 -0.07494998 0.01763005
-0.2710756 -0.04868267 0.0074406127 0.20004006 -0.2650535 -0.105021864 -0.018346403 -0.035915673
0.032098237 -0.25242656 0.14556697 -0.19239405 -0.069140576 0.25658336 -0.06838444 -0.32688132

grud_cell.weight_gamma_x f4 [17]
00000000: eae3 543f 1566 673f fbf3 aa3e ff19 913e
00000010: 6187 003f 1a19 713f a294 943e b868 2d3f
00000020: 3237 0e3f 59bd 843f 8d37 7a3f 35b7 533f
00000030: d162 6fbc c7fc 693e e013 873e 7e73 3d3f
00000040: 1370 393f
0.8316027 0.9039014 0.33389267 0.28340146 0.5020657 0.94178927 0.29019648 0.67737913
0.5555297 1.0370284 0.97741014 0.82701427 -0.014610962 0.22850333 0.2638235 0.7400435
0.72436637

grud_cell.weight_gamma_h f4 [17]
00000000: 027b 063f 0487 153f ed47 b63e 48da ff3e
00000010: e678 02bb dc32 363f d6f8 83bc 0835 53bc
00000020: 2125 013f 7030 503f 3ed2 1d3e 838b 4a3f
00000030: c56a db3d 2182 1fbc b9b2 4c3e 031a 0c3f
00000040: bcab 423a
0.52531445 0.5840914 0.3560175 0.49971223 -0.0019908487 0.71171355 -0.016109865 -0.012891062
0.5044728 0.8132391 0.15412232 0.7911913 0.10713724 -0.009735615 0.19990052 0.5472719
0.0007426103

grud_cell.bias f4 [17]
00000000: 4fb7 083e cc7e 5dbd 7df3 f4bd e99b f83d
00000010: ce36 ffbd 162c ca3d 42b7 08be 33d9 01be
00000020: 463b 06be dc23 183e fdb6 103e 9d5b 073e
00000030: fa00 0bbe 67c8 013e 83b5 1a3e 947e 163e
00000040: 4305 1fbe
0.13351177 -0.054076 -0.11960504 0.121391125 -0.12461625 0.0987169 -0.13351157 -0.12680511
-0.13108549 0.1485743 0.14132304 0.13218541 -0.13574591 0.12674104 0.15108304 0.14696723
-0.15529351

fc.weight f4 [6, 17]
00000000: 80a0 b63e 988e 25be 1302 8ebe c427 5f3d
00000010: c88e b8be d24c 9b3e 23be 98be dcca 80be
00000020: 93c6 6bbe e880 b73e 8c3c 8f3e c144 703e
00000030: f139 59be c8cd 703e aa83 543e 65b1 b43e
00000040: 9b88 dcbd 0182 2d3d daa2 283e d374 4f3e
00000050: 7661 c4be 0366 5b3e 9bb0 53be 64fd 433e
00000060: 0c9b e83d df0e b13e 8b31 8ebe 552d b9be
00000070: eec0 26bd a5ae 8f3e 64cb d8bd 66a6 b0bd
00000080: d856 2c3d 484a 393e b2f6 37be d116 2e3e
00000090: 1b11 c43e d395 37be 48f0 a53e 581e 9dbd
000000a0: 1434 ca3d 1e94 e63d d397 bfbd b9c9 0fbd
000000b0: 8ec8 92be d5e5 a7be 1c1a e63d 170f 5fbe
000000c0: 3a0a a0be daae 55be 328e 033e 7730 58bd
000000d0: 3e94 a23d 60c2 173e c777 f1bd 73b4 eb3c
000000e0: cd14 b23d a3c2 933e 64d4 9d3e 3264 5bbd
000000f0: 8cc9 d93b 11d2 0cbe c411 c7be faeb c63e
00000100: 180a 1bbe f023 05be bb05 993c 6b5d a93e
00000110: eb60 aa3d 265c 0cbe b5c0 c63e 8f89 afbd
00000120: 7b5e 2b3e 992f 5ebe 302e ce3c 2ae4 b23e
00000130: 0173 aa3e ce44 0b3d 21bc 22be 0911 8bbe
00000140: 9188 4d3e 3c09 27be 6376 9ebe 4f4f 9bbd
00000150: 261a ab3e 5f3c 95be 52b6 0bbe ac85 523e
00000160: 692b 79be 8214 433d 3e29 1ebe b2ae 1b3e
00000170: a31c ba3d fdbc b03e 8cf1 e7bc 6c44 cbbd
00000180: 9a68 70be 44b7 053e 987b 4e3c 5998 18be
00000190: 5ec0 bbbe 30ca 403e
0.35669327 -0.16167676 -0.27735958 0.054481283 -0.36046433 0.30332047 -0.29832563 -0.2515477
-0.23024969 0.35840535 0.2797588 0.23463728 -0.21213509 0.23516 0.20753351 0.3529159
-0.10768243 0.04236031 0.16468373 0.20259409 -0.38355607 0.21425633 -0.20672838 0.1913963
0.11357698 0.34581658 -0.27772173 -0.36167398 -0.040711336 0.2806293 -0.10585669 -0.08625488
0.04207501 0.18094742 -0.179652 0.17000891 0.382943 -0.17928247 0.32409883 -0.07671803
0.09873214 0.1125872 -0.0935513 -0.035104487 -0.28668636 -0.32792535 0.11235449 -0.217831
-0.31257802 -0.20867482 0.12847212 -0.052780595 0.07938431 0.14820242 -0.11790424 0.028772568
0.08695374 0.28859434 0.30826104 -0.05356235 0.0066463407 -0.13752009 -0.38880742 0.3885191
-0.15140569 -0.1300199 0.01867949 0.33079085 0.08319267 -0.13707027 0.388189 -0.08571159
0.1673526 -0.21697845 0.025168508 0.349397 0.33290866 0.034001164 -0.15892078 -0.27161434
0.20071627 -0.16312116 -0.30949697 -0.07583486 0.33418387 -0.29147622 -0.13643768 0.20558804
-0.24332966 0.04762698 -0.1544542 0.1520336 0.09087493 0.34519187 -0.02831342 -0.0992516
-0.23477402 0.13058192 0.012602709 -0.14901866 -0.36670202 0.18827128

fc.bias f4 [6]
00000000: 7202 763e 92da 2fbe bf91 1dbe 2bfb 1cbe
00000010: 03f4 273d 354d a93d
0.2402437 -0.17173222 -0.15387629 -0.15330188 0.041004192 0.08266679
