models/model_20230621-223832.pt (torch, 10395 bytes, 8 tensors)

grud_cell.weight_z f4 [17, 34]
000000 e6 c3 7c 3d 1e be 68 3d d6 21 92 be 47 b5 93 bd
       0.06171026 0.056821935 -0.2854144 -0.0721231
000010 c0 a0 be 3e 97 97 31 3d 1c 7f 80 3d f4 81 c8 3e
       0.37232018 0.043357458 0.06274244 0.39161646
000020 ef 8e 98 be 94 cc dc 3d d0 2e 98 3d f9 8b 67 3e
       -0.2979655 0.10781208 0.07430804 0.22611989
000030 a7 d5 c4 bd ec 03 9f 3e ea 3f 35 be 46 dc fc 3d
       -0.096110635 0.3105768 -0.17700163 0.12346701
000040 f1 12 9f 3e df 83 74 3e 13 3c d1 3e e9 b2 da bd
       0.3106914 0.2387843 0.40866145 -0.10678656
000050 73 34 e2 3d ea 7b 92 be c0 68 05 be bd 09 a4 be
       0.1104516 -0.28610164 -0.1302824 -0.3203868
000060 9f 05 6b be 2d 31 01 3e d2 d8 3c 3e 46 62 3a 3e
       -0.22951363 0.12616415 0.18442085 0.18201551
000070 be 7d 84 3e c4 8e 74 be 18 3d cf bd f5 5e a8 3b
       0.25877184 -0.23882586 -0.101190746 0.005138273
000080 0e 2c 34 be 99 d3 60 be 53 31 a2 3b 97 28 1d 3e
       -0.1759493 -0.21955718 0.0049497276 0.15347515
000090 fd df 06 3e 7b 4c 54 be e0 33 ff bd 6b 39 d4 be
       0.13171382 -0.207323 -0.12461066 -0.41450056
0000a0 8c 87 61 be 9c 56 da be ff f0 8d 3e 84 db 63 3e
       -0.22024363 -0.42644203 0.27722928 0.22251707
0000b0 25 f7 e7 3d 7f 63 64 be d0 5b e6 3e 6b a4 d2 bd
       0.11326436 -0.2230358 0.44991922 -0.102852665
0000c0 63 bd 1e be 45 87 c7 3e d2 4d 28 3e 89 93 f6 3d
       -0.15501933 0.3897039 0.16435936 0.12039859
0000d0 df e6 83 be eb f1 1c 3e 96 14 70 be b4 43 ac bd
       -0.25762078 0.1532666 -0.23445353 -0.08411351
0000e0 04 d8 3d 3e cf d0 09 3c ba 83 93 bd 00 9b 56 3e
       0.18539435 0.0084116 -0.07202859 0.20957565
0000f0 7e d3 df bd 3f 4d a2 be b8 1e 40 3d 48 b8 07 3e
       -0.10929011 -0.3169956 0.046904296 0.13253891
000100 d6 88 5c be 47 65 24 3d 6a 3f 29 be a1 f9 1e 3e
       -0.21536574 0.040135648 -0.16528097 0.15524913
000110 51 2a 14 be 33 e9 6c 3d ff be c5 3e 76 df 18 be
       -0.14469267 0.057839584 0.3862228 -0.14928994
000120 c2 1e 40 be 81 5f 39 be a1 7b 41 be 96 8e 55 3d
       -0.18761733 -0.18102838 -0.18894817 0.052137934
000130 93 af 64 3d 13 b4 47 be f9 e5 89 be 2c db d8 3d
       0.055831503 -0.19502287 -0.26933268 0.10588679
000140 24 39 5f be f2 28 30 3e d2 07 d5 bc c2 62 69 3d
       -0.21799141 0.1720312 -0.026004706 0.05697895
000150 53 5e 4d 3e 50 ef 2d 3d fa 5e b9 3e d4 d9 11 be
       0.20055513 0.042464554 0.36205274 -0.14243251
000160 b5 4f db be 04 b6 98 bc 17 8e 65 3d c8 ab 65 be
       -0.4283425 -0.01864148 0.05604371 -0.2242881
000170 db 21 2b be 27 c4 ce 3e 97 5b fd 3e c0 71 00 be
       -0.16712134 0.40384027 0.4948394 -0.12543392
000180 7f d4 34 be de 05 05 3e 39 7f b3 be 8d 91 59 3b
       -0.17659186 0.1299052 -0.35058 0.0033198327
000190 f6 8d 0c be 97 99 1a be bc 9c 66 3e 72 38 7d 3d
       -0.13726029 -0.15097652 0.22520727 0.06182141
0001a0 28 22 36 be f6 b2 51 3e 46 ba 02 3e 7c 06 ef bc
       -0.17786467 0.20478424 0.1276637 -0.029177897
0001b0 43 af db 3e 9b 53 a9 be b3 3c 3f be e7 f5 74 be
       0.42907152 -0.33071598 -0.18675499 -0.2392193
0001c0 69 7f 47 be 1b 0a 38 be 02 35 d7 be 5a 53 9b bd
       -0.19482197 -0.17972605 -0.4203263 -0.075842574
0001d0 60 e2 8a 3e 63 42 3c 3e bc 13 85 3b 8d c1 92 3d
       0.27125835 0.183847 0.0040611904 0.07165823
0001e0 ec ce bb 3e 60 46 2b 3e ac 9c a3 bd 3a 77 af be
       0.36681306 0.16726065 -0.07988867 -0.3427065
0001f0 9f 0d c0 3d 3c b8 f7 3d 0f 8e 00 3e 2c 4c 98 3e
       0.09377598 0.12095687 0.12554191 0.29745615
000200 fc b1 6d be c4 f7 2e 3e 5e 69 36 be 54 98 4a be
       -0.23212427 0.17086703 -0.17813632 -0.19784671
000210 21 45 e1 3d d2 fb d7 bd 0e 28 d9 3d 6a b2 70 3e
       0.109995134 -0.10546078 0.10603343 0.2350556
000220 62 da 3b be 47 6a e6 be 2e 7c 35 3c 98 05 48 3e
       -0.18345025 -0.45002958 0.01107697 0.19533384
000230 06 94 6b be d4 6c 89 bd f1 61 e6 bc 47 fa a6 3c
       -0.23005685 -0.067102104 -0.028122874 0.020383013
000240 94 c4 f0 be ed 1b b1 be 71 f8 5b be b7 02 8c 3e
       -0.47024977 -0.34591618 -0.21481492 0.2734582
000250 41 60 76 3e 6d e8 39 be 2e 17 38 be 65 26 02 3d
       0.24060155 -0.1815507 -0.17977592 0.031774897
000260 7f 22 77 3e c7 40 b1 3d 05 7b 34 3e 03 26 2f 3e
       0.24134253 0.086549334 0.17625053 0.17104344
000270 2b cb 59 be 64 23 e1 bd 3b c9 09 3d ab 0d 88 3e
       -0.21268909 -0.10993078 0.033639174 0.26572928
000280 68 53 80 bd 04 4d 40 be 11 a3 78 3e 5d 38 f7 3d
       -0.062659085 -0.18779379 0.24280955 0.12071297
000290 63 7a c7 3e 10 eb a2 bd db 29 c1 3e 8d 09 86 3e
       0.3896056 -0.07954991 0.37727246 0.26179162
0002a0 9e 16 b2 3e 17 c1 8f 3e 1a 54 d1 3e 36 47 af 3e
       0.3478288 0.28077003 0.40884477 0.34234017
0002b0 56 46 80 3d 96 3a 92 bd 85 ef 5b 3e cf 00 29 3e
       0.062634155 -0.07140081 0.21478088 0.16504215
0002c0 13 28 b7 3d c2 6e 77 3e 8e bf cc be d3 88 81 3e
       0.089431904 0.24163345 -0.39989895 0.252997
0002d0 7c b9 24 3e b1 e7 7a be dd 7c 05 bd db db bc bc
       0.16086382 -0.24502446 -0.032589782 -0.023054054
0002e0 15 58 07 bd ae a9 d5 be ad 0a 7e 3e 44 f1 24 be
       -0.033042986 -0.41731018 0.2480876 -0.1610766
0002f0 32 d9 b1 3e 39 b8 d2 be 5f 9a cc 3e 53 70 85 be
       0.3473602 -0.41156176 0.39961526 -0.2606226
000300 eb fb 19 be 31 c1 5c 3d 7b e8 2c 3e c9 99 87 be
       -0.15037505 0.05389518 0.1688556 -0.26484516
000310 45 ff 19 3d 38 72 c6 3e a6 cb 2d 3e 8a ba a2 3e
       0.03759696 0.38759017 0.16972217 0.31782943
000320 2e b4 6c be 59 29 23 be f9 da 17 bd 7c 49 7f 3d
       -0.23115608 -0.15933742 -0.037074063 0.06232594
000330 c4 e0 1d be e7 77 55 be 11 8c 23 3d 2e 12 6e be
       -0.15417773 -0.2084652 0.0399285 -0.23249123
000340 0e a2 d3 be 7e e5 48 be a2 14 a1 be 2f 99 61 3e
       -0.41334575 -0.19618794 -0.31461054 0.22031091
000350 27 85 e4 be 6e f2 f5 3a bf db 96 bd cc 26 55 be
       -0.44632837 0.0018764266 -0.07366132 -0.20815581
000360 81 39 27 3e a8 b8 c6 3e 3b d2 80 bd 7d 1c 50 be
       0.1633053 0.38812757 -0.06290098 -0.20323367
000370 11 62 cc be e1 36 ea bd 16 06 a8 bd 93 80 43 3d
       -0.3991857 -0.114362486 -0.08204286 0.04773004
000380 e5 39 bb 3d a1 cf 43 3e 2a 04 6f 3d 87 5e 11 3e
       0.09141902 0.19122173 0.05835358 0.14196216
000390 9b a5 3b 3e 63 40 43 3e e9 25 e6 3e 06 d0 0b bf
       0.18324892 0.1906753 0.44950798 -0.54614294
0003a0 fc fc f7 be 7b 2b 40 3d e5 c2 84 be 6c 7a b9 3e
       -0.484352 0.046916466 -0.25929943 0.36226213
0003b0 71 70 74 be 7b 83 41 3b c4 50 22 3e ca cd dc 3d
       -0.23871018 0.0029527831 0.15851122 0.10781439
0003c0 00 57 d1 bc eb 6b e5 3d c2 b0 92 bb dd 98 19 3e
       -0.02555418 0.11202224 -0.0044766376 0.14999719
0003d0 26 57 c6 3e 8f 9c 99 3e b4 b8 91 be be 20 63 3e
       0.38738364 0.30002257 -0.2846123 0.22180459
0003e0 ec 25 62 3e 38 c0 66 3d a0 95 44 3e ef 27 83 be
       0.22084779 0.056335658 0.19197702 -0.25616404
0003f0 cf a5 44 be 9d cf 3c 3d 4f ca e7 3d 52 1c 24 be
       -0.19203876 0.046096433 0.11317884 -0.16026428

grud_cell.weight_r f4 [17, 34]
000000 11 7e 1a be 4e 34 c8 3e 34 57 79 be 78 4d ed bd
       -0.15087153 0.39102405 -0.24349672 -0.115870416
000010 17 66 5c be 5c 43 16 be 71 98 4d 3e d8 10 04 3e
       -0.21523319 -0.14674133 0.20077683 0.1289705
000020 da f5 02 3e 47 7f a0 be 98 fd 8f be d7 bc 9f bb
       0.12789097 -0.31347105 -0.28123164 -0.0048748064
000030 46 d8 cc bd 4d 12 24 be 15 30 29 be 26 7e f9 bd
       -0.100021884 -0.16022606 -0.16522248 -0.12182264
000040 17 8f 74 be 5b f4 85 3e 90 b8 23 bd d4 2d 23 be
       -0.2388271 0.2616299 -0.039970934 -0.15935451
000050 1a fb e0 bd 37 60 f7 bd 6d 75 03 3f 44 3b 0d be
       -0.10985394 -0.120788984 0.5135105 -0.1379214
000060 49 92 cd bc 28 52 69 bb 29 6a b9 3e c9 e0 50 be
       -0.025094168 -0.0035601947 0.36213806 -0.20398249
000070 72 ca 86 bd 4e 48 3c bd 7f b9 09 bf 43 8a 48 3e
       -0.06581582 -0.045967393 -0.5379867 0.19583993
000080 71 37 7a be 81 cb 0f be f9 4d 53 be e4 a2 7c be
       -0.24435212 -0.14042474 -0.20635213 -0.24671513
000090 6b 19 ad be 34 0a b2 bb bd 7c d5 3d 4c 4d e6 bd
       -0.33808455 -0.005433345 0.104241826 -0.11245212
0000a0 f6 eb 8f be fc b0 d1 bd 2c 58 c0 3d 31 30 91 3e
       -0.2810971 -0.10238835 0.093918175 0.2835708
0000b0 21 2e 9e bc 63 4e 78 3e 01 f0 83 3e 50 71 51 ba
       -0.019309105 0.24248652 0.25769046 -0.0007989602
0000c0 00 72 3c be 1e e8 9b bd 70 b3 40 3e 53 b2 df 3e
       -0.18402863 -0.07612632 0.1881845 0.43690738
0000d0 64 89 54 bb fc 8f a9 3e 7e 63 ca 3d 9f 62 50 3d
       -0.0032430524 0.33117664 0.09882258 0.050875302
0000e0 83 17 99 3e 8d ab 89 be b4 ab 96 bd f9 1c c1 bd
       0.2990075 -0.26888695 -0.073569685 -0.09429354
0000f0 65 7f 3f 3e 3c e7 23 3d a2 4d 88 bc 89 fa 9e be
       0.18700941 0.040015444 -0.01663858 -0.31050518
000100 b8 83 c9 be 40 23 b1 3e 8a 40 d3 be d5 e3 3c bd
       -0.39358306 0.34597206 -0.41260177 -0.046115715
000110 d0 f8 76 be d1 a6 72 be d8 08 93 3e cc d1 61 3e
       -0.24118352 -0.23696448 0.28717685 0.22052687
000120 b1 37 de bd 09 2b 2b 3e d5 ac 03 3e de 93 84 bd
       -0.10850466 0.16715635 0.12858899 -0.06473516
000130 58 b6 5f 3e 22 4a b2 3e 9a 05 93 3e 9d 51 ab bc
       0.21846902 0.34822184 0.2871521 -0.02091294
000140 f9 90 97 be de f1 3a be e8 59 7d 3b c7 e5 b0 bc
       -0.29602793 -0.18256328 0.0038658325 -0.021593941
000150 da 17 1a 3e 23 25 e0 3e c4 8c eb 3e 97 42 9b 3e
       0.15048161 0.43778333 0.46005833 0.30324242
000160 ed 76 c7 be 1b 1b f3 be de d5 3d 3e 57 94 d8 be
       -0.3895792 -0.47481617 0.18538615 -0.42300674
000170 75 2f 16 3e 33 6e 04 bd 72 71 19 bd 72 20 ed be
       0.14666541 -0.032331657 -0.037461706 -0.46313816
000180 26 c8 db be 39 f2 c9 be 9c 1a 12 be af d1 86 3d
       -0.4292614 -0.39442614 -0.14267963 0.06582963
000190 0a 9d c4 be e2 29 bb 3d 73 90 3b be 84 d2 4c 3e
       -0.3840106 0.09138848 -0.18316822 0.2000218
0001a0 0f c4 87 3e da 1f 6f 3e 44 51 47 be 8a a7 84 3e
       0.26516768 0.23351994 -0.19464594 0.25909072
0001b0 da 14 11 be a4 b0 9e 3d 91 9f 1c be 07 a5 de 3e
       -0.1416811 0.07748535 -0.15295245 0.4348528
0001c0 b4 64 d9 3e 16 2b 93 be 42 a6 28 3e 52 cb 4f be
       0.42459643 -0.2874381 0.16469672 -0.20292404
0001d0 8a 59 81 3d 12 42 60 3e 8e ef 66 3e ab 95 ef bd
       0.06315906 0.21900204 0.2255232 -0.11698469
0001e0 31 54 8b 3e a4 fc 99 3d bf ed ac be be 93 d6 3d
       0.2721267 0.075188905 -0.33775136 0.10477398
0001f0 1f 69 99 3d 8a 94 e7 bd 7b ba c4 be 24 f5 13 bd
       0.074907534 -0.113076285 -0.38423523 -0.036122456
000200 a6 03 4c be 70 2e 27 be 84 fc 0b bf 37 7b fa 3c
       -0.19923267 -0.16326308 -0.54682183 0.030576332
000210 67 c3 50 be e2 32 2c 3d a4 a7 a8 3e bc e2 e5 bc
       -0.2038704 0.042040713 0.329404 -0.028062217
000220 7e 0c d5 bd c8 32 71 3e ce 13 8e be ac 46 56 be
       -0.10402773 0.23554528 -0.27749485 -0.20925397
000230 4c b7 92 bd 99 f6 af bd d7 01 87 3e 13 5c 0e bc
       -0.07163867 -0.08591957 0.2636859 -0.008688944
000240 f1 b2 67 be 2f 94 43 be 06 60 1f 3c c5 97 0b 3e
       -0.22626854 -0.19099496 0.009727484 0.13632114
000250 e5 cf 95 be 68 48 68 3d 57 d7 ae 3d a3 d4 b1 bd
       -0.29260173 0.056709677 0.085371666 -0.08683135
000260 3d 33 50 3e 2b 67 fb 3d 11 1a 14 3e 29 38 46 3e
       0.20332046 0.12275537 0.14463069 0.19357361
000270 d6 84 80 be 2f cd 1e 3e 4f 51 ad 3e 76 33 61 be
       -0.25101346 0.15507959 0.33851096 -0.21992287
000280 77 4f e5 bd e9 aa c9 3e b5 45 24 bd 94 d2 ef be
       -0.11196797 0.39388207 -0.04010554 -0.46840346
000290 33 dd 0f be db 53 df 3d e0 ed 0b bf fa 28 c2 bd
       -0.14049225 0.10904666 -0.54659843 -0.09480472
0002a0 aa 29 92 be 82 bd 31 bd 5c 49 f4 3d 47 40 9e 3c
       -0.28547412 -0.04339362 0.11928055 0.01931776
0002b0 c7 2c 4f 3e 23 4c 01 be e3 23 2b be bf b0 8d bd
       0.20231925 -0.126267 -0.16712908 -0.06918477
0002c0 9b e5 35 3e 03 ca 58 be 38 4e 2c 3e ab ee 9a 3e
       0.17763369 -0.21170811 0.16826713 0.30260214
0002d0 c8 f3 a4 be cf 75 0f 3e 2c 30 c2 be e6 8b c3 3e
       -0.3221724 0.14009784 -0.37927377 0.38192672
0002e0 14 bf b6 bd 4a 2e 95 3e c8 3c a2 3e 18 6f e9 3d
       -0.08923164 0.29136878 0.31686997 0.113981426
0002f0 90 2e ed 3e 81 1b 7d 3e 70 b7 84 bd b2 d6 9d be
       0.46324587 0.24717523 -0.064803004 -0.30827862
000300 75 66 5f be a5 01 31 bd 9a c0 ec bd 6b ed 14 3e
       -0.21816428 -0.04321446 -0.11560173 0.14543693
000310 1b 02 62 3e 84 46 bf 3c 8e 4b 98 3e 3e 9a 1c 3e
       0.22071116 0.023349054 0.29745144 0.15293214
000320 32 28 ad bd f0 e7 de 3e 0f d9 f8 be 6c ac b7 3c
       -0.08454932 0.4353633 -0.48603103 0.022421084
000330 1d 0c f4 bd a9 b8 c3 be 02 92 bc 3c 14 d8 09 3d
       -0.11916373 -0.38226822 0.02301884 0.033653334
000340 e4 d7 29 bd ac b8 c2 3d de 52 ac 3d ac ef 02 bd
       -0.041465655 0.095078796 0.08414243 -0.03196685
000350 4d e8 e0 3d da da 9a 3d a5 1a 25 3d 36 dc b4 be
       0.10981808 0.07561274 0.040308613 -0.35324258
000360 ec 33 a6 3c 33 6f 17 3d 66 25 0d 3c 94 46 95 be
       0.02028843 0.036971282 0.0086148735 -0.2915541
000370 86 37 f6 3c 63 53 ae 3d aa d0 e0 3e 53 78 db bd
       0.030055773 0.085119985 0.43909198 -0.107163094
000380 dc a9 05 bf d3 5c 75 be a2 0c 12 3e 5b 54 17 be
       -0.5221231 -0.23961191 0.14262632 -0.14778273
000390 6d 74 9e be 14 eb 63 3d ce 73 7f 3e 6d e1 8a 3c
       -0.309482 0.05564411 0.2494652 0.016953195
0003a0 a8 6c b7 bc 07 af ac be b5 e8 f3 bd d6 fe 6a ba
       -0.022390679 -0.33727285 -0.1190962 -0.0008964365
0003b0 07 ad 92 3e 03 7b 98 be 39 2e a3 3d 46 c8 aa 3e
       0.28647634 -0.2978135 0.07967801 0.33355922
0003c0 77 b2 a3 3c 29 09 56 3e 7d 5f 95 3e b5 f4 52 3e
       0.01998256 0.20901932 0.29174414 0.20601161
0003d0 c7 9e a3 3e 95 fe f7 3d f2 a9 c2 3d 22 34 4e be
       0.31957075 0.121091045 0.09505071 -0.20137075
0003e0 26 e2 68 3e a2 c9 20 bd 69 0d 4b be 1c bc 02 3e
       0.22742519 -0.039254792 -0.19829334 0.1276707
0003f0 50 1a a1 be c1 e2 40 3e 0e 85 9c 3b 41 38 c4 3d
       -0.31465387 0.188365 0.0047766035 0.09581042

grud_cell.weight_h_tilde f4 [17, 34]
000000 49 09 4c bd d5 38 82 3e 9d 8f 77 be 27 a4 b1 bc
       -0.049813543 0.25433984 -0.24175878 -0.02168472
000010 6a 7f 25 3c c7 63 ad bd 31 cd 23 3e 70 2b 12 3e
       0.010101179 -0.08466297 0.15996243 0.14274383
000020 df 8e e5 be 98 f9 bb bd ac 95 17 bc 14 f3 22 3d
       -0.44835564 -0.091784656 -0.009251993 0.0397826
000030 1b da 24 be 67 95 46 bd f1 04 02 3e 4d d6 4a be
       -0.16098826 -0.048482325 0.12697197 -0.19808312
000040 22 3f 8b bc 09 04 3b 3e 28 35 f7 3e 7f 77 38 be
       -0.016997878 0.18263258 0.48282743 -0.18014334
000050 c7 89 65 be eb 89 82 3d 3b fa 99 3e 38 04 d7 be
       -0.22415839 0.06373962 0.30073723 -0.41995406
000060 fb b1 a8 be ac 54 b0 bd c7 56 bb 3e f3 d5 50 3e
       -0.32948288 -0.086099 0.36589643 0.20394115
000070 74 6b 16 be b8 b5 6c be 24 f8 e5 be 55 99 95 3e
       -0.14689428 -0.23116195 -0.4491588 0.29218546
000080 fa c4 a1 3c 1a b1 c6 be 06 47 84 3c 20 30 20 3c
       0.019747246 -0.38806993 0.016147148 0.009777099
000090 90 91 d8 bd 09 45 59 be 31 66 ab bd cc ba 47 be
       -0.10574639 -0.21217741 -0.08369101 -0.19504851
0000a0 1c ee 65 be 40 18 38 be 8b 22 29 3d 5a a5 e7 3d
       -0.22454113 -0.17978 0.04129271 0.11310835
0000b0 fc 83 bc bc f6 1a b5 bc 1d e6 e3 3e a2 5e 73 3d
       -0.023012154 -0.022107583 0.445115 0.05941642
0000c0 53 ad af bd c9 24 72 3e 99 50 3d bc 72 70 87 3e
       -0.08577981 0.23646845 -0.0115548605 0.26452976
0000d0 01 a1 f6 3d 73 3c ab 3e 23 43 d5 bd 59 62 79 be
       0.12042428 0.33444557 -0.10413196 -0.24353923
0000e0 f5 70 a0 3e 5f d9 2e bd 87 30 b1 3d 6c 60 02 3f
       0.3133618 -0.04268777 0.08651834 0.5092838
0000f0 75 5c 2a 3e cb 23 00 3e f3 b8 bd be 16 ff cc bd
       0.16636832 0.12513654 -0.37055168 -0.10009591
000100 fd 63 00 bf 08 57 1c 3e fb a7 b6 be 5e 33 6e 3d
       -0.5015257 0.15267575 -0.35675034 0.058154456
000110 51 cb 3f 3e c6 73 7e be 8f ed 56 3e 9a 23 11 3e
       0.18729903 -0.24848852 0.20989059 0.14173737
000120 ef 83 97 3c 58 e0 9a bb 83 82 59 bd d9 d1 e0 bd
       0.018495528 -0.004726451 -0.05310298 -0.10977525
000130 f8 8c 5a 3e ec 16 9b 3e ae a9 ed bd e5 3c 1a 3e
       0.21342838 0.30290926 -0.116046295 0.15062292
000140 1f da 24 3e 3b 54 4d 3e 0b a6 85 3e 14 ac 2f 3e
       0.16098832 0.20051663 0.26103243 0.17155486
000150 1c fd ef bd 53 b6 21 3e da e4 46 3e de d1 40 3e
       -0.11718199 0.15792207 0.19423237 0.18830058
000160 68 3e 4f be 88 11 05 bf 2d a8 0a 3f fa 99 3b bd
       -0.2023865 -0.51979876 0.54162866 -0.04580114
000170 04 d2 82 be 81 8b 07 bd 7d a8 93 3e c1 46 93 be
       -0.25550854 -0.033092026 0.28839484 -0.28764918
000180 07 da a2 be 14 aa b1 be 24 7d f9 3b 68 82 81 3e
       -0.31806967 -0.34700072 0.007613795 0.25294805
000190 12 fd ce bd 49 f1 59 be 8d de e5 bc d4 ff 55 3e
       -0.10106863 -0.21283449 -0.028060222 0.20898372
0001a0 af 1e 11 3d 87 bb bd 3d 6b fe 2f bd 44 ef 10 be
       0.035429653 0.092642836 -0.04296724 -0.14153773
0001b0 95 4c 50 be 58 01 47 3d 66 31 e3 bd 77 38 8e be
       -0.20341714 0.048585266 -0.110934064 -0.27777454
0001c0 dc 8a 34 be ae 2a a1 3d e0 1d 4c 3d 23 d5 75 be
       -0.17631096 0.07869469 0.04983318 -0.24007086
0001d0 2a 29 ff bd c9 24 31 3e 8e 66 b8 bc 58 3c d1 be
       -0.12459023 0.17299189 -0.02250984 -0.4086635
0001e0 a1 ee 08 bf 89 95 db be e6 49 e8 3e 7c d2 29 3d
       -0.5348912 -0.42887524 0.4536888 0.0414605
0001f0 a1 d4 ce be 92 ac 3e bd 33 ab 78 3e ba b8 23 bd
       -0.40396598 -0.046551295 0.24284057 -0.03997109
000200 ec e5 11 3c 14 ec 8b 3e 39 b3 be 3e 17 f3 72 be
       0.008904915 0.2732855 0.3724611 -0.23725544
000210 47 08 39 3e 91 1b 00 bf c4 86 82 3e 31 8c 8d 3e
       0.18069564 -0.50042063 0.25493443 0.2764602
000220 4b 9c d5 bc 44 95 7a 3e 82 89 e6 bd 99 76 32 bd
       -0.026075503 0.24471003 -0.11256696 -0.043570135
000230 37 42 5e 3c 8b 45 9a 3d cc eb 40 3d 10 ba 5c 3d
       0.013565592 0.075327955 0.047099873 0.05388838
000240 37 ce a6 3e b7 56 15 3e 05 77 9b 3e df 07 84 be
       0.32579204 0.1458386 0.30364242 -0.25787255
000250 b3 db 19 3d 34 7c b5 3e 99 7b 76 be 9b 88 6e 3e
       0.037563037 0.35446322 -0.24070586 0.23294298
000260 51 f6 0e be 48 ee 6d be 70 ad a2 be ef 87 fd 3d
       -0.1396115 -0.23235428 -0.31772947 0.12379443
000270 69 97 58 3e d1 06 c2 bc d7 1f 2f 3e ce bd cc 3d
       0.21151508 -0.023684891 0.1710199 0.0999714
000280 4f cd d8 3e 84 fd af be e8 24 0c bf 73 2e 84 be
       0.42344138 -0.34373105 -0.54743814 -0.25816688
000290 bc bb 01 3f 99 39 0c 3f 65 23 c8 3e 38 1a 37 3d
       0.50677085 0.5477539 0.39089504 0.04470274
0002a0 7e 13 f1 3e 42 5d 73 bd 5f 93 bc 3d 27 5f 95 3e
       0.47085184 -0.05941511 0.09207796 0.29174158
0002b0 07 3a 9b 3e c7 e4 44 3e b1 ae 32 bd c5 69 83 3e
       0.3031771 0.19227897 -0.04362363 0.25666633
0002c0 77 fb f8 3d 87 9d 40 3e fb 14 a7 be 38 c7 b6 3d
       0.12157338 0.18810092 -0.32633194 0.08924717
0002d0 6c 2d 0e 3e 21 5b 80 3e 67 ad d9 bc f3 48 9d 3d
       0.13884515 0.25069526 -0.026571942 0.076799296
0002e0 df 53 31 3d cc 0c 98 be 13 f3 98 be 57 30 83 3e
       0.043292876 -0.29697263 -0.2987295 0.25622818
0002f0 42 2a dc 3e 29 e8 7e 3e 55 14 bf be 1d 77 a7 be
       0.4300099 0.2489325 -0.373202 -0.32708064
000300 2b 4f b8 bd c1 71 e3 be 28 26 e7 be 81 80 f6 bd
       -0.08999475 -0.44422725 -0.45146298 -0.12036229
000310 c9 f3 cb 3e 80 e2 20 be 7b df 30 bd 93 0c b0 bd
       0.3983443 -0.15711403 -0.043181878 -0.08596148
000320 dd 5f ae bd db bd 5a 3e 92 4f 8b be 5d 1c 05 3e
       -0.08514378 0.21361487 -0.27209145 0.12999101
000330 53 84 86 3e 33 67 72 3e 1d 01 45 bd 66 12 ce 3e
       0.2627283 0.2367218 -0.048096765 0.40248412
000340 48 aa 81 3e 76 de b2 3d 5e 5b 59 3e 86 17 a9 bd
       0.25325227 0.08733837 0.2122626 -0.0825644
000350 7f 6c a9 3e b2 70 4d be a7 ff 28 be fe 3d 3c 3e
       0.33090588 -0.20062521 -0.16503774 0.18383023
000360 cb c8 20 be 8a 11 a1 be 40 9b 87 3e 56 d1 88 3d
       -0.15701596 -0.31458694 0.26485634 0.06680553
000370 27 eb 83 3e 9c 95 29 be 15 ba 33 be 0c db b9 bd
       0.25765345 -0.16560978 -0.17551453 -0.09074983
000380 35 36 47 3d 65 4c a5 3e 93 cc 14 be 06 6f 02 3f
       0.04863568 0.32284847 -0.14531164 0.5095066
000390 b9 b1 1d bd 13 92 c3 be 79 ba b7 be ac 72 02 be
       -0.038499568 -0.38197383 -0.35884455 -0.12739056
0003a0 5b 31 a2 3d 8d 9c 8b 3d f4 c6 9a 3d 5b 2a c1 be
       0.0791957 0.06816969 0.075574785 -0.37727627
0003b0 1c 26 e4 3e f4 08 18 3e 45 83 cb bd cd 66 01 be
       0.44560325 0.14847165 -0.09937147 -0.12636872
0003c0 88 44 3e 3e c6 2d 3a 3e 77 7a c0 bb ea af c3 bd
       0.1858083 0.18181524 -0.005873974 -0.09555037
0003d0 b4 2c 34 be ed 49 39 be fa a5 96 3e 42 9d 1f be
       -0.17595178 -0.18094607 0.29423505 -0.15587333
0003e0 cf 33 4e 3e b9 ba d6 bc 9c 40 42 be e6 84 90 3d
       0.20136951 -0.026212083 -0.18969959 0.07056598
0003f0 ec 1e ba 3b d8 c2 87 3d 88 c0 33 3e c1 45 74 3d
       0.0056799557 0.0662896 0.17553914 0.059636835

grud_cell.weight_gamma_x f4 [17]
000000 69 34 2f 3f 1d a6 f9 3e a9 29 b3 3e 01 da 83 3e
       0.68439347 0.48759547 0.34992722 0.2575226
000010 58 d6 77 3f d3 20 65 3f 67 df 9b 3e 34 41 5c 3e
       0.9681144 0.8950321 0.3044388 0.21509248
000020 02 df 5a 3f 6f d3 74 3e 8e 18 84 3f c1 f6 37 3f
       0.8549653 0.2390878 1.0319993 0.7186089
000030 8b bd 4a 3f dc b1 66 3e 4c 3b 86 3f f7 40 18 3f
       0.7919547 0.22528785 1.0486846 0.5947413
000040 5d b7 e6 3e
       0.4506177

grud_cell.weight_gamma_h f4 [17]
000000 0e 87 a9 3e 07 6a 40 3e 1c 80 b6 3e a1 7a 65 bc
       0.3311085 0.18790446 0.35644615 -0.014006288
000010 b3 6b ac ba 9d b6 4e bc 05 86 37 3f da 9d 92 bc
       -0.0013154655 -0.012616781 0.7168887 -0.017897535
000020 20 c8 05 bb d4 3d 30 3f 7e ac f9 3e e4 3c 77 3e
       -0.0020413473 0.6884434 0.48764414 0.24144322
000030 82 5b 31 3e 10 28 06 ba 01 eb 68 3e 68 e2 19 3f
       0.17320064 -0.0005117664 0.22745897 0.60111094
000040 8d 04 24 3f
       0.64069444

grud_cell.bias f4 [17]
000000 ae f8 2f 3e 76 27 4c 3e 11 4a 02 3e 52 65 d4 bd
       0.17184708 0.19936928 0.12723567 -0.10370888
000010 68 3b 00 be c9 2f 0e 3e c3 3b 11 be fe c6 35 be
       -0.12522662 0.13885416 -0.14182954 -0.17751691
000020 bc b5 15 3e 34 95 1a 3e f3 6f 07 be 5f 83 02 be
       0.14620107 0.15095979 -0.13226299 -0.12745427
000030 0f 85 0b be ae 44 1f be 5b 5b 22 3e 88 7a 3a be
       -0.13624977 -0.15553543 0.15855162 -0.18210804
000040 8d c4 0b be
       -0.13649197

fc.weight f4 [6, 17]
000000 8b fa f7 3e 62 a1 47 3e 3c ca a1 3e ac 95 d0 be
       0.48433337 0.19495156 0.31599605 -0.4073919
000010 18 5d d2 be 90 f3 04 3f a5 2e cb be a7 53 9b be
       -0.4108665 0.51934147 -0.39684024 -0.3033726
000020 dc ae 03 3f 92 17 04 3f ce a4 09 bf 34 14 ae be
       0.5143869 0.51598465 -0.53767097 -0.3399979
000030 fd 52 f1 be df 0d 02 bf fc 1c 09 3f cb 99 b3 be
       -0.47133628 -0.50802416 0.5355985 -0.35078272
000040 ab 4f 02 bf 2b 09 05 be e3 7f ef be 1d b3 07 bf
       -0.50902814 -0.12991779 -0.46777257 -0.5300768
000050 83 73 38 3e 55 cf 90 3e 5d 62 a2 be 1e 8b 86 3e
       0.18012814 0.28283182 -0.3171567 0.26278013
000060 dd d5 09 3e ee be b9 bd e4 d0 ac be d0 cf f8 3e
       0.13460489 -0.0906962 -0.3375312 0.48596048
000070 79 2c b4 3e d3 59 b6 3d 45 1a b5 3e 22 47 dc bd
       0.3519018 0.08903851 0.35371605 -0.10755755
000080 6f 97 17 3f 9d 48 9f 3e c2 cc be bd d6 57 c9 be
       0.59215444 0.31110087 -0.09316398 -0.39324826
000090 fe c1 fb be ea 01 3c 3d d1 4b 44 3e a5 11 00 bf
       -0.49171442 0.045900263 0.19169547 -0.50026923
0000a0 66 9a c5 3e d0 7a 98 3e ae 5c a0 be 23 a9 d8 be
       0.3859436 0.29781199 -0.3132071 -0.4231654
0000b0 3f 1d c7 3e 89 77 0c 3e af 8e 36 3e c3 4b 87 3e
       0.388895 0.13717474 0.17827867 0.2642499
0000c0 50 ce 02 bf 7a 93 85 3e 82 ac fd 3e 7b 35 f6 bd
       -0.5109606 0.26089078 0.49545676 -0.12021919
0000d0 ae c7 9b be 15 44 ff be 68 36 a0 3e 88 ca 4f 3e
       -0.3042578 -0.4985663 0.3129151 0.20292103
0000e0 f1 a6 09 bf 59 c8 39 3e 1f ed 28 3e 08 ee 38 be
       -0.5377036 0.18142833 0.16496705 -0.18059552
0000f0 d4 21 06 bf d6 bb b8 3e 01 10 9a 3e f0 11 42 3e
       -0.5239537 0.36080807 0.30090335 0.18952155
000100 2a b0 6a 3e 59 4f 7c be e7 9f 33 3e be 1d e1 3e
       0.22918764 -0.24639644 0.17541467 0.43968004
000110 9c 9e b4 be c8 20 00 bf 0f d6 aa be d0 a9 3f 3e
       -0.3527726 -0.5005002 -0.3336644 0.18717122
000120 b1 0d a4 3e 59 e5 b8 be 80 29 9b 3e 8d 38 cf 3e
       0.32041696 -0.36112478 0.303051 0.40472832
000130 19 4f f9 bd ab 99 d7 be ec 07 e8 3e ac 05 dd 3e
       -0.1217329 -0.42109427 0.45318544 0.4316839
000140 c4 3b 8f 3e 21 7d 9d 3e b1 52 43 be 55 41 f4 3d
       0.27975285 0.30759528 -0.19074513 0.119265236
000150 99 54 e2 3d 3f 66 71 bd c1 6e 89 be 38 12 c6 be
       0.11051292 -0.0589354 -0.2684231 -0.38685775
000160 f6 b5 83 3d 1d 79 21 3e 8a 15 91 be f2 5e 52 3e
       0.06431191 0.15768857 -0.28336746 0.20544031
000170 3d 39 d8 3e 74 cb e6 be 35 aa 56 be 97 8d 70 3e
       0.4223117 -0.45077097 -0.20963366 0.23491512
000180 60 59 4c 3e 88 9c eb 3e c6 54 d0 3e 67 95 f6 be
       0.19955969 0.4601786 0.40689677 -0.4816086
000190 45 f6 e0 3e b3 61 b3 3e
       0.4393789 0.35035476

fc.bias f4 [6]
000000 ba ba b5 3d 43 6d d1 be d7 85 00 bd eb a7 14 bd
       0.08873506 -0.40903673 -0.03137764 -0.03629295
000010 1e 47 ed bc a3 d2 95 bd
       -0.028964575 -0.073155664
