models/model_20230622-164313.pt (torch, 10395 bytes, 8 tensors)

grud_cell.weight_z f4 [17, 34]
0.50227463 0.34119213 -0.63327837 0.42241192 0.2629691 0.042463526 0.0542062 0.20042884
0.16919753 -0.21852876 0.4966527 0.17647925 0.24631017 0.09910369 -0.42356554 -0.049991913
0.16139986 -0.23570073 -0.10577223 0.1558019 -0.0892225 0.103513815 -0.24779934 -0.049252383
-0.43418702 -0.042585965 0.1255567 -0.1418908 0.06393515 -0.20500952 0.19501899 -0.28129357
0.084938206 -0.059858534 0.018261168 0.56129825 0.39935696 0.005498808 0.14917007 -0.34906423
0.17111321 -0.06736316 0.3261829 0.31773838 0.08721963 -0.38130015 -0.2309679 0.45514262
0.3993754 0.014060462 0.060718283 -0.26698068 -0.6893411 0.2676546 0.27343577 0.76825976
0.79060286 -0.49529123 -0.24935743 0.20813508 -0.45482117 -0.2764304 0.48082003 0.0083852485
-0.07644883 -0.2689369 -0.1345465 -0.59938353 -0.66510993 -0.28662845 -0.17200598 0.23626278
0.21270642 -0.4997488 -0.8312168 -0.29960066 -0.3003264 0.49283108 0.060308035 0.28758973
-0.38863537 0.1018561 0.25198618 -0.068216324 0.069322534 -0.2046323 0.19731046 -0.0035341883
-0.14665909 0.19383933 0.001681189 -0.24593437 -0.19614646 0.49278423 -0.318489 -0.20828654
0.08646648 -0.097449094 -0.28232583 -0.45277384 -0.38122433 0.19848691 0.013448488 -0.056831483
-0.33217362 -0.37471497 -0.25311762 -0.15274154 -0.30477825 -0.34760022 0.29121697 -0.29660565
0.37124714 -0.13203593 -0.1913476 -0.010957002 -0.33292675 -0.06654864 -0.05779977 -0.20358352
0.032618694 -0.22580187 -0.21566796 -0.252181 -0.1572486 -0.18240662 -0.17814514 -0.25241983
0.36185828 -0.10519858 0.4538485 0.3626162 -0.46335882 -0.0025542732 -0.20761487 -0.3749891
-0.15792397 -0.14661841 -0.10972026 -0.16494115 0.20934491 -0.14990547 0.43097377 0.08651464
-0.23734829 -0.3357205 0.19489579 0.44973764 0.50819594 -0.4125011 -0.20363134 0.20857655
0.19137606 -0.24638 0.09399781 -0.37488648 0.04146068 0.39153162 0.3276969 -0.43132865
0.21952735 0.054008003 0.038975578 -0.16675004 0.3021752 0.1354559 -0.14587283 0.03672956
-0.12450181 -0.3588671 0.014267531 -0.08367581 0.3289485 -0.22012383 -0.22059485 -0.09432827
-0.6022601 0.31986874 0.36177582 -0.39499524 0.18795498 0.14183334 -0.40775928 0.33610156
0.12016657 0.1197188 0.27319905 0.04986848 -0.21847504 0.07634881 -0.24600928 0.14237012
0.5414054 0.1286773 -0.07440844 0.05210808 -0.257116 -0.12348002 0.112943016 0.1324719
-0.30690095 -0.2953386 0.4649983 0.029942207 -0.11055446 0.13361648 0.098192886 -0.109581776
0.10073035 0.19480813 0.2718935 0.3982113 0.10982978 -0.22241178 -0.36830235 0.29749283
0.21778283 -0.19430234 0.5031458 -0.0097226575 0.3361229 0.3190232 -0.20926508 -0.44482392
-0.68430316 0.4754692 0.19854175 -0.090451404 -0.39087912 -0.11924416 -0.67579085 0.3529751
0.41915494 0.17668694 0.3799781 -0.23490766 0.16720746 -0.39181602 -0.033865616 -0.210648
0.3216316 0.04682577 -0.26835206 -0.6583227 -0.7777657 -0.7318269 0.17808156 -0.003220397
-0.20214127 0.042675663 -0.18774661 -0.36300543 -0.2419435 -0.073303886 -0.10853105 -0.6081414
00000000: 1295 003f bcb0 ae3e 881e 22bf 6046 d83e
00000010: e3a3 863e 3cee 2d3d 5207 5e3d 383d 4d3e
00000020: 1e42 2d3e 01c6 5fbe 4349 fe3e fab6 343e
00000030: bc38 7c3e e0f6 ca3d 95dd d8be 52c4 4cbd
00000040: 0146 253e 885b 71be 1c9f d8bd 898a 1f3e
00000050: 49ba b6bd 0dff d33d 1cbf 7dbe debc 49bd
00000060: c34d debe 9f6e 2ebd f091 003e d24b 11be
00000070: 6ff0 823d 04ee 51be 0fb3 473e b605 90be
00000080: 15f4 ad3d 392e 75bd 7298 953c 3eb1 0f3f
00000090: 8478 cc3e 582f b43b 0ac0 183e 8cb8 b2be
000000a0: 4d38 2f3e b2f5 89bd 7201 a73e 9bae a23e
000000b0: 35a0 b23d c639 c3be d982 6cbe 7408 e93e
000000c0: ef7a cc3e da5d 663c bcb3 783d b1b1 88be
000000d0: a978 30bf 060a 893e c6ff 8b3e acac 443f
000000e0: f364 4a3f d096 fdbe 8e57 7fbe 5d21 553e
000000f0: 52de e8be 4988 8dbe 0b2e f63e 4862 093c
00000100: 3491 9cbd 19b2 89be 8fc6 09be 3371 19bf
00000110: a544 2abf f7c0 92be 5622 30be dfee 713e
00000120: b6cf 593e 13df ffbe a0ca 54bf 4265 99be
00000130: 62c4 99be 5b54 fc3e 8f05 773d f63e 933e
00000140: 37fb c6be ee99 d03d 5504 813e 00b5 8bbd
00000150: f9f8 8d3d 218b 51be c10b 4a3e d79d 67bb
00000160: cd2d 16be d17d 463e 585b dc3a 38d6 7bbe
00000170: 9eda 48be 374e fc3e fd10 a3be 1149 55be
00000180: 5615 b13d 6493 c7bd 038d 90be f9d1 e7be
00000190: d62f c3be 2740 4b3e 0c57 5c3c 21c8 68bd
000001a0: a912 aabe a4da bfbe a298 81be 4768 1cbe
000001b0: e50b 9cbe a8f8 b1be 641a 953e b2dc 97be
000001c0: 1b14 be3e 6d34 07be a0f0 43be ff84 33bc
000001d0: 6075 aabe a74a 88bd 74bf 6cbd 3378 50be
000001e0: 2e9b 053d 9b38 67be 10d8 5cbe de1d 81be
000001f0: c705 21be cdc8 3abe ae6b 36be 2c3d 81be
00000200: 7d45 b93e 5a72 d7bd d55e e83e d5a8 b93e
00000210: 5e3d edbe 9865 27bb fe98 54be 92fe bfbe
00000220: d2b6 21be 2323 16be 04b5 e0bd 55e6 28be
00000230: 835e 563e d280 19be 98a8 dc3e 962e b13d
00000240: 6e0b 73be 8fe3 abbe c392 473e 0344 e63e
00000250: 2119 023f 5833 d3be bc84 50be 1795 553e
00000260: 16f8 433e 0a4b 7cbe ec81 c03d 1ff1 bfbe
00000270: add2 293d d576 c83e e3c7 a73e 1cd7 dcbe
00000280: c7cb 603e 7f37 5d3d dba4 1f3d 86c0 2abe
00000290: b5b6 9a3e f4b4 0a3e b05f 15be bc71 163d
000002a0: cefa febd 6ebd b7be 5dc2 693c 395e abbd
000002b0: f06b a83e 2468 61be 9ee3 61be 2e2f c1bd
000002c0: b82d 1abf d6c5 a33e ae3a b93e d13c cabe
000002d0: 4577 403e c23c 113e d3c5 d0be 8115 ac3e
000002e0: e419 f63d 212f f53d bfe0 8b3e e442 4c3d
000002f0: ecb7 5fbe c45c 9c3d dbe9 7bbe 79c9 113e
00000300: 8b99 0a3f fbc3 033e 7463 98bd 486f 553d
00000310: b5a4 83be 18e3 fcbd ab4e e73d b7a6 073e
00000320: 1f22 9dbe 9f36 97be 4214 ee3e 5c49 f53c
00000330: 606a e2bd c2d2 083e 5a19 c93d 696c e0bd
00000340: b74b ce3d c87b 473e a035 8b3e 5ae2 cb3e
00000350: 70ee e03d eabf 63be 2092 bcbe fb50 983e
00000360: 7602 5f3e 31f7 46be 2ace 003f c84b 1fbc
00000370: 4d18 ac3e 0257 a33e 9649 56be f6bf e3be
00000380: 7e2e 2fbf b370 f33e 874e 4b3e 963e b9bd
00000390: 4f21 c8be 4836 f4bd a100 2dbf 27b9 b43e
000003a0: 7a9b d63e 6ced 343e 7d8c c23e a28b 70be
000003b0: 6f38 2b3e 1c9c c8be acb6 0abd 1cb4 57be
000003c0: e6ac a43e 61cc 3f3d 7165 89be d687 28bf
000003d0: a71b 47bf 0259 3bbf 035b 363e 4c0d 53bb
000003e0: 1ffe 4ebe adcc 2e3d a640 40be d9db b9be
000003f0: 09c0 77be 5920 96bd 8745 debd 28af 1bbf

grud_cell.weight_r f4 [17, 34]
-0.17673875 -0.11934268 -0.012485329 -0.12061451 0.30840784 0.14948088 0.05939938 0.16432211
-0.317273 0.3314268 0.00069116784 0.42833874 0.44727537 -0.20328996 -0.23846807 0.007452075
-0.299909 -0.14129737 -0.080074325 -0.3480861 0.3225169 -0.12814279 -0.4072646 0.5541027
-0.040531736 -0.43085817 0.42021883 -0.22706819 -0.17059405 -0.27058902 0.32984704 0.4303456
0.1742975 -0.16118494 -0.29899246 -0.031707436 -0.27239665 0.4983752 0.01990289 -0.35904124
-0.28357166 0.38812584 -0.12019216 0.058398508 -0.2330241 -0.0970215 -0.06688261 -0.19022301
-0.15847816 -0.016235271 -0.17603494 0.34112096 -0.16881147 -0.061838906 0.14323072 0.09579337
-0.27450553 0.2139417 -0.25483468 -0.2199585 -0.24159233 -0.25694042 -0.10352087 -0.3285529
0.21845123 0.33426073 -0.16249053 -0.00095748896 -0.16741094 -0.42305854 0.060693353 -0.08747584
0.25754195 -0.37806883 0.46648398 -0.17789061 0.18008928 0.6237662 -0.10558385 -0.31264764
0.08405163 0.18441907 -0.23038234 -0.08889411 -0.40703183 0.18809481 0.22544777 0.20290971
0.3658156 -0.09572171 -0.18999575 -0.10937034 -0.042230766 0.2531125 0.2535535 0.065453194
-0.45617035 0.22563152 -0.17081194 0.043748613 -0.12021058 0.0057437588 0.49754035 -0.04325147
-0.35102814 0.18508631 0.081279464 0.35865152 0.02343286 -0.338292 -0.1793448 -0.1302777
0.2954449 0.54964757 0.24323346 -0.028441401 -0.061162375 0.04095355 0.32556316 0.5390492
-0.3123845 0.33682695 0.21295084 -0.2173886 -0.101832435 -0.11946792 -0.020652646 -0.36527634
0.21547899 -0.17295358 -0.23606016 0.30076864 -0.094302736 0.03808158 0.36389965 -0.40945104
0.27290386 0.24510586 0.16388439 -0.24374928 -0.22896554 0.03756006 -0.14399731 0.009844112
0.34732413 0.21827088 -0.02244297 0.5144336 0.145475 -0.4742312 -0.14611918 -0.20774433
0.054603476 -0.1463774 -0.19265519 0.44840595 0.05966837 0.26094723 -0.54931486 -0.18179199
0.057511695 0.29932562 0.36492634 -0.15740824 -0.020330233 0.502993 -0.37204033 -0.10850061
0.071149275 0.112716205 -0.052854322 0.35175568 -0.10145329 0.15551192 -0.17135163 -0.06495919
0.71704334 -0.16938548 0.078213975 0.24457547 -0.047955163 0.37086424 0.017346544 -0.46611482
-0.24523304 -0.17976741 -0.2849203 0.67263323 0.21149957 -0.08392337 -0.11195812 0.18821602
0.13228753 0.2740222 -0.29226258 -0.29576054 0.010242323 -0.19457194 -0.41040155 -0.0150310965
0.030806983 -0.09180565 0.22570017 0.026543831 0.00633564 0.38173977 -0.11764271 -0.21932296
0.22310129 0.0260615 0.0012391161 0.17985427 -0.16416866 0.33911687 0.058745235 -0.30908942
0.29571965 -0.63045216 0.21332796 0.115579 -0.24625859 0.60910594 0.22307393 0.28463507
-0.42466676 0.1301187 -0.23043868 -0.12145294 -0.0068891607 -0.004828312 0.35378557 -0.21268968
-0.34019062 0.18672523 -0.121931836 0.0815676 0.27144 0.04421339 0.3228275 0.089119
0.10843202 -0.108732894 0.3730288 0.47519076 -0.20607653 -0.044576984 -0.08713317 -0.10432002
0.24843672 -0.6082554 0.12237709 -0.113918774 0.31514376 0.027536554 -0.18001637 -0.42907804
00000000: 01fb 34be ef69 f4bd 448f 4cbc bd04 f7bd
00000010: a2e7 9d3e 8411 193e c44c 733d 0e44 283e
00000020: 9b71 a2be c6b0 a93e 7d2f 353a 374f db3e
00000030: 4701 e53e 3e2b 50be f930 74be 8930 f43b
00000040: ac8d 99be 42b0 10be 02fe a3bd 5738 b2be
00000050: ef20 a53e dd37 03be fc84 d0be add9 0d3f
00000060: 9b04 26bd 7199 dcbe ec26 d73e 9084 68be
00000070: 35b0 2ebe a58a 8abe b6e1 a83e 4256 dc3e
00000080: 0b7b 323e aa0d 25be 8a15 99be a8df 01bd
00000090: 9377 8bbe 092b ff3e 630b a33c 41d4 b7be
000000a0: 4e30 91be 6eb8 c63e 4f27 f6bd 4633 6f3d
000000b0: df9d 6ebe 35b3 c6bd c0f9 88bd d2c9 42be
000000c0: 1948 22be d5ff 84bc 8142 34be 68a7 ae3e
000000d0: eadc 2cbe cb4a 7dbd 13ab 123e 502f c43d
000000e0: fd8b 8cbe 8813 5b3e b179 82be cd3c 61be
000000f0: fb63 77be b28d 83be c002 d4bd 1638 a8be
00000100: aeb1 5f3e 3924 ab3e eb63 26be ffff 7aba
00000110: c66d 2bbe 219b d8be 9899 783d 8826 b3bd
00000120: 8adc 833e 3d92 c1be fdd6 ee3e f528 36be
00000130: 5369 383e 24af 1f3f 583c d8bd 5a13 a0be
00000140: 4323 ac3d 5ad8 3c3e 59e9 6bbe 1d0e b6bd
00000150: 7a66 d0be ed9b 403e c8db 663e 90c7 4f3e
00000160: 2f4c bb3e be09 c4bd 3f8e 42be 8ffd dfbd
00000170: 2bfa 2cbd f697 813e c4d1 813e 530c 863d
00000180: 298f e9be f30b 673e 53e9 2ebe bf31 333d
00000190: f730 f6bd 2436 bc3b 9cbd fe3e 7428 31bd
000001a0: f6b9 b3be 4487 3d3e d975 a63d 2ca1 b73e
000001b0: 45f6 bf3c 9c34 adbe 2aa6 37be 8467 05be
000001c0: 8e44 973e b4b5 0c3f 3112 793e f1fd e8bc
000001d0: 6685 7abd e9be 273d 37b0 a63e 21ff 093f
000001e0: dcf0 9fbe 9574 ac3e c90f 5a3e 1e9b 5ebe
000001f0: 868d d0bd 99ab f4bd bd2f a9bc 8005 bbbe
00000200: 86a6 5c3e be1a 31be c1b9 71be 59fe 993e
00000210: cb21 c1bd 6efb 1b3d 0e51 ba3e 91a3 d1be
00000220: 0eba 8b3e 08fd 7a3e 4fd1 273e 6999 79be
00000230: f175 6abe 94d8 193d 0874 13be 3349 213c
00000240: 78d4 b13e 6782 5f3e 52da b7bc ecb1 033f
00000250: 66f7 143e 6fce f2be 44a0 15be eeba 54be
00000260: e5a7 5f3d f5e3 15be 6747 45be 7795 e53e
00000270: d266 743d e09a 853e e69f 0cbf ae27 3abe
00000280: 6291 6b3d 3541 993e a0d7 ba3e a02f 21be
00000290: 978b a6bc 26c4 003f 127c bebe 9135 debd
000002a0: b6b6 913d c1d7 e63d c67d 58bd 5219 b43e
000002b0: bec6 cfbd 843e 1f3e cd76 2fbe 5309 85bd
000002c0: 2790 373f 6373 2dbe a62e a03d fe71 7a3e
000002d0: a26c 44bd ebe1 bd3e 571a 8e3c 9aa6 eebe
000002e0: 5f1e 7bbe f314 38be 13e1 91be b131 2c3f
000002f0: 5893 583e 04e0 abbd 4c4a e5bd b3bb 403e
00000300: 6276 073e a34c 8c3e 71a3 95be ed6d 97be
00000310: 6bcf 273c de3d 47be 2720 d2be fd44 76bc
00000320: ed5e fc3c 9a04 bcbd f21d 673e 7372 d93c
00000330: 339b cf3b 6573 c33e a9ee f0bd 3396 60be
00000340: aa74 643e ed7e d53c d669 a23a b82b 383e
00000350: d41b 28be baa0 ad3e d89e 703d f840 9ebe
00000360: 9168 973e 5065 21bf a572 5a3e afb4 ec3d
00000370: 362b 7cbe 5eee 1b3f 7e6d 643e b0bb 913e
00000380: ec6d d9be d63d 053e 1ef8 6bbe 52bc f8bd
00000390: 78be e1bb d136 9ebb 6223 b53e 53cb 59be
000003a0: 772d aebe e634 3f3e 66b7 f9bd ea0c a73d
000003b0: 2ffa 8a3e 1a19 353d a549 a53e 0684 b63d
000003c0: 9b11 de3d 5aaf debd a2fd be3e 344c f33e
000003d0: ba05 53be 5b96 36bd e072 b2bd bca5 d5bd
000003e0: 3266 7e3e a0b6 1bbf d7a0 fa3d 3f4e e9bd
000003f0: 865a a13e 5794 e13c 3656 38be 1eb0 dbbe

grud_cell.weight_h_tilde f4 [17, 34]
0.58621067 0.19585197 -0.24560452 0.07981523 0.063702404 0.19630033 0.44060323 0.16764557
-0.60673434 0.15038629 -0.32873988 0.26661438 -0.14937697 -0.3169978 0.018157614 -0.1079003
0.28170434 0.48248565 0.44548395 0.14096688 -0.012791646 -0.12108201 0.045580704 0.39663064
0.09362455 -0.17355716 -0.4182465 -0.43461478 0.032135762 -0.22660235 0.081944756 -0.08195328
0.52269757 0.16418207 -0.16144413 0.28766778 0.2944284 -0.081624165 -0.11872443 -0.29565185
0.012849718 -0.091645576 -0.09837342 -0.2740538 -0.25111622 -0.18508218 -0.078571275 0.20905028
-0.06642393 -0.26778853 0.19542222 0.27182853 0.60030544 0.39336947 -0.069655724 -0.6753092
-0.3268166 0.5147251 -0.16449046 0.18318214 0.1544688 -0.14048213 -0.12549998 -0.010320392
-0.42637485 -0.10962435 0.4630204 -0.20164539 0.22405565 -0.2551564 0.43483272 0.27148864
-0.06840292 0.059383135 -0.06757118 0.0091842795 0.115138605 0.31840223 0.38507214 0.024770416
-0.018858548 -0.22735569 -0.060961477 0.13260688 -0.21801864 0.30280268 0.2179552 0.34930602
0.022817753 -0.08275312 -0.48378477 0.09863925 -0.34989518 0.034284487 -0.12697686 -0.7929928
-0.303579 0.19287635 -0.2855694 0.070842184 -0.026536841 0.5515123 -0.04264546 -0.21971348
-0.014230451 0.15907386 -0.11932979 -0.06295126 0.14769799 0.31278834 0.006013278 0.56086946
-0.064322054 -0.30539674 0.19140404 0.20469467 -0.05023629 0.08688944 -0.41110596 0.15466169
0.045818698 0.027692638 0.31716737 0.32768703 0.04672435 -0.16819227 0.17947702 -0.27797806
-0.08316179 0.41331485 0.3738418 -0.5449212 0.23896962 0.44990733 0.1411755 0.26509413
0.080855764 0.22748561 0.20565777 0.103064395 -0.21136457 -0.16764304 -0.27444267 -0.027348936
-0.036250595 0.21370564 0.07352667 0.11059145 -0.38504612 0.39615303 0.45298526 -0.058117162
-0.16988465 -0.2337125 -0.1638127 0.18869577 0.31925857 0.42363477 0.76877093 -0.35192996
-0.06319167 0.063651025 -0.09971077 0.23027605 -0.0871215 -0.077314176 0.13633281 0.26211998
-0.66397256 -0.26986113 0.098886505 0.47268286 -0.21052472 0.211761 -0.16649503 0.02045493
0.27854085 -0.08035139 -0.32972527 0.29585177 0.25831476 -0.17277558 0.21459083 -0.01231686
0.024935283 -0.110614054 -0.18746293 -0.17432885 -0.1809563 -0.21248756 0.14414394 0.54709953
0.15391834 -0.40743127 -0.07150816 0.0015030436 0.16014616 0.122075945 0.29973358 0.007836155
-0.2419409 0.35371256 -0.26369002 0.0085874535 -0.28946677 -0.13859148 -0.29898265 0.18482256
0.06733774 -0.1961531 -0.09871739 0.07412048 0.18059285 0.21983421 -0.10368579 0.44132987
-0.06255181 -0.42787698 0.08692759 0.0072957412 0.46363723 0.34940892 0.40706223 0.27913392
0.08854452 -0.6638627 -0.10990251 0.032589342 0.25523064 -0.12769288 -0.48281553 -0.10808996
-0.15812778 -0.29657093 -0.1980549 -0.08309853 0.73464435 -0.21032985 0.28158095 -0.014497968
-0.122894496 -0.08888203 -0.2941189 -0.28166887 -0.2374181 -0.21300958 -0.22938266 0.07703892
-0.27322555 0.06494483 0.188981 -0.17691772 -0.24828634 -0.16336577 0.005820355 0.21939388
00000000: e711 163f 6b8d 483e c07f 7bbe 2b76 a33d
00000010: 6876 823d f402 493e bf96 e13e 48ab 2b3e
00000020: f152 1bbf ddfe 193e 9850 a8be ae81 883e
00000030: 47f6 18be 894d a2be 47bf 943c d5fa dcbd
00000040: 8d3b 903e 5c08 f73e 7916 e43e 9f59 103e
00000050: 0d94 51bc d8f9 f7bd d5b2 3a3d 2c13 cb3e
00000060: 3abe bf3d f8b8 31be 6824 d6be d485 debe
00000070: caa0 033d 720a 68be a7d2 a73d 1fd7 a7bd
00000080: 82cf 053f 581f 283e 9c51 25be 3149 933e
00000090: 52bf 963e 922a a7bd cb25 f3bd ae5f 97be
000000a0: a087 523c adb0 bbbd 0178 c9bd c850 8cbe
000000b0: 4e92 80be 2f86 3dbe fae9 a0bd 4711 563e
000000c0: 4509 88bd 941b 89be c31c 483e 1c2d 8b3e
000000d0: 9ead 193f b967 c93e a9a7 8ebd 10e1 2cbf
000000e0: 8154 a7be 06c5 033f 3070 28be 1994 3b3e
000000f0: 122d 1e3e 8cda 0fbe 1183 00be dd16 29bc
00000100: ce4d dabe bb82 e0bd 0311 ed3e 217c 4ebe
00000110: d86e 653e dca3 82be 65a2 de3e 8f00 8b3e
00000120: d516 8cbd bb3b 733d c262 8abd a979 163c
00000130: cacd eb3d 9e05 a33e 2d28 c53e 54eb ca3c
00000140: 3e7d 9abc eecf 68be beb2 79bd 19ca 073e
00000150: 4740 5fbe f408 9b3e a62f 5f3e 3dd8 b23e
00000160: 4cec ba3c 787a a9bd a3b2 f7be 6003 ca3d
00000170: 7625 b3be e46d 0c3d 3906 02be 9301 4bbf
00000180: b56e 9bbe 6181 453e 2736 92be b515 913d
00000190: ca63 d9bc e92f 0d3f 02ad 2ebd 92fc 60be
000001a0: d626 69bc 42e4 223e 2d63 f4bd 97ec 80bd
000001b0: 243e 173e cb25 a03e 080b c53b 2495 0f3f
000001c0: 48bb 83bd f65c 9cbe 6cff 433e 7b9b 513e
000001d0: 91c4 4dbd 17f3 b13d 7b7c d2be a25f 1e3e
000001e0: 63ac 3b3d acdb e23c c363 a23e 98c6 a73e
000001f0: 0862 3f3d 983a 2cbe d3c8 373e 2453 8ebe
00000200: bb50 aabd 019e d33e 3168 bf3e f57f 0bbf
00000210: 74b4 743e 415a e63e 4f90 103e 6bba 873e
00000220: b597 a53d fdf1 683e f397 523e 6d13 d33d
00000230: f46f 58be 9eaa 2bbe c083 8cbe e00a e0bc
00000240: 817b 14bd a7d5 5a3e 2795 963d c57d e23d
00000250: c424 c5be 92d4 ca3e afed e73e 430c 6ebd
00000260: 3ef6 2dbe 5452 6fbe 84be 27be 7739 413e
00000270: dc75 a33e a8e6 d83e 2cce 443f 2a30 b4be
00000280: a26a 81bd 785b 823d 2935 ccbd 7ccd 6b3e
00000290: c26c b2bd e556 9ebd d49a 0b3e 9734 863e
000002a0: 1bfa 29bf 3d2b 8abe 0285 ca3d 7d03 f23e
000002b0: cb93 57be e0d7 583e ac7d 2abe 1991 a73c
000002c0: e89c 8e3e 458f a4bd c0d1 a8be e279 973e
000002d0: d541 843e 15ec 30be b3bd 5b3e a8cc 49bc
000002e0: 1445 cc3c 9f89 e2bd 48f6 3fbe 4383 32be
000002f0: 9c4c 39be 5796 59be 789a 133e b70e 0c3f
00000300: c59c 1d3e d59a d0be df72 92bd c601 c53a
00000310: 5bfd 233e f402 fa3d ae76 993e 3763 003c
00000320: 5bbf 77be d019 b53e 6102 87be 64b2 0c3c
00000330: fd34 94be edea 0dbe 4114 99be 2042 3d3e
00000340: 5ee8 893d 5cdc 48be 582c cabd 7acc 973d
00000350: 55ed 383e 381c 613e 3759 d4bd fdf5 e13e
00000360: 2a1b 80bd b112 dbbe 1807 b23d 1d11 ef3b
00000370: dc61 ed3e bae5 b23e 766a d03e a4ea 8e3e
00000380: d456 b53d e8f2 29bf 9114 e1bd 677c 053d
00000390: 97ad 823e ecc1 02be 9933 f7be 455e ddbd
000003a0: 40ec 21be 25d8 97be e7ce 4abe 902f aabd
000003b0: a711 3c3f b560 57be 612b 903e e388 6dbc
000003c0: 1cb0 fbbd c807 b6bd c196 96be e736 90be
000003d0: bb1d 73be 2f1f 5abe 4ae3 6abe 95c6 9d3d
000003e0: 38e4 8bbe cc01 853d 3c84 413e eb29 35be
000003f0: c63e 7ebe 5b49 27be adb8 be3b caa8 603e

grud_cell.weight_gamma_x f4 [17]
0.43651435 0.49180982 0.50271285 0.16997547 0.16694802 0.8361471 0.24748942 0.13408604
0.5108291 0.5763335 0.57710207 0.6369189 0.5505983 0.5499895 0.37819678 0.45154044
0.8116167
00000000: cf7e df3e 7fce fb3e cab1 003f 0d0e 2e3e
00000010: 6cf4 2a3e bd0d 563f de6d 7d3e da4d 093e
00000020: b2c5 023f 988a 133f f6bc 133f 1e0d 233f
00000030: 03f4 0c3f 1dcc 0c3f 02a3 c13e 4f30 e73e
00000040: 1dc6 4f3f

grud_cell.weight_gamma_h f4 [17]
0.40753084 -0.0035367769 0.5930238 0.31386814 -0.0023171396 0.2562465 -0.006202913 0.35035646
0.60974354 -0.011322008 -0.0072329207 -0.0062796324 -0.008957637 -0.011805506 -0.011811789 0.18598038
0.22721054
00000000: e2a7 d03e 45c9 67bb 68d0 173f 53b3 a03e
00000010: 27db 17bb be32 833e ce41 cbbb ec61 b33e
00000020: 2718 1c3f f27f 39bc 2302 edbb 60c5 cdbb
00000030: 0dc3 12bc e26b 41bc 3c86 41bc a471 3e3e
00000040: e1a9 683e

grud_cell.bias f4 [17]
0.09900296 0.14731248 0.106424674 -0.11315359 -0.18517037 -0.18434621 0.15845822 0.110540435
-0.15476468 0.03296187 -0.02849725 -0.18680984 0.08100046 -0.04448234 -0.011213646 0.119797714
0.27429673
00000000: 10c2 ca3d 15d9 163e 2ef5 d93d 12bd e7bd
00000010: 4d9d 3dbe 41c5 3cbe df42 223e 0663 e23d
00000020: a27a 1ebe 0703 073d 1173 e9bc 144b 3fbe
00000030: 92e3 a53d 1d33 36bd 71b9 37bc 8158 f53d
00000040: 9f70 8c3e

fc.weight f4 [6, 17]
0.40267196 0.5211424 0.45874357 -0.8238211 -0.5045057 -0.35550126 0.5348158 -0.37224764
0.1694821 -0.5828403 -0.8388841 -0.5704789 0.95373267 -0.53154963 -0.8271568 0.44515023
-0.34388843 -0.29067412 0.28658804 -0.2050847 -0.023840416 0.04031949 0.21964099 -0.4875155
-0.32189277 0.21903248 -0.027875762 0.3491024 0.030093683 -0.53065675 0.72358465 -0.13096583
-0.01568478 -0.3032404 -0.22746181 -0.17238645 -0.8198551 0.1461608 -0.30363658 -0.5116574
0.047324006 0.4390051 0.22164537 0.049072623 0.04800896 1.0250305 -0.19314651 0.6426789
0.47537583 -0.48842785 -1.2251059 0.15287979 -1.172295 -0.40397444 0.52928156 0.44240436
1.1058273 0.23375165 0.17991054 -0.13907783 0.19521171 0.59657633 1.072415 -0.539716
0.46235713 0.12375757 -0.2701633 -0.001399701 -0.25114998 -0.16610713 0.6046986 0.3456957
0.34196755 0.71894515 -0.7772946 -0.5447852 0.018527778 0.13192917 0.2739476 -0.46704623
0.557939 -0.86654425 0.26449338 -0.86938965 0.82856154 0.3641244 0.26357183 0.30108026
-0.20207414 -0.21372506 -0.1895493 0.2164757 0.3757133 -0.6291992 0.34468234 0.4600249
-0.48826122 -0.34314167 0.45545173 0.3153847 0.39028543 0.84769136
00000000: 052b ce3e 9769 053f 70e0 ea3e f1e5 52bf
00000010: 4927 01bf 4304 b6be b0e9 083f 3e97 bebe
00000020: b78c 2d3e 0635 15bf 1cc1 56bf e80a 12bf
00000030: d327 743f a313 08bf 8cc0 53bf bbea e33e
00000040: 2512 b0be 3dd3 94be abbb 923e b901 52be
00000050: fa4c c3bc 0d26 253d 91e9 603e a29b f9be
00000060: 21cf a4be 0d4a 603e b65b e4bc 8dbd b23e
00000070: 0787 f63c 1fd9 07bf d83c 393f e81b 06be
00000080: 5e7d 80bc 5342 9bbe c0eb 68be 1386 30be
00000090: 06e2 51bf 2dab 153e 4176 9bbe fbfb 02bf
000000a0: d1d6 413d 47c5 e03e 01f7 623e 6000 493d
000000b0: 0ba5 443d 3334 833f 33c8 45be 9b86 243f
000000c0: 7664 f33e 3713 fabe 45d0 9cbf 858c 1c3e
000000d0: c30d 96bf bdd5 cebe ff7e 073f d382 e23e
000000e0: c08b 8d3f 985c 6f3e 783a 383e 6b6a 0ebe
000000f0: 94e5 473e 3ab9 183f e544 893f d42a 0abf
00000100: 13ba ec3e 9c74 fd3d d852 8abe 2c76 b7ba
00000110: bb96 80be fd17 2abe 87cd 1a3f 07ff b03e
00000120: 5f16 af3e ca0c 383f c7fc 46bf 0b77 0bbf
00000130: 91c7 973c 7118 073e dc42 8c3e af20 efbe
00000140: 17d5 0e3f d8d5 5dbf ad6b 873e 5290 5ebf
00000150: 9c1c 543f 836e ba3e e3f2 863e 3127 9a3e
00000160: 86ec 4ebe beda 5abe 3619 42be ceab 5d3e
00000170: 7e5d c03e 3313 21bf 347a b03e 6288 eb3e
00000180: 60fd f9be 44b0 afbe f830 e93e 1a7a a13e
00000190: 7ed3 c73e 4d02 593f

fc.bias f4 [6]
0.18098046 -0.3711613 0.40946928 -0.38601637 0.06658404 0.025943391
00000000: f152 393e db08 bebe f5a5 d13e f0a3 c5be
00000010: 375d 883d 3c87 d43c
