models/model_20230621-211756.pt (torch, 10395 bytes, 8 tensors)

grud_cell.weight_z f4 [17, 34]
00000000: 9169 793e 8e32 f4bd 5311 b7be 2941 763e
00000010: 06fe 88be fca0 803e d8d7 9cbe 5ddd 863d
00000020: 7138 b33d 7f0f 7bbc 1690 933e 015e b6be
00000030: 5502 27bd 6154 1cbe ea2c 913e de71 013e
00000040: dbc5 763e a719 713e 0493 2d3e 9adf f4bd
00000050: 03f1 bfbb 2d1e 2abd f35e 4b3e 30fb 843c
00000060: 5442 8c3d 362d 863d 32e4 3c3e d6bf bb3e
00000070: 0555 0ebd 36b4 933e 5de0 7abd 685c bcbe
00000080: 61a5 de3d 66c7 973d 37f2 d33e 3f48 593e
00000090: 194e 993d f921 c8be 23cc 6dbe 3618 3c3b
000000a0: b00c 8a3e 85e1 03be aa8b 43bc 3892 483e
000000b0: 8dab 13be 09ba 8f3d 72e7 02be 0701 edbe
000000c0: 349d 85be 4b3e 44be bd77 0d3e e618 013e
000000d0: 729f 8fbd 9299 97bd 4f7b 903d 1d24 94bd
000000e0: 7150 d4bd 8973 673e 1174 83bb 987c df3d
000000f0: 0d8e a53e 1c19 cc3d 599f 20be 55ff 98be
00000100: c7a9 a7be 4911 05be f424 163e 9351 293e
00000110: 1d69 20be 8f70 dc3e a171 82bd c3f7 663e
00000120: 68eb 8dbe 089b 47bd e336 313e c054 863e
00000130: 8b94 b7bd 095f 33be a36c 80be c685 92be
00000140: 3148 1dbd d523 a2bc 3b9d f2bd 52ae e33d
00000150: 4b71 6dbe 5579 4fbd d7c3 203e 3a86 533e
00000160: 96c5 66bd 9b3d df3d 0c1e 623e f0c3 cc3e
00000170: 6978 8dbe 207f e53d f0f3 60be cc34 85be
00000180: ad50 863e 3e7a 65be b1a6 01be 2f91 7f3e
00000190: 3600 d73e c705 a6be 75f6 a4be be42 50bc
000001a0: 7d5f 603e 27e7 863e 138a f33d 94fa 683e
000001b0: 0ca6 46be 6f64 ad3e 8a9c 97bd 2494 663d
000001c0: 845d dfbd 3e06 113e b250 993e ba21 44be
000001d0: 7349 9f3e a0de 4b3d 1e11 073e dd38 cd3e
000001e0: 9f17 563d b35f 55be 6563 d3bd 47d9 263e
000001f0: dff9 cd3d 4346 213e ab18 543d dc59 fe3d
00000200: e10e cbbd 9320 1dbe d9ce 363e 90a4 d73d
00000210: 85f8 ae3a 1064 8ebe d329 5f3e 6812 543d
00000220: b401 05be d0d1 9bbe 1579 323e ee65 903e
00000230: b2aa 2fbe ae09 dabe ba37 f33d 1a0b 99be
00000240: fd93 253e eedb dabe 4114 8ebe c4fe 4fbe
00000250: db48 d63e 2354 4b3e 98a2 c9be 93cc 0f3e
00000260: 4fb9 1fbe fc5b 63be c695 043e 2e76 1c3d
00000270: 50c8 a63e 0d61 643e aa05 fb3e d11d 95be
00000280: 2556 893c 6aa2 71be 1526 5a3d 16d6 763e
00000290: a3da 75be e004 a73e 2b07 a13d c89e 2f3e
000002a0: 1914 d0bd 7cab e4bb 2d20 d93e d14a fb3c
000002b0: 50b0 9bbe 6cc8 963e 622b 9cbe 4604 c93c
000002c0: 2811 533e c15a 16be 6006 b43e c16a 313e
000002d0: de09 c3bc 7dfa f33d 4373 803e 2ecd d13d
000002e0: 2e02 723e 3ce9 9fbd a74e a23d 25a0 3b3e
000002f0: 59b0 4e3e 082b 863d 9c4d 443e 95c3 96bc
00000300: 74e5 c3bd daa5 f4bd 6733 913e 4436 0f3e
00000310: 7d77 16be d7a8 7abe 713d 4f3e bf8a 59be
00000320: fa63 763e 2755 9dbe d563 77be 0e05 7cbe
00000330: 0484 433e 1d6a 13bd 7a96 d53e 6651 713e
00000340: 3b84 ed3e f6c0 9a3e 3739 bf3e 3ecf 4a3e
00000350: dbd9 ffbc e0a6 f1bd a625 d63d 8360 3d3e
00000360: d7d8 acbc 5f7b c2be 8ab7 54be d2ce 99be
00000370: a261 ebbc 5efb cabb 4255 3dbe d50c 17be
00000380: e63b 9e3d 5476 9bbe 5672 a73e 5d0e 383d
00000390: 2946 813d 271e 303e 193e c43c 98bc df3e
000003a0: a961 04be 2c1d acbc d13c c1be c033 a7bd
000003b0: bee3 1b3e 931e d33c 0d9b 19be 176b c73e
000003c0: 42ef 833e d8d0 703e 5e62 a538 8660 333c
000003d0: 72dc f3bd 86e4 b5be 5b7c c73c 79b1 503c
000003e0: a7c6 89be 25b2 96be a523 f53d 51e2 343e
000003f0: dfcc 89be ef0b ae3e ac2c 8bbe 3ee3 7d3e
0.24356677 -0.11923705 -0.35755405 0.24048294 -0.26756305 0.2512282 -0.30633426 0.065851904
0.08751 -0.015323519 0.28820866 -0.35618594 -0.04077371 -0.15266563 0.2835458 0.12641093
0.24098913 0.23544942 0.16950613 -0.11956711 -0.0058575883 -0.041532684 0.19860439 0.016233057
0.068485886 0.06551592 0.18446425 0.36669797 -0.03474905 0.28848428 -0.061249126 -0.3678925
0.10871387 0.07411079 0.41395733 0.21218966 0.07485599 -0.3908842 -0.23222403 0.0028700954
0.26962805 -0.12878998 -0.011935154 0.19587028 -0.1442091 0.07017905 -0.12783602 -0.46289846
-0.260965 -0.19164388 0.13815208 0.12607154 -0.07012834 -0.07402338 0.07054769 -0.072334506
-0.103669055 0.22602667 -0.004011639 0.10912436 0.3233494 0.09965727 -0.15685786 -0.29882303
-0.32746717 -0.12994875 0.14662534 0.16535024 -0.15665098 0.43054625 -0.06369329 0.22555451
-0.27718663 -0.048731834 0.17306094 0.26236534 -0.08963879 -0.17516722 -0.25082883 -0.28617686
-0.038398925 -0.019792477 -0.118463956 0.11117233 -0.23187749 -0.05065282 0.15699707 0.20656672
-0.056340776 0.10900422 0.22081774 0.39993238 -0.27630928 0.11205888 -0.21968055 -0.26016843
0.26233426 -0.22409913 -0.12661244 0.24957727 0.41992348 -0.32426283 -0.32219282 -0.012711225
0.21911426 0.2634823 0.1189157 0.22751838 -0.1939928 0.33865687 -0.07402904 0.05629362
-0.109065086 0.14162537 0.29944378 -0.1915349 0.31110725 0.04977286 0.13190123 0.40082446
0.05226862 -0.20837288 -0.103216924 0.16293822 0.10057425 0.15749459 0.051781338 0.12419483
-0.09914947 -0.15344457 0.17852344 0.10529435 0.0013349211 -0.27810717 0.21793298 0.051775366
-0.12988931 -0.30433512 0.17429002 0.28202766 -0.17154959 -0.4258551 0.118758634 -0.29891282
0.16169734 -0.42745918 -0.27749828 -0.20312029 0.4185246 0.19856314 -0.39381862 0.14042883
-0.15598033 -0.22203058 0.12947759 0.038198642 0.325747 0.22302647 0.4902776 -0.2912431
0.01676471 -0.23597112 0.053258974 0.24105105 -0.24009185 0.32620907 0.07862695 0.17150414
-0.10160083 -0.0069784503 0.4240736 0.030675324 -0.30407953 0.29449785 -0.30501848 0.02453817
0.20612013 -0.14683057 0.35161114 0.1732588 -0.023808416 0.11913011 0.25087938 0.10244213
0.23633644 -0.07808158 0.07925158 0.18322809 0.20184459 0.06551176 0.1917023 -0.018403808
-0.09565249 -0.11945696 0.2835953 0.13985544 -0.14694019 -0.2447847 0.20238282 -0.21244334
0.24061576 -0.3072903 -0.24159177 -0.24611303 0.19093329 -0.03598987 0.41716367 0.23566207
0.46389946 0.30225343 0.3734834 0.19805619 -0.031231811 -0.11799407 0.104563996 0.18493848
-0.021099491 -0.3798475 -0.2077314 -0.30040604 -0.028733078 -0.006194516 -0.18489555 -0.14750989
0.077262685 -0.30363715 0.3270442 0.044935573 0.0631221 0.17199002 0.023955392 0.43698573
-0.1292788 -0.021010004 -0.37741712 -0.081641674 0.15223595 0.025771415 -0.15000553 0.3894889
0.25768477 0.23517168 7.8861354e-05 0.010948306 -0.11907281 -0.35525912 0.02435129 0.012737625
-0.26909372 -0.29432788 0.11969689 0.17664458 -0.26914117 0.3399348 -0.2718252 0.24793717

grud_cell.weight_r f4 [17, 34]
00000000: 3b79 92bb d16a d23d e521 8fbe 1c40 91be
00000010: 868f f83d b970 b33e ad39 b0bd 0a44 833c
00000020: df49 3bbe 405d dabe 9bd7 60bd c1f7 babd
00000030: 2274 adbe 6493 48bd a785 5cbd c20d 833e
00000040: a473 8f3d 224f 3bbe 6f6f e53d 8e57 72bd
00000050: 69a2 e5be 211d 8f3e e8a6 8d3e f50c 93be
00000060: c875 acbe 483d d9be 69b8 22be 04e2 913d
00000070: e8ee 71be e16c 823e 0c55 a13d 4a7f d7bc
00000080: 1824 15be 996d e93e abff 8f3e 4a3b 8abd
00000090: 51a2 a8bd 4c16 083e d704 833e 99f6 53bd
000000a0: 70c1 453e 6f2d b3bd 1d55 3bbe d835 bc3e
000000b0: 82fd c6bd 3793 5bbe 31f7 3e3d f086 a9be
000000c0: 5577 c93e e91b 0a3e 1ca7 3cbe 47c5 283d
000000d0: 54c0 81be 2f8c 68be df76 263d c32d 65be
000000e0: 96b5 ef3e 7eb2 e13e c2f2 813c 5a0f 43bd
000000f0: e0c9 b0bd 050d 463e 984d f6bd 329d babc
00000100: 0987 a93e 4e09 dabd 68ef 83be 28cd e7bd
00000110: d4b7 333e 740e 00be e705 4e3e 8e77 e5be
00000120: da69 ecbd b2d8 34be 6bae 533e 4526 38be
00000130: 6a0b 8abc 5469 dbbe 834c 96bc 5cd9 3bbc
00000140: 39d7 573d f9bd aebd 0554 a83e ee62 a53e
00000150: afab 37be 62ea 38bd d9f4 453e 3f70 22be
00000160: 37ab 863e 41d8 7b3e 427e ea3d 2cf3 103d
00000170: ca75 48be 1d9e 833d e65c c03c 9315 e93d
00000180: 1dc1 8fbb 6517 d73d 3ff9 003f 8224 b23e
00000190: 9087 30be 2f19 bebe 2648 94bb 9f60 9b3e
000001a0: 83c8 5c3e 1de8 e23d a57c 99be a95f 91be
000001b0: ff7a 4cbe 1cb0 b23d 4cab 573e c28b 563e
000001c0: 83e1 29be 73ea 28be fd0f 8abb 6e80 76be
000001d0: 3327 a83b e277 1c3e e851 b33e ffcc 053f
000001e0: 40f1 a3bd 6c36 e6be 5ded 073f f98e df3e
000001f0: 4376 0d3e f35d 28bc 9502 6c3e d7d9 93be
00000200: 032a b73e 89df ab3d 1968 093e 3a55 443e
00000210: ddd8 da3e 58d3 a73e f816 cbbe d67b f4bc
00000220: be5a 09bd c6cd 14be 7589 ab3c a441 7fbd
00000230: 93eb 6cbe 648f afbe f979 5abe 8693 1a3e
00000240: 775b d23d b6f3 af3d f454 8dba 0ae7 da3e
00000250: a100 e2bd 8f4a cbbe c89c d83d 1e66 47be
00000260: 58f6 ac3e ca40 af3d 86b6 90be f24a ea3d
00000270: 19e1 a13e acc9 fa3e 2760 ee3e a575 923d
00000280: d3f5 133e 2621 ddbd ef43 713e 632c a23e
00000290: f91e d7be 36eb d8bc 8066 f33e 3495 86be
000002a0: 5ba4 c23c 24a3 873d 1f87 7dbe cd9c e7bd
000002b0: c18d b6bd 5070 853e 8e2c 0ebd f654 b13e
000002c0: 310d 87be 41da 273e 74e7 213e fc9d 93bc
000002d0: f107 49bd aba4 61be d98e f23d e58d b63d
000002e0: 94c7 cfbd 032f 873e 0300 04be d3c8 193e
000002f0: 8ca0 fe3d 62c2 413c e8a2 783e fa97 933e
00000300: d30f 2cbe 6b10 463e 7245 323e b8eb 40be
00000310: 7612 4d3e 9497 cb3e f02c 32be 90f2 5a3d
00000320: 45b4 573e 0213 03bf e5d6 063e 2290 c13d
00000330: e84c 0abe bcb1 09be 21c7 753d 051c 863e
00000340: 5bf3 b53c 99b7 003e 9e03 4fbe 513b 643e
00000350: fddd f23d 85f4 a83d 7bf5 ab3d 8b9a 00be
00000360: b7fb f83e 5f45 22bd d6e3 e2bb 27ad abbe
00000370: 5016 c43d 817e aebd e8b7 d1bc 47ea 3cbe
00000380: 4c98 fcbc b00a 2cbe 514d 12bd 9c88 813e
00000390: 2045 fabe b5aa 59bc 51a4 de3e 8f68 f33e
000003a0: 7541 7d3d e37e 9a3c 0754 163d 319f f5be
000003b0: ef6c 9a3a 29ff 8abc 8609 833e 310a 06be
000003c0: e7e8 aa3e d6b1 443e 78f3 ac3e f4cf 7dbb
000003d0: d985 95be 816a 69be 5d45 b9be 661a 6c3d
000003e0: 8dc4 74be 903c 1dbe 214f 873e 2ac6 653e
000003f0: 0fb4 5fbd 692b 2b3e f73c 303c 9784 0c3e
-0.004470018 0.1027428 -0.27955547 -0.28369224 0.1213675 0.35046938 -0.08604751 0.016023654
-0.18289898 -0.4264927 -0.054893117 -0.091292866 -0.33877665 -0.048968688 -0.0538384 0.25596434
0.070044786 -0.18291906 0.11202895 -0.05916553 -0.44850472 0.2795191 0.27666402 -0.28720823
-0.3368361 -0.42429566 -0.1589066 0.07123187 -0.23626292 0.25473693 0.078775495 -0.026305813
-0.1456455 0.4559143 0.28124747 -0.0674959 -0.082340844 0.13289756 0.2558963 -0.051748846
0.19312072 -0.087489 -0.18294187 0.3675983 -0.097163215 -0.21442877 0.04662246 -0.33110762
0.39348856 0.1348721 -0.18423122 0.041203763 -0.25342047 -0.22709726 0.040640708 -0.22380738
0.46818227 0.4408149 0.015862826 -0.047622062 -0.086322546 0.19340904 -0.120265186 -0.022780035
0.33110836 -0.10646306 -0.2576859 -0.11318427 0.17550594 -0.12505513 0.20119439 -0.44817775
-0.11543627 -0.17660788 0.20672004 -0.17983349 -0.016851146 -0.42853796 -0.01834703 -0.011465397
0.052695487 -0.08532328 0.32876602 0.3230204 -0.17936586 -0.0451454 0.19331683 -0.15863131
0.26302502 0.24594213 0.11449863 0.035388157 -0.19576183 0.06426642 0.023481797 0.11381068
-0.0043870346 0.10502509 0.5038032 0.34793478 -0.17239213 -0.3712859 -0.0045252023 0.30347154
0.21560864 0.11079428 -0.2997791 -0.28393295 -0.19968794 0.087249964 0.21061438 0.20951751
-0.16589932 -0.16495685 -0.0042133317 -0.2407243 0.005131626 0.15280107 0.35023427 0.52265924
-0.08004999 -0.44963396 0.5309656 0.43663767 0.13814645 -0.0102763055 0.2304786 -0.28877136
0.3577424 0.08392245 0.13418616 0.19173136 0.4274358 0.3277843 -0.3966596 -0.029844206
-0.033533804 -0.14531621 0.020939568 -0.06231846 -0.2313674 -0.34289086 -0.21335591 0.15095338
0.10271352 0.08591406 -0.0010782764 0.42754394 -0.11035276 -0.3970532 0.10576779 -0.19472548
0.33781695 0.085572794 -0.28264254 0.11440076 0.31617048 0.48981988 0.46557733 0.07151345
0.14449243 -0.10797338 0.23561071 0.3167449 -0.42015818 -0.026479345 0.4753914 -0.26285708
0.023760011 0.066229135 -0.24758576 -0.11309204 -0.08913756 0.2606225 -0.03471046 0.34635133
-0.26377252 0.16391851 0.15810949 -0.018019669 -0.04907984 -0.22035472 0.11843652 0.08913783
-0.101454884 0.26403055 -0.1289063 0.15018015 0.12432966 0.01182613 0.24280894 0.28826886
-0.16802911 0.193422 0.17409304 -0.1883992 0.20026574 0.39764082 -0.17399955 0.053453982
0.21064861 -0.5120088 0.13167913 0.09451319 -0.135059 -0.13446707 0.060004357 0.26193252
0.022210767 0.12570037 -0.20216224 0.22288252 0.11858747 0.082497634 0.08396431 -0.12558953
0.48629543 -0.03961694 -0.006924133 -0.33530542 0.09574568 -0.085202225 -0.025600389 -0.18448745
-0.03083434 -0.16800952 -0.035718266 0.25299537 -0.48880863 -0.013285329 0.43484738 0.4754071
0.061830003 0.018859332 0.03670123 -0.47973016 0.0011781732 -0.016967373 0.25593203 -0.13089825
0.33380815 0.19208464 0.33779502 -0.0038728686 -0.2920368 -0.22794534 -0.36185732 0.057642363
-0.23903103 -0.15355134 0.26427558 0.22438875 -0.054615077 0.16715778 0.010756723 0.13722454

grud_cell.weight_h_tilde f4 [17, 34]
00000000: e147 e2bd 15d9 26be 8e6e a0be 06af f0bd
00000010: 2955 91be eb57 76be 9749 a0be f163 18be
00000020: 7d6c c9bd 27b7 a03e bb72 48be ed34 88be
00000030: 9d61 36be 742d 613e bb49 a7bc 614d bbbd
00000040: eb10 2f3e c54c 27be 9f59 99be 31b6 0f3e
00000050: 0b43 ac3e 85b7 94bd a1c8 d73d 8383 683e
00000060: ddf5 073d 9fae 6ebe 3049 d23e e0f5 573e
00000070: 8636 f8be 8a92 313e 9421 b6be 9276 11be
00000080: 3002 07bf 54d9 91be f2e2 1fbe d04a 91be
00000090: e870 bebd f58f 0d3e a6d8 49be e04b 04bc
000000a0: 985c 013e d7a3 87bd 6729 59be d054 19bb
000000b0: d402 e4bd 916a dc3d 278d d5be 038b c3bd
000000c0: ade1 df3c 1db6 363e 93b8 acbd e29a c7bc
000000d0: 4cc7 103e ca4d ccbd 2c65 3cbe 9320 44be
000000e0: e175 bdbd 4a56 17bc 1625 453e b3f9 a33e
000000f0: bf21 75be 261e a9be 410a e63e 4159 2e3e
00000100: c647 493e d1f7 bf3e 89b5 b33e 1f53 eb3e
00000110: 4e09 933e fbb5 92be eddf 94be 52af 6cbe
00000120: b379 5e3e 4493 733e ae83 e1bc 1aad bfbe
00000130: 287a 58bd d9f6 0f3e 68c9 7d3e a4d2 573d
00000140: 9b97 bebe 0fd0 f13e 7426 a83e 4bb7 51be
00000150: fffb dcbd 2e64 563e af6a 8abd af5f eb3e
00000160: 6ba9 64be d43f 47be 0dc8 aabe ab74 05bf
00000170: cfa7 373e c60a f9bc 6aef c4be 4b41 b33d
00000180: 0893 6f3e 6cad 4fbe a938 88be 02a7 ddbc
00000190: 36d0 a83d b085 963e b086 98be bc39 043e
000001a0: e8fd 863e f115 083e 739e 9dbe ed1d 983b
000001b0: f0d3 30be c527 2a3e 563f 98bd 30b5 1d3e
000001c0: b7a8 12be b8d9 103d 62a3 683e df63 b0be
000001d0: 0a7e 583c 5359 9c3e b40b 9f3e 5e1a 5a3e
000001e0: 37cd 64be 2940 e6bc a3af 11be 1650 f23d
000001f0: 9452 ed3e c303 423e aa2f 4bbe 0f5e c2be
00000200: b9ac a8bd 8620 3a3e 49d0 e3be 2b7e c03d
00000210: e61c 32bd 7dd7 c0bb 789f 0fbe 5906 0fbf
00000220: fc3a 403d 97e1 36bd 5059 01be 27ad 663e
00000230: 41b0 16be 03bf 93be d9d2 a23d 8add 6bbe
00000240: 2a9e c5bd 5f7b 85be 25ee efbd 5fa8 603e
00000250: f1fd 25be 7d71 c2be 2b42 3bbd 7aaa 38be
00000260: 4f10 a23d 2a35 65bd ffc7 9d3d 49eb 03bf
00000270: 5c0b 393e 7584 b13e 18a2 673e 72f6 c43d
00000280: 1ec9 583e 3ffb c0be efb9 033f 5584 943e
00000290: eac0 28bc e3d7 c43e 55cf eabb 4858 bdbd
000002a0: 3a96 86be 5471 f4be cda0 1b3e f4ee 153e
000002b0: 6ffe 103e 2923 243d 7650 6abe 0948 d73c
000002c0: 9194 e43d 3206 eebd 4f87 153e 6042 e33c
000002d0: 3024 f03d 1aea 893e 0c6f a03e ef4a b3be
000002e0: f569 e33d ea48 073e 1711 0f3e 6ea1 e0bd
000002f0: fd43 2bbe 2586 d6be c896 0d3e 67e1 6ebd
00000300: 066d c03e a979 043f 6e43 dabe 0332 8dbe
00000310: 0351 5d3d 5a7c 21bd bab9 fa3d 26f9 2fbe
00000320: 4cdf 51be 3526 ecbe 98ef 4ebe 9ece e3be
00000330: 1141 29be 42ff 803e 9d39 433e ef45 183e
00000340: cf5d 9a3e 4f97 fb3d b60c bd3d 8739 f3bd
00000350: 9d2a 05bd 76b3 77be cc31 c23c 6b24 50be
00000360: 7451 59bd 5d81 afbe d927 3bbe ce61 8dbe
00000370: cede 2fbe 94a5 bebd 74c2 02bf c32e af3d
00000380: 31f9 9b3e eeb9 0ebe 8880 1fbe 51b1 933c
00000390: 1d98 803c 17cf 3b3e dea1 143e 7350 d23e
000003a0: aafe c2be d37d 143d 06b8 aebd 07d5 fdbe
000003b0: de16 50be b747 d0bd f4a8 403e 4cdb 91be
000003c0: 2a4e e3bd 78cb 76bd 9841 133d 7fbb 143d
000003d0: b6da 3ebe 6b29 193e dceb 40be fa3a f7bd
000003e0: d76c 1c3e 8278 43bd e01d 87be c33f 74be
000003f0: dded 6e3e d20a a6bd a021 403e 1f26 223c
-0.11048866 -0.16293748 -0.31334347 -0.11752133 -0.28385285 -0.24056976 -0.31306145 -0.14881875
-0.098351456 0.31389734 -0.19575016 -0.2660288 -0.17810674 0.21989995 -0.0204209 -0.09145618
0.17096297 -0.16337879 -0.29951188 0.14034344 0.336449 -0.07261566 0.10536314 0.22706418
0.033193458 -0.233088 0.41071463 0.21089888 -0.48479098 0.17341056 -0.35572493 -0.14205387
-0.5273771 -0.2848612 -0.15613917 -0.2837739 -0.09298879 0.13824446 -0.19711551 -0.008074731
0.12632978 -0.06623047 -0.212072 -0.00233965 -0.11133352 0.107625134 -0.41709253 -0.09547999
0.02732929 0.17842908 -0.08433642 -0.024365846 0.14138526 -0.099757746 -0.18397969 -0.19153051
-0.09250999 -0.0092368815 0.19252428 0.32026443 -0.23938654 -0.33030814 0.44929698 0.17026235
0.19656286 0.37493756 0.35099438 0.45961854 0.28718036 -0.28654465 -0.29077092 -0.23113754
0.21726112 0.23786646 -0.02752861 -0.37436754 -0.052850872 0.14059009 0.24783862 0.052691117
-0.3722504 0.4722905 0.32841837 -0.20480077 -0.10790252 0.20936653 -0.067586295 0.45971438
-0.22330253 -0.19457942 -0.33355752 -0.52131146 0.17935108 -0.030400645 -0.38463908 0.08752688
0.23395932 -0.20280999 -0.26605728 -0.027057175 0.08242838 0.2939887 -0.29790258 0.12912649
0.2636559 0.1328962 -0.3078495 0.0046422393 -0.17268348 0.16616733 -0.07433955 0.15401149
-0.14322172 0.035363883 0.22718576 -0.34451196 0.013213644 0.305369 0.31063616 0.21299121
-0.22343908 -0.028106766 -0.14227156 0.118316814 0.46352065 0.18946747 -0.19842401 -0.37962386
-0.08236069 0.18176469 -0.44494846 0.09399065 -0.04348459 -0.005885063 -0.14025676 -0.5586906
0.046931252 -0.044648733 -0.12631726 0.2252699 -0.14715673 -0.28856668 0.07950372 -0.23033729
-0.09649308 -0.26070687 -0.11715344 0.21939228 -0.16210152 -0.3797721 -0.0457174 -0.18033782
0.07913267 -0.055958904 0.07704162 -0.5153089 0.1807074 0.3467137 0.22620428 0.09617318
0.2117047 -0.37691686 0.5145559 0.2900721 -0.010299901 0.38445958 -0.007165829 -0.09245354
-0.2628649 -0.47742712 0.1519806 0.14641935 0.14159559 0.040072594 -0.22882256 0.026279466
0.11161149 -0.116222754 0.14602397 0.027741611 0.11725652 0.26936418 0.31334722 -0.35018107
0.11104194 0.13211408 0.13971363 -0.1096829 -0.16725154 -0.4189922 0.1382705 -0.05832043
0.37583178 0.5174814 -0.4262957 -0.27577218 0.054032337 -0.03942523 0.12242456 -0.17184886
-0.20495337 -0.461229 -0.20208585 -0.44493574 -0.16528727 0.25194746 0.19064946 0.14870428
0.30149695 0.12284719 0.0923094 -0.11876207 -0.032511342 -0.24189553 0.023705386 -0.20326392
-0.053056195 -0.34278384 -0.1827692 -0.27613682 -0.17174837 -0.09308925 -0.5107796 0.08553841
0.30463555 -0.13938114 -0.15576375 0.018028887 0.015697533 0.18340717 0.14514872 0.41077003
-0.38084918 0.036252808 -0.085311934 -0.4957659 -0.20321223 -0.101699285 0.1881445 -0.28487623
-0.11098893 -0.060252637 0.035951227 0.036311623 -0.18638119 0.14957206 -0.18839973 -0.12071796
0.15275894 -0.047722347 -0.2638998 -0.23852448 0.23332925 -0.081075326 0.18762827 0.009896784

grud_cell.weight_gamma_x f4 [17]
00000000: 9420 773f 7d7b 8f3e ee90 733f 5daf 5b3f
00000010: 85fe 793f 08e7 663f d767 833f abbb 7b3d
00000020: 16b0 8b3e 105f b53d 4774 5c3f 159c 243f
00000030: 3540 043f a6cd fb3e 00ea 0a3f 0873 2c3f
00000040: 349e c73e
0.96534085 0.28023902 0.9514302 0.8581446 0.9765399 0.90196276 1.0266064 0.06145827
0.2728278 0.08856022 0.86114925 0.6430066 0.5166047 0.49180335 0.54263306 0.67363024
0.38987887

grud_cell.weight_gamma_h f4 [17]
00000000: fe86 323f 4857 94bc 7d52 79bc 7619 d93e
00000010: 5805 3b3f 3d12 2a3d 27a1 403f 4c80 453d
00000020: 5f83 28bc 51f6 253e 1c8c 033f f0c7 dc3c
00000030: 7fbd 3b3f d76e b83d 3356 2d3d 8cd6 3f3d
00000040: f248 5fbc
0.6973723 -0.018108025 -0.015217421 0.42402238 0.7305503 0.0415213 0.752459 0.048218057
-0.010285228 0.16207244 0.51385665 0.026950806 0.73336023 0.09005516 0.042318534 0.046835467
-0.013628231

grud_cell.bias f4 [17]
00000000: 3594 c43d 47e2 0fbe ca40 0ebe 97e4 cd3d
00000010: fa93 263e bc6f 313e a93a 1e3e 5fbc 03be
00000020: 5763 debc dd28 293e 965e 2e3e f9ea 24be
00000030: dd11 093e b60d 9e3d 3d59 1ebe 02cb 07be
00000040: 9ca7 32be
0.09598581 -0.14051162 -0.13891903 0.10053366 0.16267386 0.1732778 0.15452065 -0.12864827
-0.027146978 0.16519494 0.17028269 -0.1610526 0.1338572 0.07717459 -0.15463729 -0.13261035
-0.1744675

fc.weight f4 [6, 17]
00000000: 4481 ae3e 7f1f afbe 88ac 91be f112 bf3d
00000010: 64de ce3e 9be6 a23e 01cf 8b3e b1d1 5dbe
00000020: b2b0 3b3d 91d2 6c3e a408 c63e 3b80 01be
00000030: 5bc1 b73e a825 8a3e 2233 87bd fa90 dcbe
00000040: b262 1abe e601 85be c75c 803e fbc6 143e
00000050: 8d86 e83c af3f b7be f78f ccbe 7ec1 99bd
00000060: 90d2 9c3e fba7 203d d946 f1bd 13ea 073c
00000070: bf6a 553e d7ef 74be bc09 3c3d 76eb 923e
00000080: 8a1a 1a3e 3302 b53e 66f1 cfbd c7c5 183e
00000090: 8367 233e 1729 c4be 69c6 b2bd 0c5d a8be
000000a0: 2f5d c7be b487 183e 7a88 debc 3099 adbe
000000b0: 9bd9 7ebe 4f69 273e 21cd fbbd b883 e7bd
000000c0: ad3f b23d f882 833e 5d4c 393d c17a c33d
000000d0: 1464 9f3e c660 a33e fe24 b8be c3b4 c8bc
000000e0: 76aa 0fbe 0319 cfbe 5425 b63e d9b3 663d
000000f0: c2c2 07be 0274 903c 9f66 a33e bb64 543d
00000100: 40ad 9bbe b433 aa3e 44d1 7c3e 3761 443e
00000110: 32fb 9cbe 717e 923d 7e98 cf3e 1e4d 503c
00000120: cf76 59bb 1238 69be 8d46 9fbe 1d09 413e
00000130: b75a 1dbd 6149 acbe 03b8 e0bd 7e20 b83e
00000140: 2065 b0be b78c 90be 0542 143e 69e6 dc3d
00000150: a824 863d 6caa 3dbe 8297 4e3e fd3e f03d
00000160: 29f4 68bc 8bc0 9bbd 6db2 16be 3e28 8cbe
00000170: 22ae 1e3e ea16 733e 1e08 38be 6d0e e2be
00000180: 1774 573e c228 98bd e14a 3abe be07 b93d
00000190: 37d4 333e 39b5 b93e
0.34082997 -0.34203717 -0.28451943 0.09329785 0.40404046 0.31816563 0.2730637 -0.21662022
0.045822807 0.231272 0.38678467 -0.12646572 0.35889706 0.26981854 -0.0660155 -0.43079358
-0.15076712 -0.2597801 0.25070783 0.1452903 0.028384471 -0.35790774 -0.39953586 -0.07507609
0.30629396 0.0392227 -0.11781091 0.008295554 0.20841502 -0.23919617 0.04590772 0.28695267
0.15049186 0.3535324 -0.10153465 0.14919196 0.15957455 -0.383126 -0.0872925 -0.3288349
-0.3893828 0.14895517 -0.027164686 -0.33905935 -0.24887697 0.16348766 -0.122949846 -0.1130442
0.087035514 0.2568586 0.04523884 0.09544898 0.3113104 0.3190977 -0.35965723 -0.024500256
-0.1402987 -0.4044877 0.35575354 0.05632386 -0.13257888 0.017633442 0.3191423 0.051853877
-0.30405617 0.3324257 0.24689204 0.1917771 -0.30660397 0.07153023 0.4054603 0.012713699
-0.0033182388 -0.22775295 -0.31108513 0.18851133 -0.03841659 -0.33649734 -0.109725975 0.3596229
-0.34452152 -0.28232357 0.1447831 0.10786135 0.065499604 -0.18522042 0.20174983 0.11730764
-0.014218369 -0.07605084 -0.14716502 -0.27374452 0.15496114 0.2373921 -0.17971846 -0.4415163
0.21040379 -0.07429649 -0.18192627 0.0903468 0.17561422 0.36271074

fc.bias f4 [6]
00000000: e6a8 aa3e c0b8 a3be df49 bc3c 9fdb efbc
00000010: 0dbe 36bd 1ca0 8ebe
0.33331984 -0.3197689 0.022984443 -0.029279528 -0.04461484 -0.2785653
